ckpt/classifiers/rgb_epoch_16.pth (torch, 42168 bytes, 4 tensors)

fc1.weight f4 [64, 128]
000000 7f d6 fb 3d 6b 5b 17 bf cd aa c3 3d 2a 6b bf be
       0.12296771 -0.5912387 0.09554062 -0.37386447
000010 d9 8e 18 3e fe b0 1a 3f 0d 4d fd 3e 12 4e 00 bf
       0.14898242 0.6042632 0.49472848 -0.50119126
000020 da 78 52 3f d1 3e 13 bf b9 05 82 3f e8 3f 64 bf
       0.82215655 -0.57517725 1.0157996 -0.89160013
000030 fa d6 b3 3e 5c b0 2e 3e d3 b2 4c bf fa 0a 91 be
       0.35124952 0.17059463 -0.79960364 -0.28328687
000040 28 a7 02 bf 83 06 8c 3f 97 56 4a bf f3 d0 a2 be
       -0.5103631 1.0939487 -0.79038376 -0.3180004
000050 b2 b8 41 3e 0d ea 9f bd 30 4e 62 3f af 81 19 bf
       0.18918112 -0.078083135 0.88400555 -0.59963506
000060 0f de ba bf aa ea d3 bc 56 7f 8b 3e 4b 27 04 3d
       -1.4599017 -0.025868732 0.27245587 0.032264035
000070 38 e9 ed 3e 3e 08 8c bf 75 06 9b 3e 9c 71 6e be
       0.46466994 -1.0940015 0.30278364 -0.23285526
000080 35 c3 6c 3e ab 0e d4 3e 5b 75 4c 3f 46 f0 e6 3e
       0.2312134 0.4141744 0.7986657 0.4510519
000090 6a dc 10 3e f3 94 a8 bf e4 b0 95 3e 84 69 22 3f
       0.14146581 -1.3170456 0.2923652 0.63442254
0000a0 de 1b ab 3e 8b c7 bb 3f 36 71 67 3f a7 bb 3b bf
       0.33419698 1.4670271 0.9040712 -0.7333321
0000b0 59 70 ce 3e 73 72 41 bf 4a 83 9c be a0 1c 11 3f
       0.4032009 -0.7556526 -0.30568916 0.56684303
0000c0 68 7f 89 3d 03 85 62 be 6c 4b ce 3e 7b 7a 20 3e
       0.06713754 -0.22121052 0.40291917 0.15671723
0000d0 4b cb ea 3c 3b d7 44 3e e7 5e 34 3f 03 6e 16 3f
       0.02866139 0.19222729 0.7045731 0.58761615
0000e0 59 c0 a0 bf ad 5b bb bf ca 6c 3d be 3f 53 d5 3e
       -1.25587 -1.4637352 -0.18498531 0.41665074
0000f0 8b 70 7e bf 42 aa 5b bc dc 5f 36 3f 3c 09 98 bd
       -0.99390477 -0.013407292 0.7124002 -0.07423636
000100 40 4a 07 bf c1 89 51 3f 70 64 4b be a6 44 07 bc
       -0.5284767 0.8185082 -0.19862533 -0.008256113
000110 b8 3c 3e 3e 66 6c 24 be 8d 47 db 3e c0 7a 84 bf
       0.1857785 -0.16056976 0.42828026 -1.034996
000120 93 57 a5 bd a6 f5 02 3f 82 e1 14 be c7 c2 02 bf
       -0.08073344 0.5115608 -0.1453915 -0.51078457
000130 16 6c f4 bc 54 72 d5 3e 15 62 7b bf 21 9d ca 3e
       -0.029836696 0.41688788 -0.98196536 0.39573005
000140 59 70 18 bf a3 46 c5 3e 38 c0 4d bf 0f f0 bf 3e
       -0.5954643 0.38530454 -0.8037143 0.37487838
000150 e1 f2 39 3d 63 a5 3e be 7e e7 0a 3f f4 81 6f bf
       0.045397643 -0.18617778 0.5425948 -0.9355767
000160 f5 f7 32 3f 26 e5 b5 3e 3f 14 dc 3c e3 cc 57 be
       0.699096 0.3552639 0.026865123 -0.21074252
000170 5f ea 16 bf a6 3b c2 3d 25 2c b0 3e ab 62 26 3f
       -0.5895137 0.09484033 0.3440868 0.64994305
000180 05 bb dc be d0 1a 3c bf 05 af fb 3d a4 c9 87 bf
       -0.43111435 -0.7347841 0.12289242 -1.0608411
000190 64 4b 27 bf 57 9c 5c 3c e3 36 84 3f fd bb 36 3d
       -0.6534941 0.013465009 1.032925 0.044612873
0001a0 16 29 b6 be 7b 2d 24 bf 3e 56 2d bf f1 43 53 be
       -0.3557822 -0.641319 -0.6770972 -0.20631386
0001b0 5e ee 95 be 4b 1f 99 3f 4a b3 49 bf 83 65 6e 3f
       -0.29283422 1.1962675 -0.787892 0.93123645
0001c0 85 b7 d4 3e f5 2a 13 3f 12 4b 07 3e fc 78 13 bf
       0.41546264 0.5748742 0.13212231 -0.5760648
0001d0 c7 7a 68 3f e0 f1 86 3f 07 8e 8b 3f d9 70 8b 3f
       0.90812343 1.0542564 1.0902718 1.0893813
0001e0 96 a3 6b bf f7 5f 81 bc e1 c7 9e bf c9 86 68 3f
       -0.9204649 -0.01579283 -1.2404748 0.90830666
0001f0 d6 0b d1 be 80 6f 0e 3c 66 1d 6b 3f c1 a4 97 bf
       -0.40829343 0.008693576 0.91841733 -1.1847154
000200 5a ed 1a bf 84 54 df be 7a 6d bd 3e 8d 1b 51 bd
       -0.6051842 -0.43619168 0.36997586 -0.051051665
000210 9b a0 06 3e 4d 04 43 3f b4 5c 5e 3f 60 d3 55 3d
       0.13147204 0.7617844 0.86860204 0.052203536
000220 07 1e 9c 3e fd e6 9d bd 4f 98 05 3f a9 ad ff be
       0.3049166 -0.07710073 0.5218553 -0.4993718
000230 7c 73 8a 3f d6 e1 a5 bd 16 ec 4e be f6 68 89 bf
       1.0816493 -0.080997154 -0.20207247 -1.0735157
000240 7e f3 32 3f a2 9d 21 3f 31 9c 5c bf 3d ee 49 be
       0.6990279 0.63131154 -0.8617583 -0.19719787
000250 3c bb 21 3f 2e b5 76 3f 8a 33 c4 3f c7 a4 0a 3f
       0.6317632 0.9637021 1.5328228 0.5415768
000260 d8 6d 76 bf 65 da 44 3f f1 89 2b 3f a8 06 82 bf
       -0.9626136 0.76895744 0.67007357 -1.0158281
000270 4f 17 cd 3e 0b 89 24 bf d7 0c 99 be 49 81 2d bf
       0.40056846 -0.6427161 -0.2989261 -0.677754
000280 93 13 7b 3f 45 2e 87 bf 2d 7a 51 3e 81 86 8e 3e
       0.9807674 -1.0560995 0.20456763 0.27836993
000290 f1 df 73 be 74 eb 6e 3e b2 ab c3 be cb 56 3c be
       -0.23815896 0.23332006 -0.3821693 -0.18392484
0002a0 c5 ce 1f 3e ea 24 7c 3f 39 06 a7 3e c4 56 96 3e
       0.1560622 0.98493826 0.32621935 0.29363072
0002b0 16 0d 34 3f ce 2e cc bf 35 d8 3b bf 45 74 d2 3d
       0.7033247 -1.5951784 -0.7337678 0.10276083
0002c0 7f d7 a3 be 73 84 97 be 77 a3 c8 3e e9 9e 79 bf
       -0.32000348 -0.29593238 0.39187214 -0.975081
0002d0 70 a5 ed be f1 51 67 3e f7 b6 22 bd 5c ba 08 bf
       -0.4641528 0.22589852 -0.03972527 -0.5340936
0002e0 9d 29 c8 3e 7d 57 14 3f e8 20 85 be 2f 75 49 bf
       0.39094248 0.57945997 -0.26001668 -0.7869443
0002f0 f6 1b c1 be a3 0e 19 3f 5b bb 4f bf c1 76 14 be
       -0.37716645 0.5978796 -0.81145257 -0.14498426
000300 96 21 46 bd a0 95 90 3f 4d 89 62 3e 67 5f 83 be
       -0.048371874 1.1295662 0.22122689 -0.25658724
000310 02 3d ec bd b5 5b 8e be ca dc e4 3d f0 ab 49 bf
       -0.11535074 -0.27804342 0.11174925 -0.7877798
000320 42 b7 17 40 34 77 94 3e 89 7c ad bc 38 aa 4f bf
       2.3705602 0.28997195 -0.021177547 -0.8111911
000330 71 82 79 3e 5d 6a 2e be 25 59 94 3d 65 95 dd b9
       0.24366166 -0.17032762 0.072435655 -0.00042263712
000340 48 dd 55 be 88 57 6d be fd 34 03 3e 45 74 bd be
       -0.20885193 -0.23177922 0.12813182 -0.3700277
000350 76 e4 08 3f e6 c9 55 bf 32 53 1d be 6f 98 68 bf
       0.53473604 -0.835112 -0.15363768 -0.90857595
000360 a2 3e 19 3f 47 36 4d 3f 04 9c 73 3f 26 83 46 3f
       0.59861195 0.80160946 0.95159936 0.77543867
000370 4e 2c 69 bf 4d 73 cc 3e b2 fd c2 3d 6f 25 3e 3f
       -0.9108323 0.39931718 0.09521045 0.7427587
000380 3b 7c 0c 3d 06 6f ba be bc e7 01 3f e9 d8 43 3f
       0.034298163 -0.3641283 0.50744224 0.76502854
000390 f6 a1 e5 3d f0 8a be 3f 7e 60 7e bd 6c b5 94 be
       0.11212532 1.488615 -0.06210374 -0.29044664
0003a0 8d 86 5a be fc 35 be bd 8a f0 6d 3e 19 0f 4e bf
       -0.2134039 -0.092876405 0.2323629 -0.8049179
0003b0 f5 b9 27 bf 66 35 6d 3f 0e 27 7f bf 20 2b f9 be
       -0.6551812 0.92659605 -0.9966897 -0.48665714
0003c0 24 dd 4e 3f 80 fc 55 bf 4d fe 29 3e cd 15 b7 be
       0.80806184 -0.8358841 0.16600914 -0.3575882
0003d0 1d 4a e6 3e 93 61 87 3e 0a 2c fd 3e 0c 39 bf 3e
       0.4497842 0.2644163 0.49447662 0.3734821
0003e0 e3 46 9a bf 58 0f 58 3f 0b 97 6e bf 1b 84 80 3f
       -1.2052883 0.8439841 -0.93199223 1.0040315
0003f0 83 3f 1c bf 95 87 da bd f5 85 64 bd 04 b9 ff 3e
       -0.6103441 -0.106703915 -0.055791814 0.49945843

fc1.bias f4 [64]
000000 28 1d 64 bf f9 45 af bf e4 6f a8 bf ed 4c dd bf
       -0.8910699 -1.3693229 -1.3159146 -1.7289101
000010 b7 e6 eb bf d1 89 a0 bf 9a 11 89 bf 8e e7 d0 bf
       -1.8429784 -1.2542058 -1.0708497 -1.6320665
000020 11 49 02 c0 24 f3 7b bf b5 58 4a bf 7e 1e 43 bf
       -2.0357096 -0.9841788 -0.79041606 -0.762184
000030 d0 28 c4 bf 87 e8 7c bf b1 bf 90 bf d1 32 b0 bf
       -1.5324955 -0.9879231 -1.13085 -1.3765508
000040 f7 2d 97 bf ee ba 7c bf 34 e7 96 bf c8 c1 cd bf
       -1.1810902 -0.9872273 -1.1789308 -1.6074762
000050 e6 5c 9a bf ec 93 82 bf 43 f9 4e bf 5c 9a fc bf
       -1.20596 -1.0201392 -0.80849093 -1.9734607
000060 bb 79 72 bf 5a 42 ac bf d0 f0 a7 bf 99 03 d7 bf
       -0.94716996 -1.3457749 -1.3120365 -1.6797973
000070 6e 98 92 bf 1f 64 72 bf bf f4 c2 bf c9 3e b1 bf
       -1.1452768 -0.9468402 -1.523094 -1.3847286
000080 8a 0d d5 bf 59 51 7d bf 4c aa a6 bf 62 54 87 bf
       -1.6644757 -0.9895225 -1.302072 -1.0572627
000090 10 19 8d bf 75 db b8 bf ee c8 b1 bf 30 33 9c bf
       -1.1023273 -1.4441973 -1.3889444 -1.2203121
0000a0 31 43 81 bf f9 ec cd bf f6 6f 96 bf 60 0d d4 bf
       -1.009863 -1.6087943 -1.1752918 -1.6566582
0000b0 23 4f bd be f5 00 96 bf 91 a0 3e bf 18 bd b4 bf
       -0.3697444 -1.1719042 -0.74463755 -1.4120207
0000c0 ed 5f b6 bf 36 26 b3 bf 71 65 f9 bf 67 e7 b3 bf
       -1.4248024 -1.3996036 -1.9484082 -1.4054993
0000d0 3b 49 f0 bf c1 96 e9 bf 81 12 9d bf b8 91 83 bf
       -1.8772348 -1.8249131 -1.2271272 -1.0278845
0000e0 1c 7a d4 bf 35 34 03 c0 b6 c6 8b bf 6b 5d 87 bf
       -1.6599765 -2.0500615 -1.0920017 -1.0575384
0000f0 b2 9c c2 bf 99 b9 93 bf 70 e1 db bf c0 4a a2 bf
       -1.520407 -1.1541015 -1.7178173 -1.2679062

fc2.weight f4 [27, 64]
000000 30 85 e1 bd a7 c9 55 be cc 49 28 bf 82 c3 1f 3d
       -0.110117316 -0.20877706 -0.65737605 0.03900481
000010 2a c4 02 be 4d 91 53 3e 51 5b 04 bf 15 54 70 be
       -0.12770143 0.20660897 -0.5170184 -0.23469575
000020 ec 5a 09 bf 1d bd ff be e1 c9 96 3e ba f3 e8 3d
       -0.5365436 -0.4994897 0.29450896 0.11374612
000030 60 fc d1 3e d6 3d e9 be 04 5d 69 bf 93 ce db be
       0.4101286 -0.4555499 -0.91157556 -0.4293104
000040 a9 42 91 be 14 68 26 bf 2e 59 6b bf b9 e9 8e 3e
       -0.2837117 -0.6500256 -0.9193295 0.2791269
000050 4c 47 a0 3d 30 dd e6 be 0c 80 fc b9 0a 23 d2 be
       0.07826099 -0.45090628 -0.00048160588 -0.41042358
000060 44 64 19 3d 84 03 1e bf 3c da 26 bf 47 85 11 bf
       0.037449136 -0.61724114 -0.6517675 -0.5684399
000070 a4 74 22 bf bc f5 91 3d 47 ef 09 3f 5c 4a b7 bd
       -0.6345923 0.07126948 0.53880733 -0.0894973
000080 b1 4a 26 3f 85 1a 7a be b3 d6 d5 3e 5b 71 e9 bd
       0.6495772 -0.24424179 0.41765365 -0.11398574
000090 ef a9 0f 3f 0a 2f 87 3e d4 8d a1 bc 3d 63 dd be
       0.56118673 0.26403075 -0.01972095 -0.43239775
0000a0 64 3f 3d bf 09 7f f6 3e fa 9b 4c 3f fd bd 38 3f
       -0.7392485 0.48143795 0.799255 0.721649
0000b0 89 46 4b bf e6 18 b1 be 26 70 1b bc c7 1d d0 be
       -0.79404503 -0.34589309 -0.0094871875 -0.40647718
0000c0 b1 e9 68 3f 5b e1 43 bf e1 6a b9 be 30 b7 57 3e
       0.90981585 -0.7651574 -0.36214355 0.21065974
0000d0 8b 15 ed bd ad 1e 26 3e 1d c4 a9 be f8 e7 74 bf
       -0.115763746 0.1622264 -0.33157435 -0.95666456
0000e0 e7 cb 6d 3e 16 b4 e8 3e f4 6b 01 3f a3 2e ea 3e
       0.23222314 0.45449895 0.5055535 0.45738706
0000f0 e3 9b d7 be fa ee 07 3e a8 37 f9 be cd 8f 8c be
       -0.4211112 0.13274756 -0.48675275 -0.2745346
000100 64 40 27 3f 4f 52 33 bf 09 7c 72 be bc 73 84 3e
       0.6533263 -0.7004747 -0.23680128 0.25869548
000110 ef 9e 8a 3b c0 ba ab bf f9 8d 32 bf 47 8e 55 3f
       0.004230372 -1.3416367 -0.69747883 0.83420223
000120 b1 3d 8b 3e 73 b1 a0 3e 7f 5f 0e bf 46 31 1f 3e
       0.27195504 0.31385383 -0.55614465 0.1554614
000130 04 12 0f bf 87 4c d6 bf bd ff 59 be 02 3f 57 be
       -0.55886865 -1.6742104 -0.21288963 -0.2102013
000140 22 39 8c 3e 11 63 98 bf ca 70 81 bf f9 23 59 be
       0.2738734 -1.1905233 -1.0112545 -0.21205129
000150 a4 54 0d bf 35 83 7a bf e7 50 e7 be 90 f4 8a bf
       -0.55207276 -0.97856456 -0.4517891 -1.0855885
000160 28 e4 dd 3e 79 91 4c bf bb 48 60 bf 2c 7c 9f 3e
       0.43338132 -0.79909474 -0.8761098 0.31149423
000170 fd 54 0f bf a1 ad aa 3d de 82 4f bf b8 3f 38 3d
       -0.55989057 0.08333898 -0.8105906 0.044982642
000180 2e 0a 9d bc fe bb da bf ed 6d 2c 3e 00 49 46 bf
       -0.019169893 -1.7088621 0.16838808 -0.7745514
000190 64 b1 0d bf 81 05 ea 3e 49 00 b7 3e ba 58 8b bf
       -0.553488 0.45707324 0.35742405 -1.0886452
0001a0 91 a9 2f 3e 8b 65 1d 3e c1 1b 3f bf e1 06 8a bb
       0.17154528 0.15370767 -0.74651724 -0.004212246
0001b0 f8 f8 f7 be 09 66 85 be af 74 42 3f f0 83 c6 3e
       -0.48432136 -0.2605441 0.75959295 0.38772535
0001c0 5f e5 bc 3e ad 78 c3 3e 73 bf 1f be 35 90 09 be
       0.36893746 0.38178006 -0.15600376 -0.13433917
0001d0 df fb 03 bf 33 3c 99 3e 9d 60 03 be 92 38 63 be
       -0.515562 0.2992874 -0.12829824 -0.22189549
0001e0 7e 8f b8 3e 59 f9 de 3e b9 a4 e3 be ef 5b d1 3d
       0.36046976 0.43549612 -0.4446161 0.10222613
0001f0 93 dd 07 bf f6 ab 5f 3e 7a 40 b2 3e c6 a0 98 bf
       -0.5307247 0.21842942 0.34814817 -1.1924064
000200 89 e4 78 be 3e a0 fa bf ed d7 fc 3e 08 06 6a bf
       -0.24305929 -1.9580152 0.49383488 -0.9141545
000210 74 7b 89 be 6d f9 b0 bf 4b e0 c9 bf b7 66 d3 be
       -0.26852 -1.3826119 -1.5771574 -0.41289303
000220 f6 d6 b2 3e d1 38 4d 3f ca 56 bf bf 06 fc b4 bf
       0.34929627 0.8016482 -1.4948361 -1.4139411
000230 b1 a1 9c bf 0c c7 73 bf 62 f1 f3 3e b3 20 b1 be
       -1.2236844 -0.95225596 0.47645098 -0.3459526
000240 4b 4e 7c 3e 72 b1 38 bf 82 f2 7f bd b1 b9 6a 3e
       0.24639241 -0.7214576 -0.062487133 0.22922398
000250 bb 8f c7 bf 8b fd 95 bf 9e 71 06 bf 32 65 a0 bf
       -1.5590738 -1.1718 -0.52517116 -1.2530882
000260 06 e6 ad 3d 5a d8 96 bf 9e ca 36 be 6a a7 0e bf
       0.08491139 -1.1784775 -0.1785073 -0.55724204
000270 a1 7f 5f 3f 28 ff 1b bf bf 2c 4e bf 4f 41 fa be
       0.8730412 -0.6093621 -0.8053703 -0.48877952
000280 92 7d 79 be 5c 0b 24 bf d2 bd ad bf 50 cb 35 bf
       -0.24364308 -0.64079833 -1.3573554 -0.71013355
000290 92 a3 88 bf c4 9e a8 bd eb b9 b7 bf b4 22 5b bf
       -1.0674918 -0.08233407 -1.4353613 -0.8559983
0002a0 6f 1e c0 3d 22 52 9b 3e cf 89 e5 be c7 f0 aa 3d
       0.09380805 0.303361 -0.44831702 0.08346706
0002b0 ef 29 1f be ff 59 9a bf 0e 0d b0 bf 17 6a 6f bb
       -0.1554334 -1.2058715 -1.3753984 -0.003653174
0002c0 e4 fd 5e 3c 30 d9 5e be d9 b8 8b be 2f 2a 91 bf
       0.013610337 -0.21762538 -0.27289465 -1.1340998
0002d0 e4 86 48 bf 58 e0 ed bd d8 9e ce bf 97 c2 05 bf
       -0.78330827 -0.11615056 -1.6142225 -0.52250046
0002e0 1a dc 44 3f 19 64 2c 3f 32 f6 65 bf d6 ce d3 bf
       0.7689835 0.67340237 -0.8982879 -1.6547496
0002f0 52 9d 74 bf b6 65 b5 3d 88 21 19 bf 75 d0 19 bf
       -0.9555255 0.088572904 -0.5981679 -0.60083705
000300 48 85 b0 be 8b a0 b0 bf 79 97 15 bf b4 dc f7 bd
       -0.34476686 -1.3798994 -0.58434254 -0.12102643
000310 c2 b5 48 3e 31 06 3d be ca 70 71 bf 65 ef a5 be
       0.19600585 -0.18459393 -0.9431273 -0.32409206
000320 0f 74 ac be 63 6c 0c 3f a9 ab 78 be 68 d3 02 3f
       -0.33682296 0.54852885 -0.24284233 0.5110383
000330 03 5d 2d 3f 55 94 66 3d 2c 20 b4 bf 07 30 23 bd
       0.6772005 0.056293804 -1.4072318 -0.039840724
000340 5e 78 f9 3d a4 57 33 bf de d0 a4 bc 7a ed 40 3f
       0.12181161 -0.70055604 -0.020119127 0.7536236
000350 28 86 b2 be e5 c6 01 bf d9 e4 c1 3e 6a 30 2c bf
       -0.34867978 -0.50694114 0.3786991 -0.67261374
000360 fe fa 51 3e ad 11 4a bf db c4 f1 be 9c f4 32 bf
       0.20505902 -0.7893322 -0.472205 -0.69904494
000370 7e 71 a5 3e 09 1e de 3e 54 97 25 bf 6b a4 3c bf
       0.3231315 0.4338229 -0.64684033 -0.7368838
000380 48 8d 54 3e 69 5e bd bb c5 57 89 bd 4d 7a 14 bf
       0.2075702 -0.005779077 -0.06706194 -0.57999116
000390 59 2f 8d bf 9f af 2e bf e8 42 1f 3f a7 2c f0 3e
       -1.1030074 -0.68236727 0.62211466 0.46909067
0003a0 79 e6 ce bf e9 4e 2a 3e c6 87 2a 3f 4e 37 03 bf
       -1.6164085 0.16631664 0.66613424 -0.51256263
0003b0 cd e5 09 be 49 c1 a1 bf f2 ff a1 bf 3a 55 7b bf
       -0.13466568 -1.2637111 -1.2656233 -0.9817692
0003c0 b3 b4 ae 3e 9b d5 70 bf 8b 9a fc 3e bc a6 ed bf
       0.34122238 -0.94075936 0.49336657 -1.8566508
0003d0 5e 8d d3 bc 72 70 38 be 44 fe e3 ba a1 79 c7 bf
       -0.025824245 -0.18011644 -0.0017394503 -1.5583993
0003e0 f8 c4 1c be 60 fe ac 3e 57 70 56 3f 65 49 29 bf
       -0.15309513 0.33787823 0.83765167 -0.66127616
0003f0 f8 0e 65 3c 17 1c a6 3e 87 26 5b bf b1 4a 93 bf
       0.01398062 0.32443306 -0.85605663 -1.1507169

fc2.bias f4 [27]
000000 56 42 de bd b6 d5 82 bf 45 8b 1b 3e c2 58 35 bf
       -0.10852496 -1.0221469 0.15189846 -0.7083856
000010 bc 39 86 3e ff d3 65 bc d0 92 65 bf b7 ca 65 bf
       0.26215923 -0.014027595 -0.89677143 -0.89762443
000020 ae 5c 94 bf f2 79 e8 be 07 76 f9 3e d7 5f 85 bd
       -1.1590784 -0.45405537 0.4872286 -0.065124206
000030 3c 5e 8a 3f 50 ef 4f 3f f5 1a 81 3f 42 17 67 3e
       1.0810008 0.81224537 1.0086352 0.22567466
000040 b9 cc 1b c0 64 83 0d c0 7e 03 41 bd 84 3f 48 3f
       -2.4343703 -2.2111444 -0.04712247 0.7822192
000050 41 7e e2 3f 8f d9 9c 3f c8 a2 7a 3f f6 aa 45 3f
       1.769478 1.2253894 0.97904634 0.7721399
000060 ef 5f 79 3e 3e f4 0c 3f 3b 9a 1a 3e
       0.24353002 0.55060184 0.15097897
