ckpt/classifiers/rgb_epoch_41.pth (torch, 42168 bytes, 4 tensors)

fc1.weight f4 [64, 128]
000000 1e e1 c2 3d ba 9b 39 bf 88 0a b9 3c 03 c4 ad be
       0.09515594 -0.72503245 0.02258803 -0.33938608
000010 e9 a1 52 3e 21 7a 23 3f a8 88 08 3f 13 1a e5 be
       0.20569576 0.6385823 0.5333352 -0.44746456
000020 a6 ef 53 3f 84 48 00 bf 4c 5b 8a 3f e2 99 7f bf
       0.8278755 -0.5011065 1.0809112 -0.9984418
000030 2e 1f ae 3e 94 33 66 3e b0 6c 49 bf 7b e1 23 be
       0.34008163 0.22480613 -0.7868147 -0.16003983
000040 55 90 f9 be a3 0c 95 3f 8a 73 4c bf a2 55 90 be
       -0.4874293 1.1644481 -0.798638 -0.28190333
000050 3e df 52 3e 81 04 51 bd 92 d8 6b 3f db 2c 04 bf
       0.20592973 -0.051029686 0.92127335 -0.51630944
000060 b1 ff bd bf 43 40 75 3d 36 03 81 3e 5c fc 78 3c
       -1.4843656 0.059875738 0.25197762 0.015196886
000070 77 44 fc 3e 9c 33 93 bf b6 86 7b 3e dd d9 94 be
       0.49270985 -1.1500125 0.24563107 -0.29072466
000080 f8 b9 60 3e f3 a9 cb 3e e8 6e 3d 3f 93 a7 06 3f
       0.21945941 0.39778098 0.73997355 0.5259945
000090 7b 13 1a 3e 4d 01 a8 bf cc 62 a4 3e 16 6b 3d 3f
       0.15046494 -1.3125397 0.32106626 0.73991525
0000a0 c2 b0 50 3e 2d 71 b4 3f 5d f6 82 3f 86 d2 54 bf
       0.20379928 1.4097039 1.0231434 -0.83133733
0000b0 7d 67 a6 3e 87 dd 54 bf be a5 b6 be e6 13 1a 3f
       0.3250083 -0.83150524 -0.35673326 0.6018661
0000c0 13 85 ba 3d 44 77 25 be 04 ca f1 3e 24 a2 54 3e
       0.09107413 -0.16158777 0.47224438 0.20764977
0000d0 ea fa 05 3e c9 4c 9b 3e 34 2d 1c 3f 48 ac 23 3f
       0.13083997 0.3033202 0.61006474 0.63934755
0000e0 25 5d 99 bf 07 14 c1 bf 21 e4 a0 bd db e0 05 3f
       -1.198155 -1.5084237 -0.07856012 0.5229623
0000f0 77 22 85 bf 99 18 5d 3d 68 db 35 3f 66 ec aa 3c
       -1.0401143 0.053978536 0.7103791 0.020864677
000100 3c 7d 09 bf f1 cb 3b 3f cb bc 5a be 11 fb a8 bd
       -0.5370672 0.73358065 -0.21361081 -0.08251012
000110 a7 9d 7e 3d 1c a7 db bd 0b 9a b5 3e 04 63 82 bf
       0.062162068 -0.10725233 0.35469088 -1.0186467
000120 f7 d7 4c be cf 87 d9 3e a2 1e 74 bd 2b b4 12 bf
       -0.20004259 0.42486426 -0.059599526 -0.57306165
000130 97 db 4c bd 49 33 b0 3e 5d 46 7f bf 0f 0b fb 3e
       -0.050014105 0.34414127 -0.9971674 0.49031875
000140 6b de 35 bf be 13 fd 3e b4 fc 74 bf 52 6e ad 3e
       -0.7104251 0.49429125 -0.95698094 0.3387323
000150 02 94 5e 3d c3 26 96 be 20 b0 1b 3f f6 75 85 bf
       0.05434037 -0.29326448 0.6081562 -1.0426624
000160 82 27 30 3f 98 2a 88 3e 2b 06 a7 3d b7 3b 6f be
       0.68810284 0.26594996 0.08155473 -0.23362623
000170 de 07 18 bf c3 82 2b 3e 77 c6 db 3e 6a a6 1e 3f
       -0.59387004 0.167491 0.42924854 0.6197268
000180 3d 07 a9 be ed 81 27 bf b5 5f ad 3d 4f 21 90 bf
       -0.33013335 -0.65432626 0.0846552 -1.1260165
000190 d2 35 18 bf 86 b8 6e 3a 6a 0c 7d 3f 6a 94 c3 bc
       -0.59457123 0.00091064756 0.9884707 -0.02387448
0001a0 0a f1 8f be 71 ad 3c bf 4c 0d 2c bf 11 78 83 be
       -0.28113586 -0.7370215 -0.6720779 -0.2567754
0001b0 a4 88 a0 be fc 19 91 3f f3 68 59 bf 63 ac 78 3f
       -0.3135425 1.1336055 -0.84925765 0.9713804
0001c0 49 71 da 3e 73 bf f5 3e 26 0c 5e 3d ce d9 1c bf
       0.42664555 0.47997627 0.054210804 -0.61269844
0001d0 18 a7 71 3f ca 69 91 3f 4c a9 93 3f 6c c9 96 3f
       0.9439559 1.1360409 1.153604 1.1780219
0001e0 b5 1d 57 bf 9a 8a f7 bd 45 39 9b bf 49 cb 6d 3f
       -0.84029704 -0.12086983 -1.2126852 0.92888314
0001f0 8f a1 07 bf e2 04 9f bd af b7 66 3f 61 d5 a1 bf
       -0.52980894 -0.07764603 0.9012403 -1.2643243
000200 47 0a 00 bf ca 56 af be 8d ee e4 3e a1 bd e9 bd
       -0.5001568 -0.34245902 0.4471325 -0.11413122
000210 c0 f3 e3 3d 2c d9 76 3f 78 84 3d 3f a5 a6 25 bd
       0.11130476 0.9642513 0.74030256 -0.040442128
000220 01 f1 ea 3e 72 b7 5e be 58 e2 f4 3e dd a5 0e bf
       0.45886996 -0.21749666 0.47828937 -0.5572184
000230 e6 02 6e 3f ba b6 9c bd 66 33 3e be c4 22 89 bf
       0.9297317 -0.0765204 -0.18574294 -1.0713735
000240 64 ea 14 3f b9 c3 48 3f c7 51 5d bf 20 f1 94 be
       0.5817015 0.7842365 -0.8645291 -0.29090214
000250 40 fd 2d 3f 91 89 66 3f 72 17 bd 3f f1 cd dd 3e
       0.67964554 0.9005366 1.477278 0.43321183
000260 38 92 53 bf 6f a3 29 3f 4b b3 0a 3f 71 79 84 bf
       -0.8264499 0.66265005 0.5417983 -1.0349561
000270 b8 04 9b 3e 64 37 06 bf d0 a3 c9 be 91 95 45 bf
       0.30277038 -0.5242827 -0.39382792 -0.77181345
000280 8e 59 78 3f e7 b4 8a bf ce 55 2d 3e 1f 92 5f 3e
       0.9701165 -1.0836457 0.16927263 0.21833085
000290 a5 50 17 be 60 dd 1c 3e 7c 75 01 bf 87 92 6c be
       -0.14776857 0.15318823 -0.5056989 -0.23102771
0002a0 c5 54 38 3e a0 0b 92 3f e0 90 a2 3e 13 bb 8b 3e
       0.18001087 1.1409798 0.31751156 0.27291164
0002b0 0d f5 51 3f e0 94 c8 bf d5 6f 5e bf 29 48 42 3e
       0.8201454 -1.5670433 -0.8688939 0.1897284
0002c0 d1 68 01 bf 6a d5 b7 be d9 ee b3 3e 50 40 50 bf
       -0.5055056 -0.3590501 0.35143164 -0.81348133
0002d0 63 15 f2 be f0 c7 92 3e 31 a2 d2 bc c0 a0 0e bf
       -0.47281942 0.28668165 -0.025712105 -0.55714035
0002e0 41 05 b1 3e 62 ae 29 3f 47 26 ca be aa d5 42 bf
       0.3457432 0.6628171 -0.39482328 -0.76107275
0002f0 6e e7 c5 be 17 f4 26 3f b4 88 2b bf 71 47 55 be
       -0.3865313 0.652162 -0.6700547 -0.20828034
000300 1b e7 30 bd c9 96 99 3f 73 67 05 3e 7c b2 65 be
       -0.04318915 1.1999141 0.13027744 -0.22431368
000310 8d 2f 6a 3d 59 b3 3c be ab b0 85 bd 73 c1 57 bf
       0.057174254 -0.1842779 -0.06527837 -0.84279555
000320 12 20 18 40 83 67 81 3e c0 d4 13 be 50 64 47 bf
       2.3769574 0.25274286 -0.14436626 -0.7788744
000330 43 da 4e 3e 47 40 76 be eb 8c 68 3d c2 1e 33 bd
       0.20200448 -0.24047957 0.056775015 -0.043730505
000340 d2 c2 4e bd 63 36 c1 be 7b 15 88 3e 56 86 7f be
       -0.050478764 -0.37736806 0.26578888 -0.24953589
000350 a9 7d dd 3e 3d 39 47 bf f4 14 63 bd 43 57 81 bf
       0.43259934 -0.77821714 -0.055439904 -1.0104755
000360 92 c1 35 3f f3 d4 36 3f 79 bb 57 3f 45 1d 23 3f
       0.7099849 0.71418685 0.84270436 0.63716537
000370 69 5f 50 bf 23 79 9d 3e 9d 0a 03 3e 8f 89 41 3f
       -0.81395584 0.30756482 0.12797017 0.7560052
000380 56 63 43 be d0 12 a0 be 4b 86 fd 3e 69 25 36 3f
       -0.19080862 -0.31264353 0.4951652 0.71150833
000390 d8 ca 46 3e a1 81 c8 3f 6e 2d bb 3d 0e fd a5 be
       0.19413316 1.566456 0.091395244 -0.32419628
0003a0 20 8c 9a be 39 40 28 bc 59 85 95 3e 68 82 30 bf
       -0.30185032 -0.010269218 0.292033 -0.68948984
0003b0 d0 e9 0e bf 43 29 56 3f 49 86 7a bf e4 bc 01 bf
       -0.5582552 0.8365671 -0.9786115 -0.5067885
0003c0 cc 2d 4a 3f ef 1a 58 bf ec 8d 80 3e cc b4 42 be
       0.7897613 -0.844161 0.25108278 -0.19014281
0003d0 f8 5a ce 3e 3b a4 74 3e 65 bd 19 3f 49 95 e7 3e
       0.4030378 0.23890774 0.6005462 0.45231083
0003e0 c7 20 9b bf b2 9a 75 3f f3 3f 8d bf 7b 43 5b 3f
       -1.2119378 0.9593917 -1.1035141 0.8564984
0003f0 92 aa 06 bf f1 e6 fe bc de d7 1b 3d 79 4b cc 3e
       -0.5260402 -0.03111598 0.038047664 0.3990133

fc1.bias f4 [64]
000000 62 d3 47 bf 7f 79 b1 bf 5c e1 ae bf ad de e4 bf
       -0.7805692 -1.3865203 -1.3662524 -1.7880455
000010 aa 56 ec bf c3 58 a1 bf 93 80 91 bf 87 bd ca bf
       -1.8463948 -1.2605213 -1.1367363 -1.5839089
000020 81 fe 00 c0 6f fd 79 bf 52 a8 41 bf 8a be 32 bf
       -2.0155337 -0.97652334 -0.7564746 -0.6982199
000030 71 20 cc bf e0 a2 79 bf 28 8b 91 bf ee 62 a4 bf
       -1.59474 -0.9751415 -1.1370592 -1.2842691
000040 4b fd 99 bf ed da 76 bf 7c 8b 84 bf 25 8a c8 bf
       -1.2030424 -0.96427804 -1.0355067 -1.5667158
000050 7b 65 8c bf 24 79 7e bf b6 f1 3b bf 5a ec f1 bf
       -1.0968469 -0.99403596 -0.73415697 -1.8900254
000060 62 d1 69 bf bf c1 ab bf 0b 32 a2 bf 35 fd cc bf
       -0.9133512 -1.3418502 -1.2671522 -1.6014773
000070 e0 94 94 bf 6e 1c 65 bf 1f 2a c8 bf b2 e2 af bf
       -1.1607933 -0.89496505 -1.5637854 -1.3741057
000080 d5 8c d5 bf f3 43 78 bf fc cd 9a bf 99 b3 90 bf
       -1.6683604 -0.9697868 -1.2094111 -1.1304809
000090 cc 25 8c bf 26 e0 b8 bf 68 f8 b0 bf 9f 20 91 bf
       -1.0949035 -1.4443405 -1.3825808 -1.133808
0000a0 b4 f6 7a bf 61 d5 c8 bf e2 20 94 bf 01 94 d7 bf
       -0.9803269 -1.5690118 -1.1572535 -1.6842042
0000b0 d7 91 c1 be b2 fb a1 bf f5 fb 42 bf 5e 94 b6 bf
       -0.3780658 -1.2654936 -0.76165706 -1.4264028
0000c0 37 b4 b4 bf cb 08 ac bf d7 45 00 c0 ce 13 b3 bf
       -1.4117497 -1.3440183 -2.0042627 -1.3990419
0000d0 f7 00 f8 bf 0b ed e7 bf d2 9f a6 bf 2b c4 82 bf
       -1.9375294 -1.8119215 -1.3017523 -1.0216116
0000e0 71 a0 d1 bf cf 60 f9 bf a3 3a 8a bf d3 9d 81 bf
       -1.6377088 -1.9482669 -1.0799145 -1.0126289
0000f0 ce b9 bb bf c9 3b 9e bf 96 41 d5 bf 6b 22 9d bf
       -1.4666078 -1.2361995 -1.666064 -1.2276129

fc2.weight f4 [27, 64]
000000 c8 0e f4 bd 38 b1 59 be b0 87 29 bf c9 b1 fe 3c
       -0.11916882 -0.2125901 -0.6622267 0.031090634
000010 e7 99 03 be 0a d5 12 3e 77 e3 e6 be f1 a2 75 be
       -0.12851678 0.1433908 -0.45095417 -0.23987938
000020 02 44 09 bf 69 e9 03 bf 30 ed a1 3e ac 46 e9 3d
       -0.53619397 -0.5152803 0.31626272 0.11390433
000030 3d e1 ec 3e 09 76 e3 be 99 56 68 bf 62 0d dd be
       0.46265593 -0.4442599 -0.9075714 -0.43174273
000040 12 d7 a5 be 95 f4 23 bf 2a fb 6b bf 43 d5 70 3e
       -0.32390648 -0.6404508 -0.9218012 0.23518853
000050 82 d8 86 3d 5b 75 e9 be 71 cc 08 bd f4 ef df be
       0.06584264 -0.45597348 -0.033398096 -0.43737757
000060 0e bf 60 bd fe 50 1f bf 40 56 29 bf 01 88 10 bf
       -0.054869704 -0.6223296 -0.6614723 -0.56457525
000070 28 3a 23 bf 5c 38 fd 3c 52 1f 14 3f 46 43 ac bc
       -0.63760614 0.030910663 0.5786029 -0.021028172
000080 20 98 22 3f 40 23 84 be e6 bc 01 3f 10 43 ff bb
       0.63513374 -0.25808144 0.5067886 -0.007789977
000090 c9 c5 d6 3e 0f 02 79 3e 90 c8 b7 bc d5 61 f5 be
       0.41947773 0.24317192 -0.022434503 -0.47926202
0000a0 cb 52 48 bf 70 8d 04 3f 3e ac 4d 3f 1e 64 44 3f
       -0.7825133 0.51778316 0.80340946 0.76715267
0000b0 93 d0 44 bf 01 0f b6 be 73 15 60 bc 69 21 e3 be
       -0.7688076 -0.35558322 -0.013676989 -0.44361427
0000c0 53 59 42 3f 5f 7d 44 bf fa 48 c1 be 7a 0a 6b 3e
       0.7591755 -0.767538 -0.3775099 0.22953215
0000d0 85 ca e7 bd 17 76 ab 3d 8f 7b b6 be 1e 94 74 bf
       -0.113179244 0.08372133 -0.35641143 -0.9553851
0000e0 b1 1f 21 3e 82 8f 00 3f 4f 30 17 3f b6 b9 f6 3e
       0.15734746 0.50218976 0.5905809 0.4818856
0000f0 10 48 d8 be ac e0 11 3e 01 fd f7 be c6 00 a6 be
       -0.4224248 0.14245862 -0.48435214 -0.32422465
000100 69 fb 24 3f e6 aa 36 bf 95 67 95 be 6f 19 85 3e
       0.6444612 -0.7135452 -0.2918059 0.25995967
000110 90 5f 88 3c e1 47 b7 bf 24 52 1a bf 42 50 50 3f
       0.01664713 -1.4318811 -0.60281587 0.81372464
000120 49 44 8b 3e 76 ed a8 3e dc fe 0e bf c3 89 13 3e
       0.27200535 0.32993668 -0.55857635 0.1440802
000130 54 af 0c bf 1d 9e cb bf 2e 82 5d be 58 24 60 be
       -0.5495503 -1.5907627 -0.21631691 -0.21888864
000140 6b 5f a5 3e fd ec 98 bf 48 82 81 bf f4 57 62 be
       0.3229936 -1.1947323 -1.0117884 -0.22103864
000150 8d a8 0d bf 3d c1 7a bf 0f a9 eb be bb 4c 8b bf
       -0.55335313 -0.9795111 -0.4602742 -1.0882791
000160 99 49 02 3f ff cc 5a bf 58 f6 60 bf a1 55 c8 3e
       0.5089355 -0.8546905 -0.8787589 0.3912783
000170 9b d2 0f bf 3f 42 94 3d 60 93 4f bf ab 6c ad bc
       -0.56180733 0.07239198 -0.8108425 -0.021169981
000180 d4 8d b9 3c d3 13 db bf c9 d5 26 3e d3 96 46 bf
       0.022650637 -1.7115425 0.1629249 -0.7757389
000190 85 b2 0d bf df 2d 00 3f a5 de b5 3e cb af 8b bf
       -0.55350524 0.50069994 0.35521427 -1.0913023
0001a0 6b 11 ba 3e 41 89 bf 3d 8a 9b 3f bf 1d d6 9b bb
       0.36341414 0.09352351 -0.7484671 -0.004755749
0001b0 e8 52 11 bf 17 80 96 be f2 b9 1a 3f f0 14 c9 3e
       -0.5676713 -0.293946 0.6043998 0.39273787
0001c0 91 51 d5 3e 0c 4e 01 3f df 6a 28 be e7 4d 91 bd
       0.41663793 0.50509715 -0.16447018 -0.07094937
0001d0 8c 18 04 bf b8 21 97 3e 47 4c 16 be f8 ba 76 be
       -0.51599956 0.29517913 -0.14677535 -0.2409476
0001e0 2d f9 be 3e 5c 37 d9 3e c1 66 e4 be d2 07 82 3e
       0.3729948 0.42425048 -0.44609645 0.2539659
0001f0 f1 33 08 bf ec e1 3f 3e b4 b6 c0 3e 89 be 98 bf
       -0.53204256 0.18738526 0.3763939 -1.1933147
000200 57 15 82 be ff b4 fc bf 8c df 00 3f 35 cc 74 bf
       -0.25406906 -1.9742736 0.50341105 -0.95624095
000210 ee 84 89 be 4c 4b b2 bf a1 de ca bf 8d 83 d6 be
       -0.2685923 -1.3929229 -1.5849191 -0.4189724
000220 4f a4 b2 3e 5c ef 2d 3f 0f 1b c2 bf d4 4e b5 bf
       0.34890983 0.6794336 -1.5164508 -1.4164681
000230 e3 64 9f bf 18 09 79 bf 85 bd cb 3e 31 91 b6 be
       -1.2452663 -0.972795 0.3979303 -0.35657647
000240 dc 86 63 3e 17 e9 3b bf 8c 61 85 bd fd 6c 41 3e
       0.22219414 -0.7340254 -0.06512746 0.18889232
000250 71 6b c8 bf 9a 2d 97 bf ee 7d 0c bf 0e a0 a1 bf
       -1.5657789 -1.1810791 -0.54879653 -1.262697
000260 ad 3a 4f 3d 83 de 9d bf cb 18 5c be fc 0a 11 bf
       0.050593067 -1.233353 -0.21493833 -0.56657386
000270 31 e2 4d 3f 93 bb 27 bf 29 96 4e bf 7d f8 fb be
       0.80423266 -0.6552059 -0.80697876 -0.4921302
000280 e8 9e 83 be 19 67 23 bf 4d aa b1 bf 8b b9 36 bf
       -0.25707173 -0.6382919 -1.3880097 -0.71376866
000290 54 2e 89 bf 4c 06 ae bd 9b 7d b9 bf 65 82 5f bf
       -1.0717263 -0.08497295 -1.4491457 -0.8730834
0002a0 99 dc b0 3d af ff a9 3e 3c 51 eb be d8 3a a7 3d
       0.08635826 0.33202884 -0.45960414 0.081655204
0002b0 da cd 2f be 61 1e 9d bf 0f 6a b0 bf 02 10 12 3e
       -0.1716837 -1.2274896 -1.3782367 0.14263919
0002c0 a3 91 28 bd 3c 56 62 be f5 7b ae be 06 48 91 bf
       -0.041154515 -0.22103208 -0.34078947 -1.1350105
0002d0 7e 12 43 bf e1 82 20 be f6 1d d2 bf fc e6 06 bf
       -0.7620009 -0.15674926 -1.6415393 -0.52696204
0002e0 7d 33 3b 3f df 03 20 3f d4 67 69 bf d1 5f d5 bf
       0.7312544 0.62505907 -0.91174054 -1.6669866
0002f0 47 15 75 bf 1e 59 b5 3d d4 d9 16 bf 9d c1 23 bf
       -0.9573559 0.088548884 -0.5892613 -0.63967305
000300 97 e3 b1 be 42 26 b1 bf 25 bb 15 bf 2d 7b 22 be
       -0.3474395 -1.38398 -0.58488685 -0.158673
000310 8b b1 4a 3e 60 23 51 be b7 b3 72 bf 3f 6d a5 be
       0.1979429 -0.2042365 -0.94805473 -0.3230991
000320 d1 7b d0 be 87 70 20 3f 16 f2 05 be fc 8d 05 3f
       -0.40719464 0.62671703 -0.1308063 0.52169776
000330 79 23 03 3f 40 43 f9 bc 94 53 b6 bf 4a 4d 38 bd
       0.51226 -0.030427575 -1.4244256 -0.044995584
000340 70 c0 32 3e 23 0f 3f bf a8 6a 42 bd 53 5e 2b 3f
       0.17456222 -0.7463247 -0.047464997 0.669408
000350 01 74 b2 be 5a 44 04 bf a4 e3 a8 3e 2c 60 29 bf
       -0.3485413 -0.51666796 0.32986176 -0.6616237
000360 93 12 41 3e b4 06 46 bf c8 71 03 bf 85 d6 34 bf
       0.18854742 -0.7735398 -0.5134549 -0.7063983
000370 92 71 8b 3e c3 bc d9 3e 99 d1 20 bf 63 6f 4f bf
       0.27235085 0.42526826 -0.6281982 -0.8102934
000380 d2 3d 2c 3e 62 f2 dd bc 86 b3 3a bd 9f a2 28 bf
       0.16820458 -0.027093116 -0.045581363 -0.6587314
000390 e2 34 8e bf 64 3e 2f bf 00 d7 4e 3f 94 60 19 3f
       -1.1109889 -0.68454576 0.80796814 0.5991299
0003a0 70 f4 cf bf 05 c5 1f 3e e2 29 36 3f 6e 1e fb be
       -1.6246471 0.156025 0.7115766 -0.49046654
0003b0 24 6d 0e be 90 1b a2 bf bb 04 a9 bf cd cf 7b bf
       -0.13908821 -1.2664661 -1.3204569 -0.98363954
0003c0 99 a0 00 3f 66 b5 72 bf de 43 b3 3e 9e b8 ed bf
       0.5024505 -0.9480804 0.35012716 -1.8571966
0003d0 57 45 0b bd 40 5b 47 be 7e 36 5b bb f4 0b c8 bf
       -0.034001675 -0.19468403 -0.0033449228 -1.5628648
0003e0 c2 c7 07 be d9 a8 c0 3e e3 88 3e 3f 48 7d fe be
       -0.13259795 0.3762882 0.7442762 -0.49704957
0003f0 f5 fa 78 3c 70 90 a1 3e 28 fb 5c bf 55 93 80 bf
       0.015196552 0.3155551 -0.86320734 -1.0044962

fc2.bias f4 [27]
000000 72 75 3a be 9b 07 6d bf 25 ee d4 3d 89 9f 34 bf
       -0.18208864 -0.9258973 0.10396985 -0.7055593
000010 1d cf ba 3e d4 21 67 3c 8e d0 84 bf 8c 45 73 bf
       0.3648614 0.014107186 -1.0376146 -0.95027995
000020 e8 fc 97 bf 05 51 fc be 86 64 f6 3e 29 74 15 3e
       -1.1874056 -0.49280563 0.48123568 0.14595093
000030 50 21 80 3f d0 5d 2f 3f 1f 12 77 3f 94 8a 15 3e
       1.0010166 0.6850252 0.96512026 0.14603645
000040 e1 50 21 c0 54 33 14 c0 f6 b5 23 3c 1b 00 57 3f
       -2.5205615 -2.3156328 0.009992113 0.83984536
000050 e0 e7 ff 3f b5 4d ab 3f 9c 78 5f 3f 62 76 4d 3f
       1.9992638 1.3383089 0.8729341 0.8025876
000060 20 a1 9f 3d d1 e3 1c 3f f3 51 89 3e
       0.07794404 0.6128512 0.26820335
