ckpt/classifiers/rgb_epoch_22.pth (torch, 42168 bytes, 4 tensors)

fc1.weight f4 [64, 128]
0.12380804 -0.65238184 0.10853942 -0.3626357 0.19359107 0.6540667 0.50813377 -0.49641597
0.8544449 -0.58333826 1.0598049 -0.9801987 0.30907875 0.16437878 -0.80929106 -0.20618348
-0.5374397 1.1692132 -0.80709434 -0.33477053 0.17792432 -0.06752545 0.9064132 -0.5568714
-1.4266312 -0.020850796 0.20403059 0.0021808397 0.47443497 -1.1103354 0.27471253 -0.31879458
0.17965469 0.4083744 0.7632395 0.47476923 0.18174127 -1.3447585 0.27499348 0.70201
0.24307749 1.4291546 0.973164 -0.7880143 0.37632477 -0.8059377 -0.3568079 0.6383386
0.066693746 -0.18478769 0.45372406 0.222289 0.09776603 0.26942906 0.6338064 0.60213023
-1.2403753 -1.5020735 -0.14063105 0.50861526 -1.0246058 0.047130283 0.7308101 -0.019884659
-0.56817734 0.75175005 -0.2339389 -0.042792566 0.11597154 -0.11590244 0.3554335 -0.99613726
-0.18329862 0.4378345 -0.11181081 -0.55458814 -0.04449526 0.3522103 -0.989042 0.437061
-0.6083152 0.42225945 -0.87848634 0.37277722 0.031203974 -0.2201941 0.63644224 -1.0186749
0.7098481 0.27841663 0.020377921 -0.23776448 -0.5404391 0.13812634 0.43561375 0.63605607
-0.39789122 -0.6777123 0.078368075 -1.1240284 -0.5536191 0.0261262 1.0631162 -0.0014422447
-0.32443812 -0.6863832 -0.6530941 -0.2364922 -0.28154123 1.1239803 -0.8475184 0.9702789
0.38437298 0.5113618 0.112474315 -0.55841947 0.9231432 1.1185646 1.1431057 1.1600938
-0.86311406 -0.041079603 -1.2420566 0.8666687 -0.4794559 -0.048000246 0.91269666 -1.2618581
-0.5314706 -0.36067843 0.4101688 -0.12893733 0.0856363 0.90359086 0.7964324 -0.032223836
0.40694338 -0.18381557 0.4910061 -0.52578866 0.99818575 -0.0769263 -0.14700876 -1.0891268
0.59698284 0.7600393 -0.8404789 -0.2778522 0.668706 0.9046556 1.5052307 0.46528244
-0.8607015 0.7052134 0.5758641 -1.0105491 0.32806396 -0.5217062 -0.35023856 -0.7226834
0.9788989 -1.0725064 0.18139619 0.24522398 -0.17630446 0.13591862 -0.44264668 -0.21043894
0.19304481 1.1106137 0.29951712 0.29773173 0.8339283 -1.588565 -0.8314424 0.15644427
-0.43207884 -0.33083597 0.39073998 -0.88676155 -0.4680945 0.253736 -0.011259134 -0.5083269
0.33824745 0.61347234 -0.37883472 -0.785516 -0.37801147 0.61455846 -0.701755 -0.19677205
-0.047912642 1.182465 0.15834336 -0.21363062 -0.012832811 -0.21826059 0.016303876 -0.8242472
2.390557 0.2725773 -0.113200605 -0.77243644 0.2043463 -0.16374095 0.056984916 -0.051157765
-0.1221899 -0.34188423 0.21687014 -0.3049602 0.4691881 -0.7923801 -0.100385085 -0.9597166
0.6607 0.7628468 0.8633292 0.6785662 -0.81220704 0.3239954 0.1070613 0.69842464
-0.10840086 -0.36863583 0.48053205 0.71436185 0.15409441 1.5440967 0.049923312 -0.2832667
-0.29017702 -0.03807546 0.29998276 -0.7319926 -0.56498766 0.890545 -0.9946883 -0.4866972
0.8046233 -0.8590624 0.20462798 -0.24362127 0.44157836 0.25402266 0.5454994 0.38395008
-1.2430961 0.9214397 -1.0694127 0.9033568 -0.5399643 -0.016620051 -0.00088595157 0.4125851
00000000: 128f fd3d 7f02 27bf ea49 de3d 63ab b9be
00000010: bd3c 463e ea70 273f 0e15 023f 3c2a febe
00000020: e7bc 5a3f a855 15bf b0a7 873f 4dee 7abf
00000030: 923f 9e3e e952 283e b32d 4fbf c321 53be
00000040: a695 09bf c7a8 953f bc9d 4ebf 0b67 abbe
00000050: cb31 363e c84a 8abd b20a 683f 208f 0ebf
00000060: da9b b6bf 4acf aabc 65ed 503e 6bec 0e3b
00000070: 24e9 f23e 781f 8ebf 1fa7 8c3e 0b39 a3be
00000080: 66f7 373e 7316 d13e aa63 433f f414 f33e
00000090: 621a 3a3e 0c21 acbf f2cb 8c3e edb6 333f
000000a0: 4ee9 783e 8aee b63f 4721 793f 4ebb 49bf
000000b0: a4ad c03e ef51 4ebf 86af b6be 296a 233f
000000c0: bb96 883d fc38 3dbe 854e e83e ba9f 633e
000000d0: 8e39 c83d 9bf2 893e 2341 223f 3525 1a3f
000000e0: 9ec4 9ebf f243 c0bf 9601 10be 9c34 023f
000000f0: 4826 83bf af0b 413d 5f16 3b3f 27e5 a2bc
00000100: 1274 11bf b172 403f ae8d 6fbe 4247 2fbd
00000110: 7d82 ed3d 425e edbd 61fb b53e da02 7fbf
00000120: a2b2 3bbe d82b e03e 11fd e4bd 7df9 0dbf
00000130: a940 36bd e954 b43e db31 7dbf 76c6 df3e
00000140: 8cba 1bbf 6432 d83e 7be4 60bf a8dc be3e
00000150: 7a9f ff3c 907a 61be e1ed 223f f063 82bf
00000160: 9bb8 353f a08c 8e3e 99ef a63c 8878 73be
00000170: 385a 0abf fe70 0d3e c408 df3e 92d4 223f
00000180: 66b8 cbbe 8e7e 2dbf 717f a03d 2ae0 8fbf
00000190: fbb9 0dbf 9d06 d63c 3114 883f b409 bdba
000001a0: c11c a6be cfb6 2fbf 2d31 27bf 032b 72be
000001b0: 2c26 90be 96de 8f3f f7f6 58bf 3364 783f
000001c0: 89cc c43e 9be8 023f ef58 e63d 94f4 0ebf
000001d0: 1d53 6c3f 202d 8f3f 4a51 923f f47d 943f
000001e0: 0bf5 5cbf 1643 28bd b6fb 9ebf 00de 5d3f
000001f0: 3e7b f5be e89b 44bd 7da6 693f 9184 a1bf
00000200: 750e 08bf d8aa b8be a501 d23e 2608 04be
00000210: 1662 af3d bb51 673f fee2 4b3f 24fd 03bd
00000220: e25a d03e 263a 3cbe 2765 fb3e 169a 06bf
00000230: 1a89 7f3f 898b 9dbd 7789 16be 8268 8bbf
00000240: ded3 183f f091 423f a029 57bf a542 8ebe
00000250: 5130 2b3f 8297 673f 66ab c03f 8039 ee3e
00000260: ef56 5cbf de88 343f d46b 133f ac59 81bf
00000270: 00f8 a73e 8a8e 05bf 7852 b3be c801 39bf
00000280: 1e99 7a3f e447 89bf ecbf 393e ff1b 7b3e
00000290: 2889 34be 402e 0b3e 96a2 e2be 4e7d 57be
000002a0: 8aad 453e 9728 8e3f 4f5a 993e 4b70 983e
000002b0: 537c 553f 1956 cbbf 69d9 54bf ed32 203e
000002c0: 7039 ddbe 5563 a9be 120f c83e ce02 63bf
000002d0: 15aa efbe afe9 813e 3b78 38bc b621 02bf
000002e0: c52e ad3e 860c 1d3f a0f6 c1be 9417 49bf
000002f0: b88a c1be b453 1d3f 37a6 33bf 9d7e 49be
00000300: 0c40 44bd 035b 973f c324 223e fcc1 5abe
00000310: b640 52bc b47f 5fbe b58f 853c dd01 53bf
00000320: e3fe 1840 408f 8b3e b8d5 e7bd 65be 45bf
00000330: 2840 513e b5ab 27be 0469 693d ce8a 51bd
00000340: b33e fabd 730b afbe 3513 5e3e be23 9cbe
00000350: 6c39 f03e 6cd9 4abf b296 cdbd fdaf 75bf
00000360: a323 293f ee49 433f 2403 5d3f 84b6 2d3f
00000370: cdec 4fbf bae2 a53e f442 db3d f5cb 323f
00000380: 4501 debd d6bd bcbe 4c08 f63e 6be0 363f
00000390: edca 1d3e f6a4 c53f 637c 4c3d 5508 91be
000003a0: 1592 94be 03f5 1bbd 5797 993e de63 3bbf
000003b0: 08a3 10bf c2fa 633f e4a3 7ebf 6030 f9be
000003c0: cbfb 4d3f 83eb 5bbf ff89 513e db77 79be
000003d0: 8f16 e23e 420f 823e d9a5 0b3f 1b95 c43e
000003e0: c61d 9fbf 79e3 6b3f 84e2 88bf 6442 673f
000003f0: 1a3b 0abf c626 88bc 343f 68ba 5b3e d33e

fc1.bias f4 [64]
-0.8088998 -1.3916849 -1.3253988 -1.7752713 -1.8387986 -1.2605541 -1.129284 -1.6046704
-2.0358129 -0.9831847 -0.7833127 -0.7358493 -1.6212622 -1.0077133 -1.167306 -1.3531116
-1.1874193 -0.9791621 -1.1079435 -1.6036835 -1.1731325 -0.9919845 -0.77297306 -1.9027469
-0.9246237 -1.3296968 -1.326996 -1.6516521 -1.2022908 -0.94506407 -1.5552852 -1.4144518
-1.6342239 -0.9994063 -1.245748 -1.0686146 -1.104892 -1.4789476 -1.3712215 -1.2031903
-1.0191585 -1.6027914 -1.1641558 -1.7046763 -0.38823563 -1.273618 -0.7342949 -1.4091542
-1.3922905 -1.387711 -1.9834558 -1.3908498 -1.9343771 -1.825444 -1.298039 -1.0769467
-1.6416091 -2.0138855 -1.1147368 -1.0499959 -1.5070058 -1.2210988 -1.6984538 -1.2533654
00000000: 0f14 4fbf bb22 b2bf aba6 a9bf 173c e3bf
00000010: c15d ebbf d659 a1bf 618c 90bf d765 cdbf
00000020: c24a 02c0 feb1 7bbf 2e87 48bf 9f60 3cbf
00000030: 8585 cfbf c0fc 80bf 486a 95bf c332 adbf
00000040: 5bfd 97bf 5eaa 7abf 18d1 8dbf 8045 cdbf
00000050: 3529 96bf b2f2 7dbf 90e1 45bf 368d f3bf
00000060: 24b4 6cbf 8133 aabf 01db a9bf 5669 d3bf
00000070: aae4 99bf b8ef 71bf 9613 c7bf c20c b5bf
00000080: 402e d1bf 17d9 7fbf ac74 9fbf 5dc8 88bf
00000090: 1a6d 8dbf 284e bdbf 3084 afbf 2402 9abf
000000a0: c973 82bf 4528 cdbf 0f03 95bf d532 dabf
000000b0: d2c6 c6be ea05 a3bf c0fa 3bbf 2a5f b4bf
000000c0: 9336 b2bf 84a0 b1bf e1e1 fdbf 5e07 b2bf
000000d0: ab99 f7bf 26a8 e9bf 2426 a6bf 64d9 89bf
000000e0: 3f20 d2bf 80e3 00c0 b2af 8ebf 4466 86bf
000000f0: 91e5 c0bf f74c 9cbf ef66 d9bf 476e a0bf

fc2.weight f4 [27, 64]
-0.11740778 -0.21042995 -0.6601757 0.036251068 -0.12847635 0.17650382 -0.47317204 -0.23102763
-0.536211 -0.50889623 0.23302835 0.08482919 0.42345664 -0.44905952 -0.90172553 -0.43064
-0.30002102 -0.6442025 -0.9201967 0.2623297 0.07126443 -0.4549058 -0.016703451 -0.41643688
-0.02426182 -0.62090564 -0.6528813 -0.5627475 -0.6361923 0.058665074 0.54321873 -0.0792532
0.6220385 -0.25155446 0.45172518 -0.13864309 0.4728356 0.24962148 -0.020283675 -0.46639907
-0.7678331 0.4665153 0.7987984 0.73866165 -0.784858 -0.3535247 -0.007995649 -0.43754843
0.85254925 -0.7666449 -0.3762239 0.21450199 -0.11325874 0.10054109 -0.33805656 -0.9543862
0.18651396 0.48473105 0.56089073 0.43868926 -0.42168304 0.13194068 -0.48084676 -0.32097784
0.6372992 -0.70850295 -0.24926257 0.2605974 0.024438072 -1.435025 -0.62542903 0.8527161
0.27200297 0.2998022 -0.55697244 0.15262353 -0.54789513 -1.5949565 -0.2129611 -0.21564105
0.3011031 -1.1932828 -1.0115905 -0.21015185 -0.55222434 -0.97902745 -0.45505863 -1.0859522
0.48666975 -0.80274457 -0.8749152 0.37224233 -0.5607375 0.079279535 -0.810755 0.010584174
-0.0015053283 -1.7101386 0.1682286 -0.774461 -0.5512685 0.46912512 0.35611355 -1.0896579
0.27096036 0.15096496 -0.74810493 -0.004603067 -0.5382339 -0.27940437 0.70857084 0.41458344
0.3866392 0.4614414 -0.16141629 -0.12860039 -0.51597804 0.3112779 -0.13638449 -0.22961612
0.3641217 0.4133754 -0.44680828 0.2019839 -0.5309258 0.19045925 0.37080437 -1.1930941
-0.2441824 -1.973315 0.448146 -0.9412746 -0.26858878 -1.3853918 -1.5814937 -0.41526216
0.34899563 0.74094516 -1.4961051 -1.4142354 -1.2412072 -0.9625468 0.44552734 -0.35154676
0.23666039 -0.72647357 -0.06364047 0.2071487 -1.5637397 -1.1802545 -0.5361168 -1.2553709
0.061801415 -1.2289252 -0.19625969 -0.5597398 0.8470397 -0.6449828 -0.80678934 -0.49076685
-0.2547271 -0.6369103 -1.3610637 -0.7107732 -1.0702704 -0.083366975 -1.4465094 -0.8563529
0.09267508 0.30867383 -0.4579207 0.08234251 -0.16047768 -1.2193893 -1.37666 0.049680367
-0.031450596 -0.21828043 -0.33368686 -1.1349086 -0.7630277 -0.13766828 -1.6364939 -0.5244942
0.74970347 0.6742469 -0.9036644 -1.6626996 -0.95576346 0.08855012 -0.58529806 -0.63719344
-0.34598833 -1.3832896 -0.5847038 -0.15094547 0.1978483 -0.2015258 -0.94664794 -0.31152242
-0.362195 0.5243623 -0.13034217 0.48582095 0.60879326 0.025840372 -1.4233776 -0.042535525
0.12229641 -0.7182651 -0.042845838 0.7390286 -0.34920418 -0.51567364 0.3563902 -0.6729435
0.18008332 -0.7738178 -0.47915697 -0.7041375 0.30967912 0.4362879 -0.6424477 -0.76756364
0.1794381 -0.023199702 -0.078382276 -0.61134493 -1.1088562 -0.68403 0.6517863 0.51017517
-1.6208564 0.15431534 0.6893723 -0.49235937 -0.13620283 -1.265968 -1.2966144 -0.98233163
0.3889943 -0.9445354 0.41128594 -1.8571413 -0.03315388 -0.18713067 0.010297677 -1.5612202
-0.16074273 0.37607116 0.7769651 -0.5692311 0.013129857 0.31787243 -0.85994744 -1.0585561
00000000: 7d73 f0bd f37a 57be 4601 29bf 007c 143d
00000010: 4e8f 03be 6bbd 343e 9b43 f2be 8292 6cbe
00000020: 2045 09bf 0647 02bf fc9e 6e3e edba ad3d
00000030: 4fcf d83e 21eb e5be 7cd7 66bf d97c dcbe
00000040: 5b9c 99be 74ea 24bf 0392 6bbf 1450 863e
00000050: 16f3 913d 6ae9 e8be add5 88bc 3737 d5be
00000060: b9c0 c6bc acf3 1ebf 3b23 27bf 3810 10bf
00000070: 80dd 22bf ca4a 703d 6210 0b3f 804f a2bd
00000080: ea3d 1f3f bfcb 80be 8648 e73e 74f8 0dbe
00000090: 8217 f23e c69c 7f3e f329 a6bc dccb eebe
000000a0: b690 44bf 18db ee3e 0d7e 4c3f ee18 3d3f
000000b0: 74ec 48bf 3101 b5be 2f00 03bc 5906 e0be
000000c0: ab40 5a3f d742 44bf 6ba0 c0be 69a6 5b3e
000000d0: 33f4 e7bd 7de8 cd3d c015 adbe a752 74bf
000000e0: 84fd 3e3e ab2e f83e 8996 0f3f e19b e03e
000000f0: d7e6 d7be 751b 073e 8c31 f6be 3557 a4be
00000100: 0a26 233f 7360 35bf b03e 7fbe 066d 853e
00000110: 5a32 c83c e6ae b7bf 1e1c 20bf 9a4b 5a3f
00000120: f943 8b3e ad7f 993e bf95 0ebf 5849 1c3e
00000130: db42 0cbf 8927 ccbf 7912 5abe 02d1 5cbe
00000140: 2f2a 9a3e 7ebd 98bf cc7b 81bf 0c32 57be
00000150: 935e 0dbf 8ba1 7abf 72fd e8be 7b00 8bbf
00000160: c72c f93e ab80 4dbf 71fa 5fbf 8c96 be3e
00000170: 7e8c 0fbf 4f5d a23d a48d 4fbf 3e69 2d3c
00000180: 704e c5ba d2e5 dabf 1e44 2c3e 1343 46bf
00000190: ef1f 0dbf 2b31 f03e 8454 b63e e979 8bbf
000001a0: 51bb 8a3e 8f96 1a3e ce83 3fbf 53d5 96bb
000001b0: b2c9 09bf 170e 8fbe e664 353f 4844 d43e
000001c0: 93f5 c53e 0c42 ec3e 504a 25be d2af 03be
000001d0: 2317 04bf d15f 9f3e 60a8 0bbe 7d20 6bbe
000001e0: 296e ba3e f1a5 d33e 0ec4 e4be ded4 4e3e
000001f0: c1ea 07bf c007 433e 12da bd3e 4fb7 98bf
00000200: f30a 7abe 9695 fcbf 6473 e53e 5ff7 70bf
00000210: 7884 89be 8554 b1bf 636e cabf 3e9d d4be
00000220: 8eaf b23e 95ae 3d3f 5f80 bfbf aa05 b5bf
00000230: e1df 9ebf 7869 76bf 291c e43e f0fd b3be
00000240: 1a57 723e 2cfa 39bf ef55 82bd ca1e 543e
00000250: 9f28 c8bf 9412 97bf f33e 09bf feaf a0bf
00000260: 7b23 7d3d 6c4d 9dbf 4df8 48be 1c4b 0fbf
00000270: 98d7 583f 981d 25bf bf89 4ebf cb45 fbbe
00000280: 976b 82be 8e0c 23bf 5637 aebf 3cf5 35bf
00000290: 9ffe 88bf 4ebc aabd 3827 b9bf f239 5bbf
000002a0: 6fcc bd3d 7f0a 9e3e 9574 eabe 31a3 a83d
000002b0: 4354 24be f314 9cbf 6536 b0bf a47d 4b3d
000002c0: 57d2 00bd e884 5fbe 01d9 aabe af44 91bf
000002d0: c955 43bf eaf8 0cbe a278 d1bf 4045 06bf
000002e0: 91ec 3f3f 729b 2c3f 8d56 67bf 57d3 d4bf
000002f0: eaac 74bf c459 b53d 18d6 15bf 1c1f 23bf
00000300: 6225 b1be a20f b1bf 26af 15bf 7391 1abe
00000310: bf98 4a3e c85c 4ebe 8557 72bf de7f 9fbe
00000320: 9f71 b9be 9c3c 063f 6b78 05be 86bd f83e
00000330: e0d9 1b3f 30af d33c 3d31 b6bf bb39 2ebd
00000340: 8a76 fa3d 39e0 37bf 1e7f 2fbd fa30 3d3f
00000350: e4ca b2be 3003 04bf c778 b63e 0646 2cbf
00000360: c367 383e ec18 46bf 1054 f5be 5b42 34bf
00000370: 438e 9e3e 2161 df3e 7477 24bf 0d7f 44bf
00000380: 9fbe 373e 4d0d bebc e386 a0bd 1a81 1cbf
00000390: 00ef 8dbf 971c 2fbf 78db 263f d79a 023f
000003a0: 3978 cfbf d704 1e3e b47a 303f 8716 fcbe
000003b0: c178 0bbe 3d0b a2bf 76f7 a5bf 167a 7bbf
000003c0: 432a c73e 12cd 71bf 1294 d23e ceb6 edbf
000003d0: 5dcc 07bd 2f9f 3fbe 96b7 283c 10d6 c7bf
000003e0: be99 24be 668c c03e 2fe7 463f 21b9 11bf
000003f0: 9d1e 573c 2dc0 a23e 8425 5cbf c47e 87bf

fc2.bias f4 [27]
-0.15989192 -0.953221 0.12379949 -0.7258883 0.31052086 0.004853694 -0.99123114 -0.9281993
-1.1837994 -0.4864006 0.49816284 0.081255525 1.0550498 0.7506092 0.95113474 0.17531674
-2.481735 -2.2470775 -0.029105 0.84705096 1.8405373 1.2795715 0.8997369 0.85511315
0.1389824 0.563233 0.27806157
00000000: b5ba 23be 4b06 74bf 968a fd3d d1d3 39bf
00000010: 97fc 9e3e bc0b 9f3b 53c1 7dbf 789e 6dbf
00000020: bd86 97bf 8009 f9be 330f ff3e 4c69 a63d
00000030: df0b 873f ed27 403f 917d 733f 3b86 333e
00000040: bfd4 1ec0 1ed0 0fc0 9c6d eebc 55d8 583f
00000050: ba96 eb3f 00c9 a33f 2855 663f b2e8 5a3f
00000060: 6751 0e3e 0a30 103f 165e 8e3e
