ckpt/classifiers/rgb_epoch_51.pth (torch, 42168 bytes, 4 tensors)

fc1.weight f4 [64, 128]
000000 06 94 c7 3d e9 20 3a bf 60 d0 bd 3c 5c 4f af be
       0.0974503 -0.72706467 0.02317065 -0.34240234
000010 6f 72 52 3e 4a ff 23 3f 27 60 08 3f dd ed e5 be
       0.20551465 0.64061415 0.53271717 -0.44908038
000020 37 ed 54 3f 13 c9 00 bf 84 c7 8a 3f 6b 65 80 bf
       0.8317446 -0.50306815 1.0842137 -1.003095
000030 e0 be ac 3e a3 9c 69 3e ca 40 49 bf bd b4 20 be
       0.33739376 0.22813658 -0.78614485 -0.15693946
000040 cd d2 f9 be ca e8 94 3f 3d 9c 4b bf ed 05 8f be
       -0.4879364 1.1633542 -0.79535276 -0.2793421
000050 61 d6 55 3e 15 58 41 bd 1b 83 6c 3f 1b 80 04 bf
       0.2088256 -0.047203142 0.9238755 -0.51757973
000060 ec a4 bd bf 19 39 81 3d bb 70 81 3e d3 d0 3d 3c
       -1.4815955 0.06309719 0.2528132 0.011585432
000070 4e 98 fa 3e 79 56 93 bf 5b 71 78 3e 68 48 95 be
       0.48944324 -1.1510764 0.24261992 -0.29156804
000080 b2 22 60 3e 0f a7 c9 3e fc 13 3d 3f 25 49 06 3f
       0.21888235 0.39385268 0.7385862 0.5245536
000090 6d 75 18 3e a8 8d a7 bf 33 7d a1 3e 93 03 3d 3f
       0.14888544 -1.3090105 0.31540832 0.7383358
0000a0 ed 4d 4e 3e 82 cd b4 3f 9b 00 83 3f dc c9 54 bf
       0.20146914 1.4125216 1.023456 -0.8312051
0000b0 0d 2b a5 3e a5 71 55 bf 95 93 b7 be 15 70 1a 3f
       0.32259408 -0.8337653 -0.35854784 0.60327274
0000c0 76 07 b9 3d 5c 85 28 be 39 5e f4 3e 70 fb 54 3e
       0.09034626 -0.16457123 0.47728136 0.20799041
0000d0 8b cb 03 3e 50 22 9e 3e a2 33 1b 3f c0 6a 24 3f
       0.12870614 0.30885553 0.6062566 0.6422539
0000e0 9b 23 99 bf 22 f3 c0 bf 84 d6 9b bd 86 33 05 3f
       -1.1963991 -1.5074198 -0.07609275 0.52031744
0000f0 f7 e8 84 bf 1d df 71 3d be 9f 36 3f af 96 c2 3c
       -1.0383595 0.059050668 0.713375 0.023753492
000100 6e f7 08 bf 07 e5 3b 3f 06 e4 57 be 22 2c a9 bd
       -0.5350255 0.73396343 -0.21083078 -0.08260371
000110 d2 a3 6c 3d ca 1a ce bd f0 92 b2 3e 57 6b 82 bf
       0.05777342 -0.10063703 0.3487773 -1.0189008
000120 59 17 4e be 3c e6 d6 3e dc 54 76 bd 16 f2 13 bf
       -0.20126094 0.4197253 -0.060139522 -0.5779127
000130 0f 84 53 bd 22 f9 ad 3e c9 35 80 bf cd 95 fd 3e
       -0.051639613 0.33979136 -1.0016414 0.4952835
000140 fa f3 35 bf 2e 62 fe 3e 42 df 74 bf 78 ec ad 3e
       -0.71075404 0.4968428 -0.95653164 0.33969474
000150 5a 20 59 3d 92 f4 96 be 7b 21 1d 3f 76 c5 85 bf
       0.05300937 -0.29483467 0.6137921 -1.0450885
000160 29 12 31 3f c6 a5 87 3e 0f bb ad 3d f1 f1 71 be
       0.69168335 0.26493663 0.08482944 -0.2362745
000170 dd 23 18 bf 4b 16 2c 3e a4 55 db 3e 1c 86 1f 3f
       -0.59429723 0.16805379 0.42838776 0.6231401
000180 50 52 a8 be 44 b0 26 bf d6 2e a6 3d 95 c1 90 bf
       -0.328753 -0.6511271 0.08114402 -1.1309077
000190 e4 28 18 bf 4b d0 25 3a 59 aa 7d 3f 80 d5 d7 bc
       -0.59437394 0.00063252886 0.99088055 -0.026346922
0001a0 68 7e 90 be 48 3f 3d bf 5d f2 2b bf 82 88 83 be
       -0.2822144 -0.73924685 -0.6716669 -0.25690085
0001b0 f1 bb 9f be 95 81 90 3f ca bf 59 bf bc 6f 78 3f
       -0.31198075 1.1289545 -0.8505827 0.97045493
0001c0 37 bd d8 3e 23 3d f4 3e f5 c6 62 3d 3b 9f 1c bf
       0.4233186 0.47702894 0.05536552 -0.61180466
0001d0 3c ea 70 3f 9f 05 92 3f 8b d1 93 3f 49 7e 97 3f
       0.94107413 1.1407965 1.1548322 1.1835414
0001e0 dc f0 55 bf fb 44 fa bd 1b 75 9b bf 86 84 6d 3f
       -0.8357065 -0.12220188 -1.2145113 0.9278034
0001f0 92 42 08 bf 1a cc a1 bd 2a 94 66 3f 66 bc a1 bf
       -0.5322658 -0.079002574 0.9006983 -1.263562
000200 88 06 00 bf ac 7c ae be 3a 06 e5 3e 22 95 ec bd
       -0.50009966 -0.34079492 0.44731313 -0.11551882
000210 58 a4 e2 3d ae 72 76 3f 50 aa 3d 3f 30 90 23 bd
       0.11066502 0.9626874 0.74088 -0.03993243
000220 1c 7b ea 3e b6 ea 5f be 8b 3e f5 3e cd 34 0e bf
       0.4579705 -0.21866879 0.4789928 -0.5554932
000230 06 0b 6e 3f bf 0a 9d bd e3 ed 3d be 5c 72 89 bf
       0.9298557 -0.07668065 -0.18547778 -1.0738025
000240 4f ea 14 3f 79 e5 48 3f 4b d2 5d bf e0 0e 96 be
       0.58170027 0.7847515 -0.86649007 -0.29308224
000250 d7 ab 2d 3f 21 22 66 3f 25 21 bd 3f f5 bf de 3e
       0.6784033 0.89895827 1.477574 0.43505827
000260 f8 7c 53 bf a4 a5 29 3f 20 88 0a 3f d7 98 84 bf
       -0.8261256 0.6626837 0.5411396 -1.0359143
000270 79 74 9c 3e 50 08 06 bf ee 77 ca be e5 c4 45 bf
       0.30557612 -0.52356434 -0.39544624 -0.7725356
000280 25 31 78 3f e4 93 8a bf 4b fb 2d 3e 79 ae 60 3e
       0.9694999 -1.0826383 0.16990392 0.21941556
000290 6d b4 16 be 1d 2e 1c 3e d7 58 01 bf e3 45 6c be
       -0.14717264 0.15251966 -0.50526184 -0.23073535
0002a0 4c 50 37 3e 4a e7 91 3f e8 93 a2 3e 7d b2 8c 3e
       0.17901725 1.1398709 0.3175347 0.27479926
0002b0 aa 33 52 3f dc b8 c8 bf a1 4c 5e bf ac f4 41 3e
       0.82110083 -1.5681415 -0.86835676 0.18940991
0002c0 2c ec 00 bf 4d 60 b7 be c2 7b b4 3e 29 7c 50 bf
       -0.5036037 -0.3581566 0.3525067 -0.81439453
0002d0 a3 9e f1 be e7 0e 92 3e 08 41 d4 bc 95 76 0e bf
       -0.47191343 0.28526995 -0.025909916 -0.5564969
0002e0 fc b2 b0 3e 5c 37 29 3f c8 c7 c9 be bd cf 42 bf
       0.34511554 0.66100097 -0.39410233 -0.76098233
0002f0 e2 c7 c5 be d8 1e 27 3f 7a 6a 2b bf c4 bc 55 be
       -0.3862906 0.6528144 -0.66959345 -0.2087279
000300 62 68 35 bd 26 c9 99 3f d6 c9 04 3e 19 63 64 be
       -0.044289 1.2014511 0.1296762 -0.22303428
000310 73 d4 67 3d e6 d8 3d be 0b d3 83 bd d6 bd 57 bf
       0.05659909 -0.18539771 -0.064367376 -0.8427404
000320 f4 30 18 40 4a 50 81 3e 7c 42 14 be eb 29 47 bf
       2.3779879 0.25256568 -0.14478487 -0.77798337
000330 2f 39 4e 3e ad c3 74 be 09 5f 64 3d a2 c8 36 bd
       0.20139001 -0.2390277 0.055754695 -0.044624932
000340 cf 1c 51 bd 91 58 c1 be 57 90 87 3e e1 73 80 be
       -0.051052865 -0.37762883 0.2647731 -0.2508841
000350 d8 4c de 3e 9f 25 47 bf 4e 3e 65 bd 50 2c 81 bf
       0.43418002 -0.7779178 -0.05596762 -1.0091648
000360 2a 72 35 3f 52 0d 37 3f dc 59 57 3f 2e 03 23 3f
       0.70877326 0.715047 0.8412149 0.63676727
000370 f5 41 50 bf 54 ec 9d 3e 7e 17 03 3e 81 38 41 3f
       -0.8135064 0.30844367 0.1280193 0.75476843
000380 3c be 42 be 34 1a a1 be 3e d7 fd 3e 45 bd 35 3f
       -0.19017881 -0.31465304 0.4957828 0.7099193
000390 a0 f7 46 3e 39 a8 c8 3f c2 e1 bb 3d a1 0a a5 be
       0.19430399 1.5676337 0.09173919 -0.32234672
0003a0 e2 d7 9a be cf f9 1a bc c6 f2 94 3e d3 86 30 bf
       -0.3024283 -0.009458973 0.2909147 -0.68955725
0003b0 10 ec 0e bf 28 3c 56 3f d2 66 7a bf 70 bc 01 bf
       -0.5582895 0.8368554 -0.9781314 -0.5067816
0003c0 f3 47 4a 3f 02 06 58 bf cb 5c 80 3e 51 ea 41 be
       0.79016036 -0.8438417 0.25070795 -0.18937041
0003d0 30 d5 ce 3e 45 0c 74 3e fe d4 19 3f 9c b2 e6 3e
       0.40397024 0.23832805 0.60090625 0.45058143
0003e0 87 38 9b bf c7 51 75 3f bb 5f 8d bf 68 64 5b 3f
       -1.2126626 0.9582791 -1.104484 0.8570008
0003f0 71 82 06 bf 0e 41 f1 bc 8f ca 1f 3d 21 9c cb 3e
       -0.5254279 -0.029449966 0.039011534 0.39767554

fc1.bias f4 [64]
000000 7c 0d 47 bf f4 74 b1 bf 5b c2 ae bf b2 26 e5 bf
       -0.7775495 -1.3863816 -1.3653063 -1.7902434
000010 1b 52 ec bf 22 d9 a0 bf 38 4d 91 bf 4d da c9 bf
       -1.8462557 -1.2566264 -1.135169 -1.5769745
000020 e0 f0 00 c0 13 8c 7a bf 87 d4 41 bf 86 95 32 bf
       -2.0147018 -0.97869986 -0.75714916 -0.69759405
000030 d0 c1 cb bf 55 36 78 bf ae 55 91 bf 41 5e a3 bf
       -1.5918522 -0.96957904 -1.1354272 -1.2763139
000040 44 a3 99 bf 29 4d 77 bf b1 99 84 bf b5 6a c8 bf
       -1.200295 -0.9660211 -1.0359403 -1.5657564
000050 f8 26 8d bf 3f f9 7d bf fd 72 3b bf 1b 8c f2 bf
       -1.1027517 -0.99208444 -0.73222333 -1.8949007
000060 0f 34 69 bf e6 92 ab bf a3 96 a1 bf ad 6d cc bf
       -0.9109506 -1.3404205 -1.2624096 -1.597097
000070 65 56 94 bf 28 20 65 bf 03 b3 c7 bf 3f 91 af bf
       -1.1588866 -0.8950219 -1.5601505 -1.37162
000080 c8 79 d5 bf 5b 2c 78 bf 3e b4 9a bf ef 0d 90 bf
       -1.667779 -0.9694268 -1.2086256 -1.1254252
000090 db 9a 8b bf c3 c1 b8 bf e9 f1 b0 bf c6 14 91 bf
       -1.0906633 -1.4434131 -1.3823825 -1.1334465
0000a0 6b 1f 7a bf 63 c3 c8 bf 9d 1b 94 bf 68 95 d7 bf
       -0.9770419 -1.5684627 -1.1570927 -1.684247
0000b0 ea 41 c0 be 4f b1 a1 bf 2a 30 42 bf 14 7f b6 bf
       -0.37550288 -1.2632235 -0.7585474 -1.4257531
0000c0 7f fc b4 bf 20 c6 ab bf 32 68 00 c0 05 d9 b2 bf
       -1.4139556 -1.3419838 -2.0063596 -1.3972479
0000d0 6f 0e f8 bf 05 ba e7 bf 47 a0 a6 bf ea 8d 82 bf
       -1.9379405 -1.8103644 -1.3017663 -1.0199559
0000e0 80 54 d1 bf 58 2a f9 bf 63 c4 89 bf 30 be 81 bf
       -1.6353912 -1.9466047 -1.0763057 -1.0136166
0000f0 cb 59 bb bf 09 45 9e bf 8e 27 d5 bf 4d 9e 9c bf
       -1.4636778 -1.2364818 -1.6652696 -1.223581

fc2.weight f4 [27, 64]
000000 3f 1c f4 bd cf b6 59 be 48 89 29 bf 23 00 fd 3c
       -0.1191945 -0.21261142 -0.662251 0.030883854
000010 e7 99 03 be 4c aa 10 3e 7f 1b e7 be a1 e0 75 be
       -0.12851678 0.14127463 -0.45138165 -0.2401147
000020 11 45 09 bf 0f 17 03 bf 1b ee a2 3e f8 7a f4 3d
       -0.5362101 -0.5120706 0.31822285 0.11937517
000030 81 89 ed 3e 0d cc e3 be b3 69 68 bf 26 15 dd be
       0.4639397 -0.44491616 -0.90786284 -0.43180197
000040 5f 23 a6 be 4c 06 24 bf 6e 03 6c bf 80 dc 71 3e
       -0.3244886 -0.6407211 -0.92192733 0.2361927
000050 f4 ce 86 3d 7f 7b e9 be c7 c1 0b bd fc 5e e0 be
       0.06582442 -0.45602033 -0.034120347 -0.43822467
000060 9f d6 62 bd 2b 52 1f bf 6e 5d 29 bf b7 97 10 bf
       -0.05538046 -0.62234753 -0.6615819 -0.564815
000070 fd 3b 23 bf 0a 4d f1 3c 86 49 14 3f 1b dc 95 bc
       -0.6376341 0.02945568 0.5792469 -0.018293431
000080 96 cf 22 3f 68 3d 84 be 91 4c 01 3f 19 90 be bb
       0.63598 -0.258281 0.50507456 -0.0058155176
000090 46 3a d7 3e ac 96 78 3e c7 b2 b4 bc 9c cf f5 be
       0.42036647 0.24276227 -0.022057904 -0.48009956
0000a0 f5 63 48 bf 06 3f 05 3f 70 b8 4e 3f cb 2f 44 3f
       -0.7827752 0.5204929 0.8075018 0.76635426
0000b0 1e b7 44 bf 32 1d b6 be f4 c2 5f bc 77 4b e3 be
       -0.76841915 -0.3556915 -0.01365732 -0.44393513
0000c0 14 df 41 3f 03 80 44 bf 7c 4d c1 be b1 db 6b 3e
       0.75731015 -0.7675783 -0.37754428 0.23033024
0000d0 81 cc e7 bd e7 e5 a7 3d 87 cf b6 be f8 a5 74 bf
       -0.11318303 0.08198147 -0.35705206 -0.9556575
0000e0 0b a4 20 3e 9e bc 01 3f ad 65 18 3f 90 34 f6 3e
       0.15687577 0.5067843 0.59530145 0.48086977
0000f0 32 4d d8 be 86 e7 11 3e a6 0a f8 be ec 11 a6 be
       -0.42246395 0.14248475 -0.48445624 -0.32435548
000100 36 ad 24 3f 94 b7 36 bf ab 71 95 be ce 18 85 3e
       0.643268 -0.7137387 -0.29188284 0.25995487
000110 d7 ca 8a 3c ca 48 b7 bf 4c 55 1a bf 8a 4d 50 3f
       0.016942425 -1.4319088 -0.602864 0.81368315
000120 49 44 8b 3e be 98 a8 3e 0c 20 0f bf c7 4d 13 3e
       0.27200535 0.32929033 -0.55908275 0.14385138
000130 71 b7 0c bf a0 b0 cb bf 52 ae 5d be f0 54 60 be
       -0.5496741 -1.5913277 -0.21648529 -0.21907401
000140 59 c9 a5 3e f1 f6 98 bf 8d 82 81 bf 5c 6c 62 be
       0.3238018 -1.195036 -1.0117966 -0.22111648
000150 98 a9 0d bf 7d c2 7a bf c1 b1 eb be 81 50 8b bf
       -0.55336905 -0.97953016 -0.46034053 -1.0883943
000160 3d 63 02 3f d4 ce 5a bf 51 09 61 bf e0 06 c8 3e
       0.50932676 -0.85471845 -0.8790484 0.39067745
000170 42 d5 0f bf 45 c3 93 3d b5 93 4f bf d6 f8 b2 bc
       -0.5618478 0.07214979 -0.8108476 -0.02184717
000180 81 f2 c8 3c f9 14 db bf 29 9a 26 3e 30 97 46 bf
       0.024529697 -1.7115775 0.16269745 -0.77574444
000190 bf b8 0d bf e3 5d 00 3f d6 d1 b5 3e 8e b5 8b bf
       -0.55360025 0.5014326 0.35511655 -1.0914781
0001a0 20 49 bc 3e 59 53 bc 3d af a5 3f bf 18 2d 9c bb
       0.3677454 0.09195585 -0.7486219 -0.004766118
0001b0 71 0e 11 bf 51 bd 96 be de be 1b 3f c6 a4 cb 3e
       -0.5666266 -0.29441312 0.60838115 0.3977415
0001c0 97 1b d6 3e 7a fe 01 3f 33 6b 28 be 1b 78 8a bd
       0.41817924 0.50778925 -0.16447143 -0.067611896
0001d0 96 18 04 bf 0b 94 97 3e 9f 4a 17 be 5e f4 76 be
       -0.51600015 0.29605135 -0.1477456 -0.24116656
0001e0 13 42 be 3e ba d0 d8 3e 64 26 e4 be 29 bd 81 3e
       0.37159786 0.42346746 -0.4456054 0.2533963
0001f0 fa 37 08 bf ec e1 3f 3e 68 0a c2 3e a1 c0 98 bf
       -0.53210413 0.18738526 0.37898564 -1.1933786
000200 7f 77 82 be 49 b5 fc bf 2b 9b 00 3f b0 d8 74 bf
       -0.25481793 -1.9742824 0.5023677 -0.9564314
000210 ee 84 89 be d9 4e b2 bf 2d e2 ca bf 35 92 d6 be
       -0.2685923 -1.3930312 -1.5850273 -0.41908422
000220 49 13 b2 3e 18 5a 2b 3f 0e 38 c3 bf 63 54 b5 bf
       0.34780338 0.6693435 -1.5251482 -1.4166378
000230 4d 67 9f bf c2 66 79 bf 52 61 cb 3e a2 08 b7 be
       -1.24534 -0.9742242 0.39722687 -0.35748774
000240 74 25 61 3e 0b fb 3b bf b6 93 85 bd fe c9 40 3e
       0.21986943 -0.73429936 -0.06522314 0.18827054
000250 7a 6b c8 bf 35 2e 97 bf 69 c3 0c bf 2f bd a1 bf
       -1.5657799 -1.1810976 -0.5498567 -1.2635859
000260 48 3f 50 3d 7a df 9d bf be f4 5c be 02 25 11 bf
       0.0508416 -1.2333825 -0.21577737 -0.56697094
000270 02 e7 4c 3f a8 08 28 bf b4 99 4e bf 6a ff fb be
       0.8003999 -0.6563821 -0.8070328 -0.49218303
000280 a8 a8 83 be 5a 69 23 bf 8d ac b1 bf 92 ba 36 bf
       -0.25714612 -0.6383263 -1.3880783 -0.71378434
000290 76 3a 89 bf eb 18 ae bd a2 84 b9 bf b2 95 5f bf
       -1.0720966 -0.085008465 -1.4493601 -0.8733779
0002a0 77 41 b1 3d ca c2 a9 3e f1 54 eb be 23 17 a7 3d
       0.086550646 0.33156425 -0.45963243 0.0815871
0002b0 62 fd 30 be bf 2e 9d bf 41 6d b0 bf 7f a6 14 3e
       -0.17284158 -1.2279891 -1.3783342 0.14516638
0002c0 a3 ca 28 bd bd 9c 62 be 32 7c ae be 53 48 91 bf
       -0.041208874 -0.22130103 -0.34079129 -1.1350197
0002d0 00 15 43 bf f1 80 20 be e8 20 d2 bf ef f3 06 bf
       -0.7620392 -0.15674187 -1.6416292 -0.52715963
0002e0 25 8f 3a 3f 90 24 1f 3f 3c 71 69 bf 7a 67 d5 bf
       0.7287467 0.62165165 -0.91188407 -1.6672204
0002f0 1a 19 75 bf 1e 59 b5 3d 5e c1 17 bf ea cc 23 bf
       -0.95741427 0.088548884 -0.5927943 -0.6398455
000300 cc f3 b1 be 80 26 b1 bf 7f bb 15 bf 48 b0 22 be
       -0.34756315 -1.3839874 -0.5848922 -0.15887558
000310 49 b6 4a 3e c0 35 51 be 22 b7 72 bf 01 a3 a5 be
       0.19796099 -0.2043066 -0.9481069 -0.32350925
000320 97 77 d0 be 1a f9 1f 3f 9f 87 06 be 0c 60 05 3f
       -0.4071624 0.62489474 -0.13137673 0.5209968
000330 30 d0 02 3f 69 69 03 bd 45 54 b6 bf 93 a7 38 bd
       0.5109892 -0.03208295 -1.4244467 -0.045081686
000340 99 1f 35 3e 28 2a 3f bf 11 80 42 bd a7 ae 2a 3f
       0.17687835 -0.746737 -0.047485415 0.6667275
000350 21 91 b2 be 61 49 04 bf 1b 6c a8 3e 68 f7 28 bf
       -0.3487635 -0.5167447 0.32894978 -0.6600251
000360 38 11 40 3e 80 07 46 bf df a2 03 bf 31 dc 34 bf
       0.18756568 -0.77355194 -0.51420397 -0.70648485
000370 c2 07 8a 3e 47 0b da 3e c5 d3 20 bf 0c fe 4f bf
       0.26959044 0.4258673 -0.62823135 -0.8124702
000380 0a c7 2b 3e 06 ae df bc af c3 36 bd fb c1 28 bf
       0.16775146 -0.02730466 -0.044620212 -0.6592099
000390 75 40 8e bf 34 3f 2f bf 4d e2 4e 3f 43 c1 18 3f
       -1.1113421 -0.68455815 0.8081406 0.59669894
0003a0 6f fb cf bf 49 5e 1e 3e 81 44 35 3f e2 20 fb be
       -1.6248606 0.15465654 0.70807654 -0.49048525
0003b0 f4 cd 0e be df 1c a2 bf 9f 19 aa bf be d2 7b bf
       -0.13945752 -1.2665061 -1.3289069 -0.9836844
0003c0 7d d5 00 3f e6 bf 72 bf c8 f3 b2 3e aa b8 ed bf
       0.5032576 -0.94824064 0.34951615 -1.857198
0003d0 7f 20 0b bd 00 4d 48 be 38 3e 27 bb cd 1b c8 bf
       -0.033966538 -0.19560623 -0.0025519263 -1.5633484
0003e0 8a b2 07 be 94 c7 bf 3e ed c5 3d 3f 01 14 fd be
       -0.13251701 0.37456954 0.74130136 -0.49429324
0003f0 ec 63 77 3c 6c 90 a1 3e 19 05 5d bf cd 94 80 bf
       0.015099507 0.31555498 -0.86335903 -1.004541

fc2.bias f4 [27]
000000 17 b2 3a be 43 4c 6c bf 9d 2b d0 3d a4 a9 34 bf
       -0.18231998 -0.92303866 0.101645686 -0.7057135
000010 e0 11 bd 3e 13 10 7d 3c e1 3a 85 bf 72 5a 74 bf
       0.369277 0.015445727 -1.0408593 -0.9545051
000020 4d 0e 98 bf c5 d6 fc be 10 05 f5 3e 91 22 14 3e
       -1.1879364 -0.49382606 0.47855425 0.14466311
000030 fe 27 80 3f 0c 5e 2e 3f ea 6e 77 3f cf 5c 15 3e
       1.0012205 0.68112254 0.96653616 0.14586185
000040 b4 77 21 c0 50 69 14 c0 38 90 34 3c bb f7 57 3f
       -2.522931 -2.3189278 0.011020713 0.8436238
000050 0c 6e 00 40 1b 46 ab 3f c1 55 5f 3f 51 ae 4c 3f
       2.0067167 1.338077 0.87240225 0.79953486
000060 ec e7 9c 3d 4c e3 1e 3f 02 89 88 3e
       0.07661423 0.6206558 0.2666703
