ckpt/classifiers/rgb_epoch_17.pth (torch, 42168 bytes, 4 tensors)

fc1.weight f4 [64, 128]
0	0x3e0ae721	0.13564731
1	0xbf1a1561	-0.6018887
2	0x3dc62142	0.09674312
3	0xbebfca6a	-0.37459117
4	0x3e2aac15	0.16667207
5	0x3f1c363b	0.6102025
6	0x3efc6d49	0.49302128
7	0xbf006a0c	-0.50161815
8	0x3f54b481	0.8308793
9	0xbf147bbc	-0.58001304
10	0x3f828070	1.0195446
11	0xbf68f33e	-0.9099616
12	0x3ea91d1a	0.33030015
13	0x3e296fac	0.16546506
14	0xbf4f2be3	-0.8092634
15	0xbe86b77f	-0.2631187
16	0xbf043440	-0.5164223
17	0x3f8e2936	1.1106327
18	0xbf4b3d3b	-0.79390305
19	0xbea36364	-0.31911767
20	0x3e3d1dcb	0.18468396
21	0xbdab716b	-0.08371242
22	0x3f626da5	0.88448554
23	0xbf17e54d	-0.5933426
24	0xbfb93a00	-1.4470825
25	0xbd1066b9	-0.035254214
26	0x3e8425b4	0.25810015
27	0x3ccb8dbb	0.024847856
28	0x3eeec4ed	0.46634617
29	0xbf8c569e	-1.0963933
30	0x3e957e7b	0.2919806
31	0xbe80da4f	-0.25166556
32	0x3e56fed3	0.20995645
33	0x3ed46dac	0.41489923
34	0x3f4d5110	0.80201817
35	0x3ee8bab9	0.45454958
36	0x3e172830	0.14761424
37	0xbfaa9926	-1.3327987
38	0x3e94686f	0.28985927
39	0x3f257974	0.6463845
40	0x3ea15b6e	0.31515068
41	0x3fba4cd2	1.4554694
42	0x3f6b38bb	0.9188344
43	0xbf3ee8c8	-0.74573946
44	0x3ec77f02	0.38964087
45	0xbf41f2a6	-0.7576088
46	0xbea1b93a	-0.3158663
47	0x3f14c127	0.5810723
48	0x3da2d69d	0.079510905
49	0xbe5da259	-0.21643962
50	0x3ed1816b	0.4091905
51	0x3e2b63af	0.16737245
52	0x3d306128	0.043061405
53	0x3e56ad4a	0.20964542
54	0x3f31f97f	0.69521326
55	0x3f17af47	0.59251827
56	0xbfa06415	-1.2530543
57	0xbfbd1d61	-1.4774591
58	0xbe352b7c	-0.17692369
59	0x3ee04874	0.43805277
60	0xbf8053f1	-1.0025617
61	0xbbbedc57	-0.0058246064
62	0x3f375862	0.71619236
63	0xbd8601b5	-0.06543294
64	0xbf0c10f0	-0.54713345
65	0x3f4c76a2	0.7986852
66	0xbe5485be	-0.20754144
67	0xbbeb38a9	-0.0071783853
68	0x3e2b492f	0.16727136
69	0xbe20f8d4	-0.1571992
70	0x3ed42107	0.41431448
71	0xbf82d20c	-1.0220351
72	0xbdd71b77	-0.105032854
73	0x3efe5517	0.49674293
74	0xbe12b771	-0.1432779
75	0xbf045629	-0.5169397
76	0xbd10e66f	-0.03537601
77	0x3ecfda4e	0.4059624
78	0xbf7af516	-0.9803022
79	0x3ed1b6cb	0.40959772
80	0xbf17288a	-0.5904623
81	0x3ec820c5	0.390875
82	0xbf5175ff	-0.8182067
83	0x3ec0c4bd	0.376501
84	0x3d21ed4c	0.039532945
85	0xbe47946a	-0.19490209
86	0x3f10b381	0.565239
87	0xbf740a27	-0.9532799
88	0x3f320d7a	0.69551814
89	0x3eae4696	0.34038228
90	0x3c91622c	0.017747007
91	0xbe5f0069	-0.217775
92	0xbf1337cc	-0.57507014
93	0x3dd4919b	0.103793345
94	0x3eba9571	0.3644214
95	0x3f243e8d	0.64157945
96	0xbeda95b9	-0.42692354
97	0xbf396f97	-0.724359
98	0x3ddcfa88	0.107899725
99	0xbf8990d5	-1.0747324
100	0xbf22028c	-0.63285136
101	0x3c82091c	0.015873484
102	0x3f85f9eb	1.0466894
103	0x3d2d4db0	0.042310417
104	0xbeb3d18a	-0.35120803
105	0xbf2491a3	-0.64284724
106	0xbf2dbe68	-0.6786866
107	0xbe586a7c	-0.2113437
108	0xbe9252a0	-0.28578663
109	0x3f97892b	1.1838735
110	0xbf4a7116	-0.79078805
111	0x3f6fa400	0.9360962
112	0x3ed46fa0	0.41491413
113	0x3f10c1bb	0.5654561
114	0x3e08257b	0.13295548
115	0xbf10fd20	-0.5663624
116	0x3f6a9d0f	0.916459
117	0x3f8899e6	1.0671966
118	0x3f8e6141	1.112343
119	0x3f8df40e	1.1090105
120	0xbf68cdf0	-0.90939236
121	0xbc5fb3df	-0.013653724
122	0xbf9f3d01	-1.2440492
123	0x3f648333	0.89262694
124	0xbed6d3c7	-0.41958448
125	0x3aeda718	0.0018131463
126	0x3f6d9df5	0.9281915
127	0xbf9ac43e	-1.2091138
128	0xbf188559	-0.5957847
129	0xbed96ba3	-0.42464933
130	0x3ebee3a3	0.37283048
131	0xbd86b2a0	-0.06577039
132	0x3dfeecda	0.124475196
133	0x3f47cd60	0.7804775
134	0x3f5dcb4d	0.8663834
135	0x3d2bb122	0.041916974
136	0x3ea2958c	0.3175472
137	0xbdbcd083	-0.09219458
138	0x3f065a47	0.524815
139	0xbf0160aa	-0.5053812
140	0x3f88f8f5	1.0700976
141	0xbd9da50a	-0.07697494
142	0xbe43b051	-0.19110228
143	0xbf8b07fe	-1.0861814
144	0x3f2eda00	0.6830139
145	0x3f2575f1	0.6463309
146	0xbf5b5b4c	-0.8568618
147	0xbe54b968	-0.20773852
148	0x3f226617	0.63437027
149	0x3f73d235	0.95242625
150	0x3fc3f99c	1.531055
151	0x3f073acb	0.52824086
152	0xbf72d33f	-0.94853586
153	0x3f4429ee	0.7662648
154	0x3f28a8a5	0.6588233
155	0xbf81e9f5	-1.0149523
156	0x3ec8bd10	0.39206743
157	0xbf1f78ff	-0.62294
158	0xbe9af78e	-0.30266994
159	0xbf2e8031	-0.68164355
160	0x3f7c45d0	0.98544025
161	0xbf88703c	-1.0659251
162	0x3e50da34	0.20395738
163	0x3e8c3753	0.2738596
164	0xbe6e3f3f	-0.23266314
165	0x3e61605d	0.22009416
166	0xbec8093a	-0.3906954
167	0xbe45fae2	-0.19333985
168	0x3e29bf43	0.16576867
169	0x3f81759c	1.0114017
170	0x3ea6d828	0.3258679
171	0x3e979ffb	0.29614243
172	0x3f396398	0.72417593
173	0xbfcc84bd	-1.5978009
174	0xbf3f6f2b	-0.74779004
175	0x3dda815e	0.10669206
176	0xbea9138f	-0.33022735
177	0xbe9a16e9	-0.30095604
178	0x3ec5cd5d	0.38633242
179	0xbf780d5a	-0.9689537
180	0xbeef60d0	-0.4675355
181	0x3e649dd6	0.22325835
182	0xbd12e3ac	-0.035861656
183	0xbf064cf4	-0.5246117
184	0x3ec4defd	0.38451377
185	0x3f158146	0.5840038
186	0xbe8e408d	-0.27783623
187	0xbf4b4d07	-0.7941441
188	0xbec09d52	-0.37620026
189	0x3f18e8f1	0.5973044
190	0xbf4bb294	-0.79569364
191	0xbe1c538a	-0.15266243
192	0xbd410d05	-0.047131557
193	0x3f9234fa	1.1422417
194	0x3e5dff28	0.21679366
195	0xbe7c0a26	-0.24613246
196	0xbdd7ae81	-0.10531331
197	0xbe88a3ca	-0.2668746
198	0x3dcf17d9	0.101119705
199	0xbf4c4843	-0.7979776
200	0x40185e8b	2.3807704
201	0x3e94410f	0.28955886
202	0xbd10b82a	-0.035331883
203	0xbf4e7799	-0.8065124
204	0x3e72e5b1	0.23720433
205	0xbe28f212	-0.16498592
206	0x3d87ea35	0.06636468
207	0xbc2ce475	-0.010552515
208	0xbe4dbb21	-0.20090915
209	0xbe7bfe0b	-0.24608628
210	0x3e1141bd	0.14185233
211	0xbeb8d07d	-0.36096564
212	0x3f074569	0.52840286
213	0xbf557a81	-0.8339005
214	0xbe15222f	-0.14563821
215	0xbf69ddbf	-0.9135398
216	0x3f1aae9d	0.6042269
217	0x3f4d0341	0.8008309
218	0x3f70b6ac	0.94028735
219	0x3f442485	0.76618224
220	0xbf66024c	-0.89847255
221	0x3ec79e12	0.38987786
222	0x3dbbfdbb	0.091792546
223	0x3f3e9dba	0.7445942
224	0x3c889040	0.016670346
225	0xbebe35de	-0.37150472
226	0x3efeb6ee	0.4974894
227	0x3f413cc8	0.7548337
228	0x3de9f21b	0.11423131
229	0x3fbf5f19	1.4950897
230	0xbd3e76c9	-0.0465
231	0xbe935577	-0.28776142
232	0xbe687e49	-0.22704424
233	0xbdb31919	-0.087450214
234	0x3e706d34	0.23479158
235	0xbf4a1712	-0.7894145
236	0xbf23fb70	-0.6405554
237	0x3f6cfb08	0.92570543
238	0xbf7f8f15	-0.998277
239	0xbef9b005	-0.48767105
240	0x3f4eab19	0.80729824
241	0xbf559050	-0.8342333
242	0x3e2fda73	0.17173176
243	0xbead782d	-0.3388075
244	0x3ee61720	0.44939518
245	0x3e88064b	0.265673
246	0x3f0118ae	0.50428283
247	0x3ebbd25d	0.36683932
248	0xbf9b54c5	-1.2135245
249	0x3f5906b7	0.8477587
250	0xbf748254	-0.95511365
251	0x3f7e2e34	0.9928925
252	0xbf19126c	-0.59793735
253	0xbdb344a5	-0.08753327
254	0xbd449d73	-0.048001718
255	0x3efb0520	0.49027348

fc1.bias f4 [64]
0	0xbf5fb7c0	-0.87389755
1	0xbfb044a6	-1.377095
2	0xbfa857a3	-1.3151745
3	0xbfdefb6d	-1.7420479
4	0xbfebcc89	-1.8421794
5	0xbf9facec	-1.2474647
6	0xbf8c0848	-1.0940027
7	0xbfd0f6b4	-1.6325288
8	0xc00257bd	-2.0366051
9	0xbf7ace0a	-0.9797064
10	0xbf4b48e7	-0.79408115
11	0xbf43e3a5	-0.76519233
12	0xbfc76ccd	-1.5580078
13	0xbf802a7c	-1.0012965
14	0xbf91d765	-1.1393858
15	0xbfaf97e9	-1.3718234
16	0xbf966e2b	-1.175237
17	0xbf7e567c	-0.99350715
18	0xbf951015	-1.1645533
19	0xbfce2442	-1.6104815
20	0xbf99e224	-1.2022138
21	0xbf816404	-1.0108647
22	0xbf4dd2c4	-0.8039973
23	0xbffafec5	-1.9609
24	0xbf704a0d	-0.9386299
25	0xbfac1ad5	-1.3445688
26	0xbfa8e6dc	-1.3195453
27	0xbfd85b9f	-1.690296
28	0xbf943e5b	-1.1581529
29	0xbf72f279	-0.94901234
30	0xbfc456c8	-1.5338984
31	0xbfb2ca1a	-1.3967927
32	0xbfd43358	-1.6578169
33	0xbf7dbb8d	-0.99114305
34	0xbfa6a593	-1.3019279
35	0xbf88499e	-1.0647466
36	0xbf8dd246	-1.1079795
37	0xbfba96d0	-1.4577274
38	0xbfb1876f	-1.3869456
39	0xbf9b82c6	-1.2149284
40	0xbf81d388	-1.0142679
41	0xbfce9473	-1.6139053
42	0xbf96990d	-1.1765457
43	0xbfd55760	-1.666729
44	0xbec5aeb9	-0.38609865
45	0xbf9923c4	-1.196404
46	0xbf3e40ab	-0.74317425
47	0xbfb42bc3	-1.4075855
48	0xbfb657e8	-1.4245577
49	0xbfb2e563	-1.3976253
50	0xbffa47b0	-1.9553127
51	0xbfb425b0	-1.4074001
52	0xbff2fe15	-1.898379
53	0xbfe934f1	-1.8219281
54	0xbf9ec9d8	-1.2405348
55	0xbf8518e5	-1.0398222
56	0xbfd3a907	-1.6535958
57	0xc00378d4	-2.0542498
58	0xbf8e1877	-1.1101216
59	0xbf86fcde	-1.0545919
60	0xbfc26e85	-1.5189978
61	0xbf963093	-1.1733574
62	0xbfdc5ce6	-1.721585
63	0xbfa20b8a	-1.2659771

fc2.weight f4 [27, 64]
0	0xbde59189	-0.11209399
1	0xbe560ece	-0.20904085
2	0xbf287aa3	-0.6581213
3	0x3d1ce4e4	0.038304225
4	0xbe03180a	-0.12802139
5	0x3e52a776	0.20571694
6	0xbf0551a6	-0.5207771
7	0xbe6dd8f0	-0.23227286
8	0xbf0951ed	-0.53640634
9	0xbf00b562	-0.5027677
10	0x3e8bfa39	0.27339342
11	0x3dd57c66	0.10424118
12	0x3ecdaeab	0.40172324
13	0xbee8f39e	-0.45498365
14	0xbf6763d3	-0.90386695
15	0xbedc02f0	-0.4297099
16	0xbe9272a5	-0.28603092
17	0xbf26aedf	-0.6511058
18	0xbf6b6c17	-0.91961807
19	0x3e8d0f39	0.27550676
20	0x3d9fc48e	0.07801162
21	0xbee7b0e5	-0.45252147
22	0xbb87f8a3	-0.004149513
23	0xbed266b0	-0.4109397
24	0x3cca74a1	0.024713816
25	0xbf1e199e	-0.6175784
26	0xbf26ea76	-0.6520151
27	0xbf10bf66	-0.5654205
28	0xbf229888	-0.63513994
29	0x3d8cdbea	0.06877883
30	0x3f09e2f5	0.53861934
31	0xbdb81e8d	-0.08990202
32	0x3f241b52	0.6410419
33	0xbe7a0a6d	-0.2441804
34	0x3ed318b9	0.412298
35	0xbdfeb892	-0.12437548
36	0x3f0f8678	0.5606456
37	0x3e848af7	0.25887272
38	0xbc9cd8eb	-0.019146403
39	0xbee303e1	-0.44338897
40	0xbf3e9635	-0.7444795
41	0x3ef0934b	0.46987376
42	0x3f4a8628	0.79110956
43	0x3f38af14	0.7214215
44	0xbf4be174	-0.7964089
45	0xbeb2510b	-0.34827456
46	0xbc4b16fa	-0.012395615
47	0xbed65a0f	-0.41865584
48	0x3f65a5c5	0.8970607
49	0xbf44036c	-0.7656772
50	0xbebae061	-0.36499313
51	0x3e490ed0	0.19634557
52	0xbdeaf749	-0.11472947
53	0x3e0e7b30	0.1391418
54	0xbeab9457	-0.33511612
55	0xbf74992c	-0.9554622
56	0x3e6983b3	0.22804146
57	0x3ee514d1	0.44742444
58	0x3f016015	0.50537235
59	0x3ee292d9	0.4425266
60	0xbed7b205	-0.42128006
61	0x3e036a1e	0.12833449
62	0xbef78993	-0.48347148
63	0xbe9630fc	-0.29334247
64	0x3f285d12	0.65767014
65	0xbf33f3da	-0.7029396
66	0xbe782447	-0.24232589
67	0x3e84fb26	0.2597286
68	0x3b8a54fa	0.004221556
69	0xbfad4e98	-1.353961
70	0xbf2f5522	-0.6848928
71	0x3f564886	0.8370441
72	0x3e8b4048	0.2719748
73	0x3e9efd60	0.31052685
74	0xbf0e6e0b	-0.5563666
75	0x3e1e8a29	0.15482391
76	0xbf0dcf11	-0.55394083
77	0xbfd4d1b2	-1.6626494
78	0xbe59b5dd	-0.21260782
79	0xbe591039	-0.21197595
80	0x3e8d44ca	0.27591544
81	0xbf988300	-1.1914978
82	0xbf8173d1	-1.0113469
83	0xbe5b80b9	-0.21435823
84	0xbf0d5881	-0.5521317
85	0xbf7a8c11	-0.97869974
86	0xbee7e15e	-0.4528913
87	0xbf8af715	-1.0856653
88	0x3edf2064	0.435794
89	0xbf4cc5e8	-0.7998948
90	0xbf600ed8	-0.8752265
91	0x3eaf4af9	0.34236887
92	0xbf0f56b0	-0.5599165
93	0x3daa996a	0.08330043
94	0xbf4f8651	-0.81064326
95	0x3d21a33f	0.039462324
96	0xbc91e2d4	-0.017808355
97	0xbfdac509	-1.709138
98	0x3e2d60fa	0.16931525
99	0xbf463e8e	-0.774392
100	0xbf0d660b	-0.5523383
101	0x3ee8a513	0.45438442
102	0x3eb575ef	0.3544154
103	0xbf8b609f	-1.0888861
104	0x3e361a0a	0.1778337
105	0x3e21d1dd	0.15802713
106	0xbf3f3e39	-0.7470432
107	0xbb8db9b0	-0.004325114
108	0xbefcc0ce	-0.49365848
109	0xbe87bc03	-0.2651063
110	0x3f4380be	0.7636832
111	0x3ecbcd24	0.39804947
112	0x3ec091f9	0.37611368
113	0x3eca8f5b	0.39562497
114	0xbe20780b	-0.15670793
115	0xbe092fc1	-0.13397123
116	0xbf040718	-0.51573324
117	0x3e99e68d	0.3005871
118	0xbe062e7e	-0.13103673
119	0xbe63fa27	-0.22263394
120	0x3eb5e095	0.35522905
121	0x3ed911eb	0.42396483
122	0xbee5a9bc	-0.4485606
123	0x3de5b46a	0.11216052
124	0xbf07e1ac	-0.5307872
125	0x3e5faae4	0.21842533
126	0x3eb4ece5	0.35336986
127	0xbf98a577	-1.1925496
128	0xbe78d628	-0.24300444
129	0xbffb76ec	-1.9645667
130	0x3f0083ad	0.5020092
131	0xbf6a0d2b	-0.9142634
132	0xbe897f2e	-0.26854843
133	0xbfb10b80	-1.3831635
134	0xbfca0c24	-1.5784955
135	0xbed37081	-0.4129677
136	0x3eb2d66a	0.3492921
137	0x3f4aa35d	0.7915552
138	0xbfbf5dcc	-1.49505
139	0xbfb4ff28	-1.4140368
140	0xbf9d578d	-1.2292343
141	0xbf7472d4	-0.95487714
142	0x3eee3e53	0.46531925
143	0xbeb15a27	-0.34639093
144	0x3e790ff7	0.24322496
145	0xbf390bf4	-0.72283864
146	0xbd805eb8	-0.06268066
147	0x3e666394	0.22498924
148	0xbfc79a86	-1.5594032
149	0xbf966f79	-1.1752769
150	0xbf0626c4	-0.524029
151	0xbfa07504	-1.253571
152	0x3da4a92e	0.08040081
153	0xbf997b00	-1.1990662
154	0xbe36e268	-0.17859805
155	0xbf0ea6d5	-0.55723315
156	0x3f5fae49	0.87375313
157	0xbf1e4f19	-0.61839443
158	0xbf4e5055	-0.80591327
159	0xbefa9eb1	-0.48949197
160	0xbe79c492	-0.24391392
161	0xbf238b58	-0.63884497
162	0xbfadc350	-1.357523
163	0xbf35d6fa	-0.71031153
164	0xbf88a4e0	-1.0675316
165	0xbda8d33b	-0.08243414
166	0xbfb7e6bc	-1.436729
167	0xbf5b28c7	-0.85609096
168	0x3dbf6eb7	0.09347289
169	0x3ea01050	0.31262445
170	0xbee78c5d	-0.45224276
171	0x3daaac8d	0.08333693
172	0xbe202ff1	-0.15643288
173	0xbf9ac586	-1.2091529
174	0xbfb01836	-1.3757389
175	0x3c0e18f0	0.008672938
176	0x3ae8de9c	0.0017766538
177	0xbe5f10cc	-0.21783751
178	0xbe952657	-0.29130813
179	0xbf912ea1	-1.1342355
180	0xbf46621e	-0.77493465
181	0xbdeeade1	-0.116542585
182	0xbfcf97a5	-1.6218153
183	0xbf05d6cd	-0.52280885
184	0x3f43b665	0.76450187
185	0x3f3218b3	0.6956894
186	0xbf665095	-0.8996671
187	0xbfd42ab9	-1.6575538
188	0xbf74a20b	-0.9555976
189	0x3db56153	0.08856454
190	0xbf17ef2f	-0.5934934
191	0xbf1d854f	-0.6153154
192	0xbeb0bb18	-0.3451774
193	0xbfb0ad31	-1.3802854
194	0xbf159d81	-0.58443457
195	0xbdfb1736	-0.122602865
196	0x3e497d2c	0.19676656
197	0xbe43e2c8	-0.19129479
198	0xbf71bd92	-0.94429886
199	0xbea31618	-0.31852794
200	0xbeb1d12d	-0.347299
201	0x3f0c2cc0	0.54755783
202	0xbe61e905	-0.22061546
203	0x3f03994c	0.5140579
204	0x3f2af92f	0.66786474
205	0x3d3ecf7b	0.046584588
206	0xbfb4fa16	-1.413882
207	0xbd25d413	-0.040485453
208	0x3df00c3c	0.117210835
209	0xbf336f46	-0.70091665
210	0xbc7b3e82	-0.015334727
211	0x3f3f5b2c	0.7474849
212	0xbeb29a8b	-0.34883532
213	0xbf02b153	-0.51051825
214	0x3ec0de2b	0.376695
215	0xbf2c365d	-0.6727045
216	0x3e4be98f	0.19913314
217	0xbf487183	-0.78298205
218	0xbef219e0	-0.47285366
219	0xbf333dd1	-0.700162
220	0x3ea46311	0.32106832
221	0x3ee4f711	0.44719747
222	0xbf258f9f	-0.64672273
223	0xbf3cb1c4	-0.7370875
224	0x3e49bb23	0.19700293
225	0xbc44ff31	-0.012023733
226	0xbd927ea1	-0.07153059
227	0xbf17841f	-0.59185976
228	0xbf8d69c3	-1.1047901
229	0xbf2ed976	-0.6830057
230	0x3f1f8a26	0.6232017
231	0x3ef0b273	0.47011146
232	0xbfcf09f0	-1.6174908
233	0x3e2a57fc	0.16635126
234	0x3f2cc072	0.6748115
235	0xbf02c6ac	-0.510844
236	0xbe09fbc2	-0.13474944
237	0xbfa1dddd	-1.2645832
238	0xbfa35d68	-1.276288
239	0xbf7b6384	-0.98198724
240	0x3eb2e4a6	0.3494007
241	0xbf713206	-0.94216955
242	0x3eed12af	0.46303317
243	0xbfedab7e	-1.856796
244	0xbcec50c7	-0.028847111
245	0xbe379feb	-0.17932098
246	0x3b9dccc5	0.00481567
247	0xbfc78dc9	-1.5590144
248	0xbe1cae2b	-0.15300815
249	0x3eb2b3c1	0.34902766
250	0x3f54a560	0.8306484
251	0xbf29e110	-0.66359043
252	0x3c61527c	0.013752576
253	0x3ea60d3a	0.32431966
254	0xbf5b6577	-0.857017
255	0xbf908914	-1.1291833

fc2.bias f4 [27]
0	0xbe04a8d0	-0.12955022
1	0xbf8111c4	-1.0083547
2	0x3e2679f2	0.16257456
3	0xbf3662da	-0.71244586
4	0x3e8b1e9f	0.271718
5	0xbc85c41a	-0.01632886
6	0xbf67b050	-0.90503407
7	0xbf674746	-0.9034313
8	0xbf945881	-1.1589509
9	0xbeee0d91	-0.46494725
10	0x3ef98bc5	0.48739448
11	0xbd07d49a	-0.033161737
12	0x3f899173	1.0747513
13	0x3f4c506d	0.7981022
14	0x3f7f9010	0.99829197
15	0x3e6482ee	0.2231557
16	0xc01ca120	-2.4473343
17	0xc00e113e	-2.2198024
18	0xbd208c64	-0.039196387
19	0x3f4d17d6	0.80114496
20	0x3fe58de5	1.7933928
21	0x3f9e457b	1.2364954
22	0x3f75135f	0.9573268
23	0x3f49062c	0.7852504
24	0x3e63b578	0.22237194
25	0x3f0ab68d	0.541848
26	0x3e38a138	0.1803025
