ckpt/classifiers/rgb_epoch_21.pth (torch, 42168 bytes, 4 tensors)

fc1.weight f4 [64, 128]
000000 ee 95 01 3e 24 3a 25 bf fe cd db 3d 2f 43 bb be
       0.1265485 -0.6454184 0.10732649 -0.36574695
000010 62 56 44 3e c2 c0 26 3f 64 5f 01 3f 81 d8 fe be
       0.19173577 0.65137875 0.5053618 -0.49774554
000020 9d 8b 5a 3f 63 c7 15 bf e4 0b 87 3f 3c 6a 79 bf
       0.8536928 -0.58507365 1.0550504 -0.97427726
000030 8c 43 9e 3e 8a de 28 3e bf 43 4f bf 8e 79 59 be
       0.3091091 0.16491142 -0.8096275 -0.21237776
000040 53 40 09 bf 7b 1b 95 3f b0 65 4e bf 20 f8 aa be
       -0.53613776 1.1649011 -0.8062391 -0.3339243
000050 a2 0f 39 3e 8e 30 8c bd b3 d4 67 3f a0 93 0f bf
       0.1807237 -0.068451986 0.9055893 -0.5608463
000060 18 8c b6 bf 65 54 cd bc 09 13 55 3e 28 a5 50 3b
       -1.4261503 -0.025064657 0.20808043 0.0031836722
000070 4c 14 f2 3e a2 c2 8d bf d3 81 8c 3e cf c8 a0 be
       0.4728111 -1.1075022 0.27442798 -0.31403205
000080 e0 21 3a 3e 82 80 d0 3e 7d aa 44 3f fb 0e f2 3e
       0.18176985 0.40723044 0.76822644 0.47277054
000090 ee 79 36 3e 94 02 ac bf aa 4e 8d 3e 1c 37 32 3f
       0.1781995 -1.3438287 0.27599078 0.6961534
0000a0 09 3f 80 3e 3a 63 b7 3f 1f 6a 77 3f 4a cd 48 bf
       0.25048092 1.4327157 0.966463 -0.78438246
0000b0 6e 0d c1 3e c1 5a 4d bf b2 7e b5 be 18 fe 21 3f
       0.3770556 -0.80216604 -0.35448223 0.6327834
0000c0 bd 3d 8a 3d f7 2d 41 be 50 11 e6 3e 5c e0 5b 3e
       0.06750057 -0.1886519 0.44935083 0.21472305
0000d0 2e 4c ba 3d 8c 6c 86 3e 2b dd 23 3f e6 3e 1a 3f
       0.09096561 0.2625469 0.6400935 0.60252225
0000e0 41 db 9e bf f8 f3 bf bf 29 e7 13 be ec 4d 00 3f
       -1.2410661 -1.4996328 -0.1444365 0.501189
0000f0 e5 a5 82 bf b6 9b 2d 3d a2 01 3b 3f 7d 44 ca bc
       -1.0206877 0.042384826 0.73049366 -0.02469086
000100 bb 56 11 bf 5e 5d 41 3f 74 04 6e be 53 a1 1a bd
       -0.56772965 0.7553309 -0.23243886 -0.037751507
000110 79 c5 fa 3d e0 c6 f2 bd 24 32 b8 3e 9a 9b 7f bf
       0.12244696 -0.11854339 0.35975754 -0.99846804
000120 5c 51 33 be 3e 27 e3 3e db 61 ee bd 4b 2d 0d bf
       -0.17511505 0.44365877 -0.11639758 -0.55147237
000130 3e e2 3a bd b2 da b6 3e 78 d3 7c bf 07 b7 de 3e
       -0.045625918 0.35713726 -0.98760176 0.43499014
000140 39 8f 1a bf 18 c2 d6 3e 7b 10 5f bf 99 e1 be 3e
       -0.6037479 0.41944957 -0.8713452 0.37281492
000150 aa a5 fd 3c 16 2d 5d be 8c 93 21 3f 11 a1 81 bf
       0.030962784 -0.2159923 0.63115764 -1.0127279
000160 67 a4 35 3f 8d fe 91 3e 91 01 9b 3c e7 e2 72 be
       0.70953983 0.2851452 0.018921645 -0.23719369
000170 63 c9 0a bf 53 8e 0a 3e 79 ca da 3e f9 38 23 3f
       -0.5421354 0.13530855 0.427326 0.6375881
000180 c0 23 ce be 9f 9e 2e bf dc 56 a7 3d 65 51 8f bf
       -0.4026165 -0.68210787 0.08170864 -1.1196715
000190 bf ae 0f bf 7e 8c e7 3c 94 3a 88 3f 59 a3 57 3b
       -0.56126016 0.028265234 1.0642877 0.003290376
0001a0 9a 8b a7 be b2 6c 2e bf 41 91 27 bf c4 6d 6e be
       -0.32723695 -0.68134606 -0.65456015 -0.2328406
0001b0 30 71 8f be 04 8d 90 3f 56 79 57 bf a1 d1 76 3f
       -0.28016043 1.1293035 -0.8416952 0.9641362
0001c0 a1 6c c6 3e 2a 54 04 3f 85 fd e8 3d 7a d5 0e bf
       0.38754752 0.51690924 0.1137648 -0.5579449
0001d0 cb dd 6b 3f 59 56 8e 3f be 07 92 3f f9 13 94 3f
       0.92135304 1.1120101 1.1408613 1.1568595
0001e0 32 3d 5e bf 2e 07 10 bd f2 34 9f bf 8a 46 5e 3f
       -0.86812127 -0.035163097 -1.2438033 0.86826384
0001f0 57 66 f2 be e8 59 2d bd 41 2f 6a 3f b2 df a0 bf
       -0.47343704 -0.04232207 0.91478354 -1.2568266
000200 3f f0 0b bf a6 a2 be be 56 7e c9 3e 55 a0 03 be
       -0.5466346 -0.37233466 0.393542 -0.1285413
000210 31 aa a3 3d 51 c4 64 3f fb 81 51 3f 07 87 a2 bc
       0.07991446 0.89362055 0.8183896 -0.019839777
000220 8e 37 c8 3e 05 89 31 be b5 af 02 3f 38 d4 07 bf
       0.39104885 -0.17337425 0.5104936 -0.53058195
000230 43 88 81 3f c0 c3 88 bd bd 5e 10 be 00 c2 8a bf
       1.0119709 -0.06677961 -0.1409864 -1.0840454
000240 b3 9c 1b 3f f7 b3 40 3f 49 47 56 bf b6 38 8f be
       0.6078598 0.75274605 -0.8370252 -0.27972955
000250 22 20 2d 3f f6 2c 6b 3f 01 4f c2 3f d1 3b f6 3e
       0.67627156 0.9186548 1.518036 0.4809251
000260 ed db 5c bf 2e 3c 38 3f 50 5e 16 3f 14 76 81 bf
       -0.8627308 0.71966827 0.5873766 -1.011416
000270 43 78 ad 3e 98 e5 05 bf 99 87 b4 be 28 4f 39 bf
       0.33880815 -0.5230346 -0.35259703 -0.7238641
000280 4e 91 7a 3f 4a 70 8a bf 7b bb 32 3e 4f 1d 7e 3e
       0.9787797 -1.0815518 0.1745433 0.24815868
000290 01 fb 3d be 04 10 17 3e 4b 18 df be d1 6d 53 be
       -0.18552782 0.14752203 -0.43573222 -0.2064736
0002a0 01 64 3b 3e f6 75 8d 3f 5a dc 9c 3e 5a 46 9e 3e
       0.18299867 1.1051624 0.30636865 0.3091305
0002b0 1c 41 53 3f 0b 26 cd bf 8a 45 53 bf 8c 2f 14 3e
       0.82521224 -1.6027235 -0.82527983 0.14471263
0002c0 55 1f d5 be 9b e5 a5 be 70 42 cd 3e 3d 19 66 bf
       -0.41625467 -0.32401738 0.4008975 -0.8988226
0002d0 a1 ab ee be 72 08 79 3e e7 eb de bc d2 e5 fc be
       -0.46615317 0.24319628 -0.027212096 -0.4939409
0002e0 26 7c b4 3e 12 5a 1c 3f 7b d4 bd be 31 bf 4b bf
       0.35250968 0.61074936 -0.37076172 -0.7958861
0002f0 99 ca bf be 77 50 1f 3f 54 33 36 bf 43 a8 42 be
       -0.37459257 0.62232155 -0.7117207 -0.19009499
000300 00 0a 3f bd ee 25 96 3f 2f b3 2b 3e d8 29 60 be
       -0.046640396 1.1730325 0.16767572 -0.21890962
000310 47 bc 1b bd 6b 22 56 be a4 03 b6 3c c6 17 52 bf
       -0.038021352 -0.20911567 0.022218533 -0.82067525
000320 9a 0c 19 40 38 41 88 3e a2 1f cd bd 83 a1 48 bf
       2.3913941 0.26612258 -0.10015799 -0.7837145
000330 ae e1 4e 3e 91 57 13 be ba 7b 71 3d 64 9d 5c bd
       0.20203277 -0.14388873 0.058955885 -0.053861037
000340 4e e7 0c be d2 d3 a7 be 46 5f 53 3e e4 08 a4 be
       -0.1376011 -0.32778794 0.20641813 -0.32038033
000350 69 73 f8 3e 7f db 4d bf a4 34 e3 bd e2 59 73 bf
       0.4852555 -0.8041305 -0.11094025 -0.95059025
000360 24 35 26 3f ee a1 45 3f 69 07 5f 3f 0d 81 32 3f
       0.64924836 0.7720021 0.8712068 0.69728166
000370 79 e9 50 bf 19 b6 ac 3e 26 96 cb 3d a6 0a 34 3f
       -0.8160625 0.3373268 0.09940748 0.7032875
000380 5f 81 b0 bd 7f 96 bd be fc 58 ed 3e b9 a8 37 3f
       -0.086184256 -0.37028882 0.46356952 0.71741825
000390 4b 47 1e 3e e8 4b c5 3f 0a c1 0f 3d be 63 91 be
       0.15456884 1.541379 0.035096206 -0.2839641
0003a0 a7 56 90 be 89 27 38 bd dc 05 98 3e 54 10 3e bf
       -0.2819111 -0.04495958 0.2969197 -0.74243665
0003b0 9c 40 12 bf c8 a3 64 3f 6a 47 7f bf 50 25 fb be
       -0.57129836 0.8931241 -0.99718344 -0.49051905
0003c0 30 34 4e 3f df 3d 5e bf c0 4a 45 3e 9d bb 82 be
       0.8054838 -0.8681316 0.19266796 -0.25533763
0003d0 67 bf e4 3e 2c 04 84 3e 36 4f 0a 3f ba 81 bc 3e
       0.44677278 0.25784433 0.54027116 0.36817724
0003e0 d2 d8 9e bf f1 46 66 3f 16 c1 87 bf 44 60 69 3f
       -1.2409918 0.89952 -1.06058 0.91162515
0003f0 0e ed 0d bf bb 98 a7 bc 2a c7 ee bb 01 a8 d7 3e
       -0.5543984 -0.02045857 -0.007286926 0.42120364

fc1.bias f4 [64]
000000 da b0 50 bf 2c 92 b0 bf a5 b8 a8 bf f1 d0 e2 bf
       -0.81519854 -1.3794608 -1.3181349 -1.7720014
000010 3b 79 eb bf dd f5 9f bf 3e 7b 91 bf 6d 9b ce bf
       -1.8396372 -1.2496907 -1.1365736 -1.6141182
000020 c2 4c 02 c0 ed 59 79 bf b8 99 48 bf 34 d4 3e bf
       -2.035935 -0.9740284 -0.78359556 -0.74542546
000030 dc 98 ce bf 12 17 81 bf 02 06 95 bf ce 0d ad bf
       -1.6140399 -1.0085166 -1.1642458 -1.3519838
000040 c8 3b 97 bf 0f 73 7a bf b3 3d 8f bf bb b9 cd bf
       -1.1815119 -0.97831815 -1.1190704 -1.6072305
000050 22 5d 97 bf 0d f7 7f bf bc 61 45 bf 1f df f3 bf
       -1.1825297 -0.99986345 -0.77102256 -1.9052466
000060 35 83 6d bf 41 cd aa bf f1 be a9 bf 43 16 d4 bf
       -0.9277833 -1.3343889 -1.3261396 -1.6569294
000070 91 ea 98 bf e7 31 72 bf 15 85 c7 bf 8d 83 b4 bf
       -1.1946584 -0.94607395 -1.5587488 -1.4102646
000080 8f 57 d0 bf 38 1d 80 bf b6 55 a1 bf 7e 31 89 bf
       -1.6276721 -1.0008917 -1.2604282 -1.0718229
000090 d5 79 8d bf 54 4c bd bf c0 f5 af bf db 3f 9a bf
       -1.1052805 -1.4788918 -1.3746872 -1.2050737
0000a0 84 4b 81 bf 7a 29 ce bf 2d f8 94 bf 01 c8 d9 bf
       -1.010117 -1.6106408 -1.1638237 -1.7014161
0000b0 9b 2e ca be 91 ab a2 bf dc db 3b bf b3 88 b3 bf
       -0.39488682 -1.2708608 -0.73382354 -1.4026092
0000c0 d2 a4 b2 bf 8f e3 b1 bf 37 90 fd bf 2b 1c b3 bf
       -1.3956549 -1.389757 -1.9809636 -1.3992971
0000d0 3a 56 f7 bf 5a 08 e9 bf ef 13 a5 bf 76 b2 88 bf
       -1.9323189 -1.8205674 -1.2896708 -1.0679462
0000e0 6d 16 d2 bf 2a c4 01 c0 43 51 8f bf 06 dd 85 bf
       -1.6413094 -2.027598 -1.1196674 -1.0458076
0000f0 a0 9a c0 bf 07 31 9b bf 9c 95 d9 bf 3e 53 a0 bf
       -1.5047188 -1.2124337 -1.6998782 -1.2525403

fc2.weight f4 [27, 64]
000000 16 48 ef bd a1 56 57 be 0f f2 28 bf 6a 30 15 3d
       -0.11683671 -0.2102914 -0.6599435 0.036423124
000010 65 88 03 be 3c 2e 3a 3e 03 d1 f9 be ee 63 6c be
       -0.12844999 0.181817 -0.48792276 -0.23084995
000020 df 45 09 bf a5 27 02 bf dd 6d 6a 3e 0a 89 b2 3d
       -0.5362224 -0.5084174 0.22893472 0.087175444
000030 5f 2a d4 3e d9 93 e7 be ce 49 66 bf cb 62 dc be
       0.41438577 -0.45229986 -0.89956367 -0.43044123
000040 b6 4a 97 be 3e 6a 25 bf 5d 8e 6b bf cb 7f 87 3e
       -0.29549187 -0.6461524 -0.92014104 0.26464686
000050 1b 53 96 3d 3d d5 e8 be c7 09 69 bc 0b a1 d4 be
       0.0734007 -0.45475188 -0.0142235225 -0.41529116
000060 85 b7 69 bc 5a e0 1e bf 95 1b 27 bf 4f 0f 10 bf
       -0.014264946 -0.62061083 -0.6527646 -0.5627336
000070 e4 d7 22 bf dc fa 73 3d e9 1d 0a 3f 55 ed ab bd
       -0.6361067 0.05956541 0.5395189 -0.08394877
000080 3f 3a 20 3f ed db 7f be 5b 1c e1 3e d4 9c 0e be
       0.62588876 -0.24986239 0.43966946 -0.13927013
000090 38 93 fc 3e a7 2b 80 3e 28 1a a2 bc 45 84 ec be
       0.4933107 0.25033304 -0.019787863 -0.46194664
0000a0 7f f1 43 bf c4 c9 ed 3e d3 ed 4c 3f 02 d5 3a 3f
       -0.7654037 0.46442997 0.8005039 0.72981274
0000b0 b0 f8 4a bf 54 b9 b4 be fa e6 c2 bb 8a 65 df be
       -0.79285717 -0.35297644 -0.0059479447 -0.43632156
0000c0 18 2a 5c 3f 21 3f 44 bf 24 98 c0 be d2 71 59 3e
       0.8600173 -0.7665883 -0.37616074 0.21234825
0000d0 e6 20 e8 bd bb 84 d4 3d 48 c4 ad be ea 4c 74 bf
       -0.113344 0.10376879 -0.33938813 -0.9542986
0000e0 ab ae 44 3e 0c 9d f2 3e a6 10 0f 3f ba 03 dd 3e
       0.19207256 0.47385442 0.5588478 0.43166906
0000f0 d9 dd d7 be ca af 01 3e 56 1c f6 be 5a 70 a3 be
       -0.42161444 0.12664714 -0.48068494 -0.31921655
000100 3c 09 24 3f f9 36 35 bf 2f 1a 75 be 18 69 85 3e
       0.6407659 -0.70787007 -0.2393577 0.26056743
000110 1e 74 c0 3c 10 d1 b6 bf 05 e9 20 bf 34 5f 5a 3f
       0.023492869 -1.4282551 -0.6285556 0.8530152
000120 c2 43 8b 3e f4 1b 9b 3e 77 8f 0e bf de d0 1c 3e
       0.27200133 0.30294764 -0.5568766 0.15314052
000130 f1 4f 0c bf b6 be cc bf 2d e6 59 be 44 13 5c be
       -0.5480948 -1.59957 -0.21279211 -0.21491724
000140 d4 c9 97 3e 64 b7 98 bf c9 7a 81 bf 95 6f 57 be
       0.2964617 -1.1930966 -1.0115596 -0.21038659
000150 b2 5d 0d bf 7f 9e 7a bf 4d e3 e8 be e2 fe 8a bf
       -0.5522109 -0.97898096 -0.45485917 -1.0859034
000160 01 65 f1 3e 2b 6b 4d bf 70 d5 5f bf b4 7d c4 3e
       0.47147372 -0.8024165 -0.87435055 0.38377154
000170 0a 88 0f bf 77 6b a7 3d 03 8d 4f bf d9 9a 84 3c
       -0.56066954 0.08174794 -0.8107454 0.016187118
000180 c2 e7 83 bb 98 df da bf a5 a8 2c 3e 63 36 46 bf
       -0.0040254304 -1.7099485 0.16861208 -0.7742674
000190 14 1a 0d bf 1e ae ed 3e 73 50 b6 3e 3c 75 8b bf
       -0.5511792 0.46421903 0.35608253 -1.0895152
0001a0 73 17 7b 3e c8 e9 22 3e 39 7c 3f bf 79 e4 95 bb
       0.24520664 0.15909493 -0.74798924 -0.004574355
0001b0 1d dc 07 bf b1 32 8d be a9 43 38 3f e0 e6 ce 3e
       -0.5307024 -0.27577737 0.7197824 0.4041052
0001c0 c8 77 c5 3e 21 26 e8 3e a8 35 23 be ee 11 06 be
       0.38567948 0.4534159 -0.15938437 -0.13092777
0001d0 34 16 04 bf a5 cc 9e 3e 70 1d 0b be f3 8d 6c be
       -0.5159638 0.31015506 -0.13585448 -0.23101024
0001e0 eb c4 bb 3e df b7 d1 3e 6f da e4 be a4 cd 34 3e
       0.36673674 0.40960595 -0.44697902 0.1765657
0001f0 4c e8 07 bf 6b 20 45 3e 28 3e bd 3e ba b5 98 bf
       -0.5308883 0.19250648 0.36961484 -1.1930459
000200 d4 e8 79 be 69 84 fc bf 2f a0 e8 3e b2 80 6e bf
       -0.24405223 -1.9727908 0.4543471 -0.93165123
000210 29 84 89 be bc 4e b1 bf 26 5c ca bf b0 6a d4 be
       -0.26858643 -1.3852153 -1.5809371 -0.41487646
000220 76 b3 b2 3e 14 af 3f 3f 59 7d bf bf 5b 04 b5 bf
       0.34902543 0.74876523 -1.4960128 -1.4141954
000230 3b be 9e bf 53 3d 76 bf 3d fe e4 3e 24 3e b3 be
       -1.2401804 -0.96187323 0.44725218 -0.35008347
000240 d1 e4 72 3e 60 d5 39 bf e6 03 82 bd 5b af 57 3e
       0.23720099 -0.7259121 -0.063484 0.21062987
000250 d8 1a c8 bf 2b 08 97 bf 8d c4 08 bf 4f a5 a0 bf
       -1.5633192 -1.1799368 -0.5342491 -1.2550448
000260 23 47 81 3d 73 0d 9d bf 07 cc 43 be 7f 2b 0f bf
       0.063123964 -1.2269729 -0.19120799 -0.55925745
000270 fd 5f 5b 3f 04 b7 24 bf 1a 86 4e bf 74 36 fb be
       0.8569334 -0.6434176 -0.8067337 -0.49064982
000280 29 a4 81 be a4 07 23 bf ca 25 ae bf 4f ee 35 bf
       -0.25320557 -0.63683534 -1.3605282 -0.71066755
000290 8b f5 88 bf 6d 75 aa bd 27 fb b8 bf 7a 38 5b bf
       -1.0699934 -0.083231784 -1.4451646 -0.8563305
0002a0 55 b7 bd 3d bc 2a 9f 3e 84 48 ea be 6c f0 a8 3d
       0.092634834 0.3108729 -0.4575845 0.08248982
0002b0 24 dd 23 be 58 f5 9b bf 4c 32 b0 bf d2 a4 26 3d
       -0.16002327 -1.2184248 -1.3765349 0.04068453
0002c0 ce d7 f0 bc 77 7c 5f be 67 15 a9 be e8 42 91 bf
       -0.029399779 -0.21824823 -0.3302414 -1.1348543
0002d0 04 83 43 bf 84 00 05 be a8 59 d1 bf e0 33 06 bf
       -0.7637179 -0.12988478 -1.6355486 -0.52422905
0002e0 61 6b 40 3f 3c 3d 2e 3f 7a 42 67 bf d0 c5 d4 bf
       0.7516385 0.68062186 -0.9033581 -1.6622868
0002f0 cb a9 74 bf 34 5a b5 3d 59 fe 15 bf 65 c8 22 bf
       -0.95571584 0.088550955 -0.5859123 -0.6358703
000300 ad 1d b1 be 0a 09 b1 bf 50 ad 15 bf 56 6c 17 be
       -0.34592953 -1.3830884 -0.5846758 -0.1478742
000310 4f 88 4a 3e e1 a5 4d be ac 47 72 bf 89 68 9f be
       0.1977856 -0.20082809 -0.9464061 -0.31134441
000320 9b 00 b9 be a1 ae 08 3f 54 b9 10 be f8 2d fd 3e
       -0.36133274 0.5339146 -0.14133197 0.49449134
000330 79 b4 1d 3f 6f b6 e3 3c 0c 1f b6 bf d1 a9 2b bd
       0.61603504 0.027796952 -1.4228225 -0.041909996
000340 52 2b fa 3d e0 c6 36 bf 39 55 1f bd b2 6b 3e 3f
       0.12215294 -0.7139721 -0.038899634 0.7438308
000350 f9 be b2 be d3 ed 03 bf 31 fc b7 3e 40 44 2c bf
       -0.34911326 -0.51534766 0.35934594 -0.6729164
000360 d1 43 3b 3e 08 37 46 bf a6 45 f4 be 35 2a 34 bf
       0.18287589 -0.7742772 -0.47709388 -0.703769
000370 37 5f 9f 3e 3f ad e2 3e 85 af 24 bf e3 b3 43 bf
       0.3112733 0.442728 -0.6433032 -0.7644636
000380 06 32 37 3e a2 5d a5 bc a0 c7 a2 bd c0 0d 1c bf
       0.17890176 -0.02018625 -0.07948232 -0.6095848
000390 38 e5 8d bf 58 17 2f bf 83 9a 25 3f 8b 33 00 3f
       -1.1085577 -0.68394995 0.6468889 0.5007865
0003a0 cc 66 cf bf c9 e1 1f 3e 30 40 2f 3f c4 bb fc be
       -1.6203246 0.15613474 0.6845732 -0.49362004
0003b0 20 3e 0b be 9b 07 a2 bf 13 b1 a5 bf 86 77 7b bf
       -0.13597918 -1.2658571 -1.2944664 -0.98229253
0003c0 4e 67 bf 3e 14 c2 71 bf e7 4a d4 3e 97 b5 ed bf
       0.37383503 -0.94436765 0.41463396 -1.8571042
0003d0 7e c6 06 bd 14 e4 3c be cb ff 29 3c 8f ca c7 bf
       -0.03290414 -0.1844638 0.010375927 -1.5608691
0003e0 90 d5 23 be 93 ab c2 3e fa 5f 47 3f 13 19 19 bf
       -0.15999436 0.38021526 0.77880824 -0.59803885
0003f0 10 9d 59 3c c4 88 a3 3e 42 12 5c bf 06 a4 8b bf
       0.0132820755 0.3194028 -0.8596536 -1.0909431

fc2.bias f4 [27]
000000 fe 7d 22 be e4 67 75 bf 8b 4c 07 3e f4 aa 3a bf
       -0.15868375 -0.9586165 0.13212793 -0.72917104
000010 99 55 9c 3e e9 30 4c bc e9 e2 78 bf 50 14 6b bf
       0.30534056 -0.012462833 -0.9722124 -0.9182787
000020 c9 b9 97 bf 35 c2 f6 be d3 ba fd 3e 09 bb 86 3d
       -1.1853572 -0.48195043 0.49556598 0.06578643
000030 18 d1 86 3f a4 79 40 3f 49 d8 74 3f 75 15 47 3e
       1.053256 0.7518561 0.95642525 0.19441779
000040 4c 82 1e c0 62 66 0f c0 9b dc e8 bc 56 d8 58 3f
       -2.4767027 -2.240624 -0.028425505 0.847051
000050 2b 4a ea 3f 24 b8 a2 3f a2 ca 67 3f 09 7e 59 3f
       1.8303884 1.2712445 0.9054357 0.8495794
000060 b8 36 1f 3e 8d c7 0d 3f 9f 04 8c 3e
       0.15548217 0.55382615 0.27347276
