ckpt/classifiers/rgb_epoch_47.pth (torch, 42168 bytes, 4 tensors)

fc1.weight f4 [64, 128]
00000000: 8aaa c63d 2a2b 3abf fc4b bd3c db05 afbe
00000010: 06a0 523e 2b0a 243f b168 083f 2dca e5be
00000020: ebd2 543f 60b9 00bf 8cc6 8a3f 185e 80bf
00000030: ded4 ac3e e945 693e 7c41 49bf d979 20be
00000040: f1b9 f9be 6df4 943f b0b4 4bbf 112d 8fbe
00000050: c5b8 553e 2d93 42bd 157a 6c3f 316d 04bf
00000060: 35b1 bdbf a3b5 803d 0a65 813e 3cdd 453c
00000070: fac9 fa3e 1a5b 93bf aad5 783e 7d78 95be
00000080: 70f3 5f3e 3df4 c93e c9ff 3c3f 3c59 063f
00000090: 0bc1 183e 2b91 a7bf 6bbb a13e 521d 3d3f
000000a0: e332 4e3e fdc0 b43f a209 833f 41d5 54bf
000000b0: 5e2f a53e 2a75 55bf 3877 b7be ec6e 1a3f
000000c0: c0af b83d 8638 28be f314 f43e 7c79 553e
000000d0: 8c5b 043e aee8 9d3e eb31 1b3f 9a57 243f
000000e0: f321 99bf cff4 c0bf 6524 9cbd e558 053f
000000f0: 68f5 84bf 3eb2 703d 6c7d 363f eda2 c13c
00000100: 2ffd 08bf e1c8 3b3f f35e 58be 5dd9 a9bd
00000110: 2357 6d3d a1e2 cebd afb1 b23e e467 82bf
00000120: d86d 4ebe 1c05 d73e ffb8 74bd 45d7 13bf
00000130: 201d 52bd 4a06 ae3e dd22 80bf 9867 fd3e
00000140: b6f7 35bf 8255 fe3e 11ed 74bf 54d9 ad3e
00000150: d9f0 593d 7513 97be 5b11 1d3f 13cb 85bf
00000160: 5204 313f 41a6 873e 9415 ad3d 2c63 71be
00000170: 0c26 18bf 0b32 2c3e b88d db3e 1880 1f3f
00000180: 5664 a8be 02a7 26bf eb6d a63d 34ae 90bf
00000190: 8a0f 18bf 0f70 1d3a 9892 7d3f 8777 d8bc
000001a0: 3d51 90be c43c 3dbf 33ed 2bbf dca5 83be
000001b0: bee0 9fbe ef85 903f 09ca 59bf 6e82 783f
000001c0: b2cd d83e 9941 f43e 4e0e 623d 26b0 1cbf
000001d0: 6601 713f 6dfb 913f 41d6 933f 6370 973f
000001e0: 4100 56bf 733a fabd c66b 9bbf 7379 6d3f
000001f0: 2c4a 08bf 0005 a2bd 548b 663f 2ac6 a1bf
00000200: 4905 00bf 807a aebe 650e e53e 238f ecbd
00000210: 09c7 e23d f86e 763f aba6 3d3f eaec 23bd
00000220: 277a ea3e ebf0 5fbe 9d36 f53e e633 0ebf
00000230: 2908 6e3f 6a39 9dbd 3adc 3dbe 9a73 89bf
00000240: 3ae9 143f 89e3 483f 83cf 5dbf f4fe 95be
00000250: 25a5 2d3f c221 663f 4621 bd3f cfb3 de3e
00000260: f17c 53bf 78a4 293f 7789 0a3f f89a 84bf
00000270: 2766 9c3e 8f04 06bf eb6a cabe 9cbe 45bf
00000280: 0d33 783f 1395 8abf 9df8 2d3e 27a7 603e
00000290: a1b1 16be e92a 1c3e 4f5b 01bf 2462 6cbe
000002a0: ea69 373e eae7 913f 398d a23e 80b9 8c3e
000002b0: 3d36 523f 99b7 c8bf 544a 5ebf 34f0 413e
000002c0: 87ec 00bf de6a b7be a471 b43e 267f 50bf
000002d0: dba9 f1be 9606 923e 51aa d3bc 8878 0ebf
000002e0: 03aa b03e d23a 293f b4c5 c9be a6d5 42bf
000002f0: c3bd c5be 561b 273f 9b6d 2bbf 40c1 55be
00000300: e21a 35bd c4c9 993f e8d7 043e 4a55 64be
00000310: e88a 683d fbd4 3dbe e0e0 83bd 1fbf 57bf
00000320: 1433 1840 a254 813e 214b 14be c02e 47bf
00000330: a63c 4e3e 89d0 74be 1e5a 643d 1fc7 36bd
00000340: 62e7 50bd 0161 c1be f598 873e 786b 80be
00000350: c54a de3e cb25 47bf 2904 65bd 3c2d 81bf
00000360: 8671 353f 1f13 373f 4d5b 573f e503 233f
00000370: 6845 50bf a6de 9d3e f407 033e a339 413f
00000380: 70ca 42be 6912 a1be 56c2 fd3e 19c1 353f
00000390: c1f5 463e 94a7 c83f 81f9 bb3d c10c a5be
000003a0: 76dc 9abe 0e7e 1bbc 5bee 943e 0e7e 30bf
000003b0: 89ea 0ebf e23a 563f 7168 7abf 63bf 01bf
000003c0: 0946 4a3f b803 58bf ba6c 803e 67e3 41be
000003d0: bcc7 ce3e 1f07 743e 89d5 193f 0daf e63e
000003e0: 7736 9bbf d854 753f 105b 8dbf ee64 5b3f
000003f0: 337d 06bf 937f f0bc 1797 1f3d aeac cb3e
0.097004965 -0.72722113 0.023107521 -0.34184155 0.20568857 0.64078015 0.53284746 -0.4488081
0.83134335 -0.5028286 1.0841842 -1.0028715 0.33756155 0.22780575 -0.78615546 -0.15671481
-0.48774675 1.1637093 -0.7957258 -0.2796407 0.20871265 -0.04750364 0.9237378 -0.5172911
-1.4819704 0.062846445 0.252724 0.012076672 0.4898222 -1.1512177 0.24300256 -0.29193488
0.21870208 0.39444152 0.738278 0.5247991 0.1491739 -1.3091177 0.315883 0.73872864
0.20136599 1.4121395 1.0237315 -0.831379 0.322627 -0.83381903 -0.35833144 0.60325503
0.09017897 -0.16427812 0.47672233 0.20847124 0.12925547 0.30841583 0.60623044 0.6419617
-1.1963485 -1.507471 -0.07624129 0.5208877 -1.0387392 0.058763735 0.7128513 0.02363726
-0.5351133 0.7335339 -0.2112997 -0.08293412 0.05794443 -0.1010182 0.34901187 -1.0187955
-0.2015909 0.41996086 -0.05974674 -0.5775035 -0.051297307 0.33989173 -1.001064 0.49493098
-0.710811 0.49674612 -0.95674235 0.3395487 0.053208206 -0.29507032 0.6135461 -1.0452598
0.6914722 0.2649403 0.08451381 -0.23572987 -0.59433055 0.16815965 0.4288156 0.6230483
-0.3288905 -0.65098584 0.08126434 -1.1303163 -0.5939871 0.0006005773 0.9905181 -0.026424183
-0.2818698 -0.73920846 -0.6715881 -0.25712478 -0.31226152 1.1290873 -0.85073906 0.9707402
0.42344433 0.47706297 0.055189423 -0.6120628 0.9414276 1.1404854 1.154976 1.1831173
-0.8359414 -0.122181796 -1.2142265 0.9276344 -0.5323818 -0.0791111 0.9005635 -1.26386
-0.50008065 -0.34077835 0.44737545 -0.11550739 0.11073119 0.96263075 0.7408244 -0.04002086
0.4579632 -0.21869247 0.4789323 -0.5554794 0.929812 -0.076769665 -0.18541041 -1.0738404
0.58168375 0.7847219 -0.8664476 -0.29296076 0.67830116 0.8989526 1.4775779 0.43496558
-0.8261252 0.66266584 0.54116005 -1.0359793 0.30546686 -0.52350706 -0.39534697 -0.7724397
0.969529 -1.0826744 0.1698937 0.21938764 -0.14716198 0.15250744 -0.5052995 -0.23084313
0.17911497 1.13989 0.3174837 0.27485275 0.8211401 -1.568103 -0.86832166 0.18939286
-0.5036091 -0.3582372 0.3524295 -0.81444013 -0.47199902 0.2852065 -0.02583805 -0.55652666
0.3450471 0.6610538 -0.39408648 -0.7610725 -0.3862134 0.65276086 -0.6696412 -0.208745
-0.04421509 1.2014699 0.12972987 -0.2229816 0.056773096 -0.18538277 -0.06439376 -0.84276
2.3781176 0.25259882 -0.14481784 -0.7780571 0.20140323 -0.23907675 0.055750005 -0.04462349
-0.051001914 -0.3776932 0.26483884 -0.25081992 0.4341642 -0.7779204 -0.05591217 -1.009193
0.7087635 0.7151355 0.8412369 0.6367782 -0.81355906 0.3083393 0.12796003 0.7547857
-0.19022536 -0.31459358 0.4956233 0.7099777 0.19429685 1.5676141 0.091784485 -0.32236293
-0.30246323 -0.009490503 0.290881 -0.68942344 -0.5582662 0.836836 -0.97815615 -0.5068266
0.79013115 -0.84380674 0.25082952 -0.18934403 0.4038676 0.23830841 0.60091454 0.45055428
-1.2125996 0.95832586 -1.1043415 0.8570088 -0.5253479 -0.029357707 0.03896245 0.39780182

fc1.bias f4 [64]
00000000: ba09 47bf 3976 b1bf 4ac5 aebf b426 e5bf
00000010: 6e55 ecbf 74dd a0bf 9d4c 91bf e5e3 c9bf
00000020: 2ff1 00c0 1589 7abf 43d0 41bf a0a3 32bf
00000030: 9bcc cbbf 7339 78bf a453 91bf 5e70 a3bf
00000040: 12a3 99bf 1c39 77bf f897 84bf 3770 c8bf
00000050: dd1a 8dbf 2400 7ebf 177e 3bbf 5c86 f2bf
00000060: 222b 69bf 7497 abbf adae a1bf 7b7a ccbf
00000070: 454e 94bf cc1c 65bf 03b9 c7bf 989b afbf
00000080: 8d7c d5bf ff2e 78bf 92b6 9abf b41e 90bf
00000090: 21a2 8bbf 9cc3 b8bf 6cf1 b0bf 8e14 91bf
000000a0: 882a 7abf 47d6 c8bf 7f1e 94bf 6896 d7bf
000000b0: 218b c0be 7fb5 a1bf 2745 42bf ca7f b6bf
000000c0: 7efe b4bf a2d3 abbf 8563 00c0 85dc b2bf
000000d0: 5710 f8bf ccbd e7bf bea0 a6bf 1686 82bf
000000e0: ce57 d1bf 423c f9bf c1c4 89bf e2b6 81bf
000000f0: 575f bbbf e83a 9ebf d82c d5bf c3a6 9cbf
-0.77749217 -1.3864204 -1.3653958 -1.7902436 -1.8463571 -1.2567582 -1.1351506 -1.5772673
-2.0147207 -0.9786542 -0.7570841 -0.6978092 -1.5921816 -0.9696266 -1.135365 -1.2768667
-1.200289 -0.96571517 -1.0358877 -1.5659245 -1.1023823 -0.99218965 -0.7323927 -1.8947253
-0.9108144 -1.3405595 -1.2631432 -1.5974878 -1.1586386 -0.89497066 -1.5603336 -1.3719358
-1.6678635 -0.9694671 -1.2086966 -1.125937 -1.0908853 -1.4434695 -1.3823676 -1.1334398
-0.9772115 -1.5690392 -1.1571807 -1.6842775 -0.37606147 -1.2633513 -0.7588677 -1.4257748
-1.4140165 -1.342396 -2.0060742 -1.3973547 -1.9379987 -1.8104796 -1.3017805 -1.019717
-1.6354921 -1.9471514 -1.076317 -1.0133936 -1.463847 -1.2361727 -1.665431 -1.2238392

fc2.weight f4 [27, 64]
00000000: e41b f4bd 04b6 59be b988 29bf ad02 fd3c
00000010: e799 03be 6ed7 103e da2d e7be 13df 75be
00000020: 2044 09bf 122b 03bf bcf0 a23e 5b06 f43d
00000030: f083 ed3e 62c8 e3be 4a5b 68bf 6f14 ddbe
00000040: de1f a6be 2804 24bf 30fc 6bbf c6c6 713e
00000050: 14d0 863d 0e7b e9be 1a5b 0bbd 3c55 e0be
00000060: c2f3 61bd 1752 1fbf 2a5c 29bf 2d95 10bf
00000070: ea3b 23bf cbce f13c e647 143f 23d4 95bc
00000080: 11cf 223f 783b 84be 5453 013f c6c1 bebb
00000090: 577f d73e 9d9b 783e 447f b4bc 2ec8 f5be
000000a0: d962 48bf 8d2f 053f fabf 4e3f 5531 443f
000000b0: 3dca 44bf 701c b6be ac96 5fbc e747 e3be
000000c0: 36db 413f c77f 44bf 6f4d c1be aa44 6b3e
000000d0: 61cc e7bd 5822 a83d d8bf b6be 83a5 74bf
000000e0: e5ae 203e abb8 013f 765c 183f a21e f63e
000000f0: c14c d8be e5e7 113e 000a f8be ca10 a6be
00000100: 4cdc 243f feb6 36bf 0c70 95be d818 853e
00000110: 35c8 8a3c b448 b7bf 0355 1abf e459 503f
00000120: 4944 8b3e 3390 a83e 3d1f 0fbf 3f53 133e
00000130: c5b6 0cbf 50b0 cbbf aea2 5dbe 8b50 60be
00000140: 2bbd a53e 46f6 98bf 7382 81bf 476b 62be
00000150: 7aa9 0dbf 6cc2 7abf 31b1 ebbe 4b50 8bbf
00000160: a065 023f c0ce 5abf 5602 61bf 8442 c83e
00000170: 2cd5 0fbf 32d1 933d b493 4fbf 6310 b3bc
00000180: 1c30 c73c ba14 dbbf 40a1 263e 2897 46bf
00000190: 83b8 0dbf 764e 003f 96d3 b53e 75b5 8bbf
000001a0: cb61 bc3e f2b8 bc3d 65a5 3fbf ef2b 9cbb
000001b0: 6e18 11bf d6b7 96be c5a2 1b3f ffa7 cb3e
000001c0: ce02 d63e 61fe 013f 336b 28be b484 8bbd
000001d0: 9618 04bf 5d6c 973e 8631 17be efdf 76be
000001e0: d049 be3e fc96 d83e b026 e4be c3a9 813e
000001f0: 7737 08bf ece1 3f3e d0d6 c13e 66c0 98bf
00000200: ea6d 82be 49b5 fcbf 1a8f 003f 3bcc 74bf
00000210: ee84 89be 734e b2bf d2e1 cabf 4f91 d6be
00000220: 1c14 b23e 167f 2b3f d335 c3bf 3854 b5bf
00000230: 4067 9fbf bd64 79bf 3172 cb3e 0102 b7be
00000240: 6b63 613e b9f6 3bbf c076 85bd 8c02 413e
00000250: 7a6b c8bf 352e 97bf ecc1 0cbf 12ba a1bf
00000260: 4b43 503d 76df 9dbf ede3 5cbe 8823 11bf
00000270: 4c09 4d3f a005 28bf af99 4ebf d6fe fbbe
00000280: 78a8 83be f568 23bf 75ac b1bf 92ba 36bf
00000290: 543a 89bf 6b17 aebd 7584 b9bf 6395 5fbf
000002a0: 9966 b13d 599d a93e ca54 ebbe 0518 a73d
000002b0: 99ef 30be 6e2e 9dbf 2d6d b0bf f460 143e
000002c0: 74bf 28bd 1099 62be 327c aebe 5348 91bf
000002d0: 6f13 43bf e980 20be 8520 d2bf 57f3 06bf
000002e0: 4992 3a3f 2029 1f3f 2871 69bf 5167 d5bf
000002f0: 9718 75bf 1e59 b53d e7c0 17bf a6cc 23bf
00000300: 3ef2 b1be 8026 b1bf 7fbb 15bf b8b2 22be
00000310: 45b3 4a3e 7337 51be e1b6 72bf 99a1 a5be
00000320: 3678 d0be 30fe 1f3f 54ab 06be 2056 053f
00000330: f8d8 023f b73f 03bd 2354 b6bf bfa0 38bd
00000340: e0be 343e 5927 3fbf 219f 42bd 2ab0 2a3f
00000350: d08f b2be 1249 04bf ac7f a83e bc18 29bf
00000360: 1c3f 403e 7c07 46bf 957f 03bf d0db 34bf
00000370: 7707 8a3e 73f8 d93e a2d3 20bf c1ec 4fbf
00000380: d0c6 2b3e f0b5 dfbc b8ea 36bd 3fc0 28bf
00000390: 5a40 8ebf 2f3f 2fbf 26e2 4e3f 2bcb 183f
000003a0: 49fb cfbf ee73 1e3e 0a36 353f d920 fbbe
000003b0: 9eca 0ebe d91c a2bf 5d17 aabf 83d2 7bbf
000003c0: 13d9 003f 8abf 72bf ed05 b33e aab8 edbf
000003d0: ed3b 0bbd a947 48be f3a4 2dbb 4e1b c8bf
000003e0: 1ab4 07be 3da8 bf3e 9ac8 3d3f 8119 fdbe
000003f0: c280 773c 6c90 a13e 0204 5dbf b894 80bf
-0.11919382 -0.2126084 -0.6622425 0.030885065 -0.12851678 0.1414468 -0.4515217 -0.24010877
-0.53619576 -0.51237595 0.3182429 0.11915275 0.46389723 -0.44488817 -0.90764296 -0.43179652
-0.32446188 -0.6406884 -0.9218168 0.23610982 0.065826565 -0.45601696 -0.034022428 -0.4381503
-0.055164106 -0.62234634 -0.66156256 -0.56477624 -0.63763297 0.029517552 0.5792221 -0.018289631
0.6359721 -0.2582662 0.50517774 -0.0058214394 0.4208934 0.24278112 -0.022033341 -0.48004287
-0.7827583 0.5202568 0.80761683 0.76637775 -0.7687109 -0.3556857 -0.013646763 -0.44390795
0.75725114 -0.7675747 -0.3775439 0.22975412 -0.11318279 0.082096756 -0.3569324 -0.9556505
0.15691717 0.50672406 0.59516084 0.48070246 -0.4224606 0.14248617 -0.4844513 -0.32434684
0.64398646 -0.71372974 -0.29187047 0.25995517 0.01694117 -1.4319062 -0.6028597 0.8138716
0.27200535 0.32922515 -0.5590704 0.14387225 -0.54966384 -1.5913181 -0.21644089 -0.21905725
0.32370886 -1.1950157 -1.0117935 -0.22111236 -0.55336726 -0.97952914 -0.46033624 -1.0883878
0.5093632 -0.85471725 -0.8789419 0.39113247 -0.5618465 0.07217635 -0.8108475 -0.0218584
0.024314933 -1.71157 0.1627245 -0.77574396 -0.5535967 0.5011972 0.3551299 -1.0914751
0.3679336 0.09214963 -0.7486175 -0.0047659795 -0.566779 -0.2943713 0.6079524 0.39776608
0.41799015 0.50778776 -0.16447143 -0.068124205 -0.51600015 0.29574862 -0.14764985 -0.24108861
0.3716569 0.42302692 -0.44560766 0.2532483 -0.5320963 0.18738526 0.378592 -1.1933715
-0.25474483 -1.9742824 0.50218356 -0.9562413 -0.2685923 -1.3930191 -1.5850165 -0.41907737
0.34780967 0.6699079 -1.5250801 -1.4166327 -1.2453384 -0.9741934 0.3973556 -0.35743716
0.22010581 -0.73423344 -0.065167904 0.18848628 -1.5657799 -1.1810976 -0.549834 -1.2634909
0.050845426 -1.233382 -0.21571322 -0.5669484 0.8009231 -0.65633583 -0.8070325 -0.49217862
-0.2571447 -0.63832027 -1.3880755 -0.71378434 -1.0720925 -0.085005604 -1.4493548 -0.8733732
0.08662147 0.3312786 -0.45963126 0.08158878 -0.17278899 -1.2279794 -1.3783318 0.1449011
-0.04119821 -0.22128701 -0.34079129 -1.1350197 -0.7620153 -0.15674175 -1.6416174 -0.5271506
0.72879463 0.62172127 -0.9118829 -1.6672155 -0.95740646 0.088548884 -0.5927872 -0.63984144
-0.3475513 -1.3839874 -0.5848922 -0.15888488 0.19794948 -0.20431308 -0.948103 -0.32349852
-0.40716714 0.62497234 -0.13151294 0.5208454 0.5111232 -0.032043185 -1.4244426 -0.045075174
0.17650938 -0.74669415 -0.04751504 0.66675055 -0.34875345 -0.51673996 0.32909906 -0.66053367
0.18774074 -0.7735517 -0.5136655 -0.7064791 0.2695882 0.42572364 -0.62822926 -0.8122063
0.1677506 -0.027308434 -0.04465744 -0.65918344 -1.1113389 -0.68455786 0.80813825 0.5968501
-1.6248561 0.15473911 0.7078558 -0.49048498 -0.1394448 -1.2665054 -1.328838 -0.9836809
0.5033123 -0.94823515 0.3496546 -1.857198 -0.033992697 -0.19558586 -0.0026496022 -1.5633333
-0.13252297 0.37433043 0.7413422 -0.4943352 0.015106382 0.31555498 -0.8633424 -1.0045385

fc2.bias f4 [27]
00000000: d1cd 3abe c94e 6cbf d73c d03d 8fab 34bf
00000010: 1e04 bd3e 776b 7a3c 5c36 85bf 3d44 74bf
00000020: f001 98bf 3dcb fcbe 55f9 f43e f2ff 133e
00000030: 5c21 803f d263 2e3f 1256 773f db6f 153e
00000040: c173 21c0 eb62 14c0 b589 303c 1fe3 573f
00000050: 7a69 0040 6c51 ab3f a26b 5f3f 0ea9 4c3f
00000060: 2344 9d3d f8cf 1e3f 3d7d 883e
-0.18242575 -0.92307717 0.10167854 -0.7057428 0.36917204 0.015284411 -1.0407214 -0.95416623
-1.1875591 -0.49373809 0.47846475 0.14453104 1.001018 0.68121064 0.9661571 0.1459345
-2.52269 -2.3185375 0.010775019 0.84330934 2.0064378 1.3384223 0.8727361 0.79945457
0.07679012 0.62036085 0.2665805
