ckpt/classifiers/rgb_epoch_36.pth (torch, 42168 bytes, 4 tensors)

fc1.weight f4 [64, 128]
00000000: facc bc3d 01ea 39bf 14f2 aa3c 67f3 abbe
00000010: b9c4 533e 3b87 233f 92c7 083f f758 e3be
00000020: 3ad8 523f 9fe7 febe f036 8a3f d1da 7ebf
00000030: 950b af3e 4214 643e 2fb6 49bf a042 23be
00000040: df8c f8be 726d 953f 9531 4dbf 3aae 91be
00000050: 87a8 513e 869c 5cbd 831e 6b3f 1e6a 03bf
00000060: 1152 bebf c034 6d3d 0340 813e 8dbf 933c
00000070: cac5 fe3e 1c45 93bf d1cd 7c3e dfcd 95be
00000080: de31 5f3e 129a cd3e f63f 3d3f d6e7 063f
00000090: 4f16 1a3e e13e a8bf 7c3b a73e fd4b 3e3f
000000a0: 5333 503e 2eed b33f eb3f 833f 900f 55bf
000000b0: ea4f a63e 8eb5 54bf ccb9 b5be fb83 193f
000000c0: 5de9 bd3d 89a2 21be d81e f03e fa04 573e
000000d0: ca31 0a3e ed46 993e 0c62 1c3f d80c 233f
000000e0: 1e30 99bf 194c c1bf 6c39 a2bd 29eb 063f
000000f0: a193 85bf 0cef 4f3d 3917 353f c700 9e3c
00000100: f6e2 09bf 9130 3b3f 1fd2 5dbe 94e4 acbd
00000110: f62c 823d 31d4 e3bd c01f b73e 7813 82bf
00000120: 66ae 4ebe 76f4 da3e db76 68bd 5aac 11bf
00000130: a57d 4dbd f0b8 b13e 2cee 7dbf aed1 f83e
00000140: 7623 36bf dd38 fd3e a08e 75bf 6d1b ad3e
00000150: 6f90 683d fe3f 97be 8ae7 1a3f 4c72 85bf
00000160: 4d4b 2f3f 34e1 873e 8f89 a03d 32dd 6abe
00000170: 491d 18bf f4c7 2d3e 74b3 dc3e 8a78 1e3f
00000180: 5f46 a9be 09ba 27bf 7805 b23d 3a7c 8fbf
00000190: 94ac 17bf daa2 d937 ee1f 7c3f cd90 bbbc
000001a0: 4d26 8ebe c531 3cbf d357 2cbf 1ade 84be
000001b0: 2af7 a1be 2c78 913f aa3a 59bf 1dc8 783f
000001c0: 203e dc3e 9d8c f63e 1221 583d e760 1dbf
000001d0: 5eba 723f 4feb 903f 6e0f 943f d348 963f
000001e0: 0317 58bf 9bc3 fbbd 5b01 9bbf fd8d 6d3f
000001f0: 80ce 07bf 628e 9ebd 712a 673f 6924 a2bf
00000200: cf2b 00bf d9a1 b0be b5c5 e43e d894 e2bd
00000210: c382 eb3d c22b 763f f2aa 3d3f ea99 22bd
00000220: b63d ea3e 8959 5bbe bbe6 f33e ddb6 0ebf
00000230: 5950 6e3f 76b0 9ebd 299b 40be 0ccd 88bf
00000240: db43 153f 3a9b 473f d2b0 5dbf ff97 93be
00000250: 92bb 2d3f 0694 663f aede bc3f 5fb9 dc3e
00000260: 687c 54bf 3296 293f 2544 0b3f c8ff 83bf
00000270: 223a 9a3e e854 07bf 708c c6be 7fe6 44bf
00000280: 17a5 783f e57a 8abf 41d1 2f3e d635 5f3e
00000290: 7165 19be 58b5 1d3e 7f15 01bf 01a7 6dbe
000002a0: aab7 3b3e ec12 923f e5b6 a23e a20f 8b3e
000002b0: b950 513f 341a c8bf 8699 5dbf a377 413e
000002c0: 4b65 01bf 39f2 b7be fa53 b23e a46c 50bf
000002d0: df29 f3be 9920 923e a825 b6bc 6f83 0fbf
000002e0: 7f29 b13e cf73 293f 1fb7 c8be 329c 42bf
000002f0: e8cc c7be 7ce1 253f 2054 2cbf ad3c 56be
00000300: 72b7 31bd 9686 993f 27fe 063e 332f 67be
00000310: c924 703d 3c5a 3fbe 33ea 7bbd 2ac2 57bf
00000320: f711 1840 8d9e 833e b7e1 12be 8ef8 46bf
00000330: 668c 503e 40a8 77be 2b06 6e3d 6845 2abd
00000340: 2ddd 4fbd a3d7 c0be 1236 883e 3c93 7dbe
00000350: 900e dd3e 6fc7 46bf 7a5d 67bd 972d 81bf
00000360: 2793 353f 4204 373f 9955 583f d2b4 233f
00000370: d653 51bf 7c72 9d3e 80af 023e 0af1 413f
00000380: 3dea 42be e672 9fbe 458b ff3e 4e39 373f
00000390: 8c3a 433e d00b c83f ee9e b63d 078b a6be
000003a0: 2419 9abe 444f 23bc 45c9 943e 32c0 30bf
000003b0: b3de 0fbf 8ff7 563f e447 7abf 4c71 01bf
000003c0: c18e 4a3f fc4b 57bf 3ec9 803e 9281 47be
000003d0: f18c ce3e 380a 743e c8a8 193f 43d8 e73e
000003e0: abfe 9abf 0ca3 753f 6799 8cbf 10ec 5b3f
000003f0: 76a7 06bf a7be 0cbd 4c0c 193d 99b3 cc3e
0.09218784 -0.72622687 0.020867385 -0.3358414 0.20680512 0.6387822 0.5342952 -0.44403812
0.82361186 -0.49786088 1.0798016 -0.9955264 0.34188524 0.22273353 -0.78793615 -0.15943384
-0.48544976 1.1674025 -0.8015378 -0.28453237 0.20474444 -0.05386021 0.9184343 -0.51333797
-1.4868795 0.057911634 0.2524415 0.018035674 0.49760276 -1.1505466 0.24687888 -0.2925863
0.21796367 0.4015661 0.7392572 0.52697504 0.15047573 -1.3144189 0.3266257 0.743347
0.20332079 1.4056756 1.0253881 -0.8322687 0.32482845 -0.8308953 -0.35493314 0.5996701
0.09273026 -0.15784658 0.46898532 0.20997992 0.13495556 0.29936925 0.6108711 0.63691473
-1.1967809 -1.5101348 -0.079211086 0.52702576 -1.0435678 0.050765082 0.7073856 0.01928748
-0.5386194 0.7312098 -0.21662186 -0.08442035 0.06356232 -0.11124457 0.3576641 -1.0162191
-0.20183715 0.42764634 -0.056753974 -0.5690361 -0.050168652 0.3471141 -0.99191546 0.48597473
-0.7114786 0.49457446 -0.95920753 0.33809987 0.056778368 -0.2954101 0.6050955 -1.0425506
0.68474275 0.26539004 0.07838737 -0.22935942 -0.59419686 0.16970807 0.43105662 0.6190268
-0.330615 -0.6551824 0.08692449 -1.1209786 -0.5924771 2.594425e-05 0.9848622 -0.022896195
-0.27763596 -0.7351344 -0.6732151 -0.259507 -0.31633884 1.1364799 -0.8485514 0.9718035
0.43016148 0.48154154 0.052765913 -0.61475986 0.94815624 1.132181 1.1567209 1.1740974
-0.84410113 -0.12293168 -1.2109789 0.9279478 -0.5304947 -0.07742001 0.90299135 -1.2667361
-0.50066847 -0.3449848 0.44682088 -0.11063546 0.1149955 0.9616052 0.74088967 -0.039697565
0.45750207 -0.21420874 0.4763697 -0.5574778 0.9309135 -0.07748501 -0.18809189 -1.0687575
0.58306664 0.7797123 -0.8659793 -0.288269 0.67864335 0.90069616 1.4755456 0.43110177
-0.8300233 0.66244805 0.54400855 -1.0312433 0.30122477 -0.5286393 -0.3877902 -0.7691421
0.9712691 -1.0818754 0.17169668 0.2179788 -0.14980103 0.15401208 -0.50423425 -0.23208238
0.18331781 1.1412024 0.31780162 0.27160364 0.817638 -1.5632997 -0.86562383 0.18893294
-0.50545186 -0.3592699 0.34829694 -0.8141577 -0.47492883 0.28540495 -0.022234753 -0.56059927
0.34601972 0.66192335 -0.3920221 -0.76019585 -0.3902352 0.64797187 -0.67315865 -0.20921583
-0.043387838 1.1994197 0.13182889 -0.22576599 0.05862883 -0.18686765 -0.061502647 -0.84280646
2.3760965 0.25706902 -0.14343916 -0.77723014 0.20366058 -0.24185276 0.05811135 -0.041570097
-0.05074804 -0.37664518 0.26603752 -0.24763197 0.43175173 -0.7764806 -0.05648563 -1.0092038
0.7092766 0.7149087 0.8450561 0.63947785 -0.8176855 0.30751407 0.1276226 0.7575842
-0.19034667 -0.31142348 0.49910942 0.71571815 0.19065303 1.5628605 0.08917032 -0.32527944
-0.30097306 -0.009967629 0.29059806 -0.69043267 -0.5619919 0.83971494 -0.97765946 -0.505635
0.79124075 -0.8410032 0.25153536 -0.19483021 0.40341905 0.23832023 0.60023165 0.45282182
-1.2108968 0.95951915 -1.0984315 0.8590708 -0.52599275 -0.034361508 0.037365243 0.39980772

fc1.bias f4 [64]
00000000: 28d6 47bf 54e8 b1bf d6f4 aebf 5687 e4bf
00000010: e857 ecbf a7bf a1bf bcbb 91bf c035 cbbf
00000020: f1ff 00c0 ada5 7abf 61a2 41bf 65eb 32bf
00000030: 5581 ccbf f8f5 79bf 46c2 91bf 8f0e a5bf
00000040: 8d39 9abf 6555 77bf 1072 84bf 620e c9bf
00000050: 52e8 8bbf 4be5 7ebf 9430 3dbf bb4d f1bf
00000060: 5128 6abf 1c08 acbf fe67 a2bf 8763 cdbf
00000070: dbe2 94bf aa9f 65bf 7531 c9bf 7477 b0bf
00000080: e3a0 d5bf e4ac 78bf abfc 9abf 803c 91bf
00000090: a8a5 8cbf 1d53 b8bf 2f67 b1bf faf4 90bf
000000a0: 165e 7bbf f604 c9bf 5b08 94bf ff91 d7bf
000000b0: 1454 c4be ec4a a2bf e2a6 42bf 917a b6bf
000000c0: 3197 b4bf b900 acbf f414 00c0 9150 b3bf
000000d0: bfef f7bf d817 e8bf 34db a6bf 8e3c 83bf
000000e0: 35f9 d1bf d98e f9bf cab5 8abf a2ec 81bf
000000f0: 9fdf bbbf 9a3f 9ebf 044c d5bf d462 9dbf
-0.7806115 -1.3899026 -1.3668468 -1.7853801 -1.8464327 -1.2636613 -1.1385417 -1.5875778
-2.0156214 -0.9790905 -0.75638396 -0.69890434 -1.5976969 -0.97640944 -1.1387413 -1.2895068
-1.2048813 -0.96614677 -1.0347309 -1.5707514 -1.0930274 -0.99568623 -0.7390225 -1.8851846
-0.9146777 -1.3439975 -1.2687986 -1.6045998 -1.1631731 -0.89696753 -1.5718218 -1.3786454
-1.6689724 -0.9713881 -1.2108358 -1.1346588 -1.0988054 -1.4400364 -1.3859614 -1.1324761
-0.9819044 -1.5704639 -1.156505 -1.684143 -0.38345397 -1.2679114 -0.7603589 -1.4256154
-1.410864 -1.343772 -2.0012789 -1.4008962 -1.937004 -1.8132277 -1.3035645 -1.0252855
-1.6404177 -1.9496719 -1.0836728 -1.015034 -1.4677619 -1.236316 -1.6663823 -1.2295785

fc2.weight f4 [27, 64]
00000000: c1f2 f3bd 2cab 59be 5b86 29bf 20ba 0a3d
00000010: e799 03be 87dc 143e 5222 e7be d082 75be
00000020: 0244 09bf d1b2 03bf d51b a13e 13ef dd3d
00000030: a876 eb3e a34c e3be ec50 68bf 0707 ddbe
00000040: 7336 a5be 67e1 23bf 23fa 6bbf 1022 713e
00000050: 56dc 863d a469 e9be a6e9 03bd 2133 dfbe
00000060: 0d2f 5ebd 924d 1fbf 6451 29bf d670 10bf
00000070: 2837 23bf eeb8 093d bab3 123f c796 e8bc
00000080: ee74 223f 670c 84be bc16 023f 97fb 10bc
00000090: cf7e d53e ef93 793e 91e5 b7bc b94a f5be
000000a0: fa46 48bf 48f2 033f 0594 4d3f 6746 443f
000000b0: 1ed1 44bf 2703 b6be 9b35 50bc dffc e2be
000000c0: bcc7 423f 0b7c 44bf 2443 c1be e81f 693e
000000d0: 6bca e7bd 005d ad3d 9203 b6be 1683 74bf
000000e0: b34d 213e 2780 003f c5a5 153f 69ef f43e
000000f0: 8440 d8be 8687 113e aae3 f7be 59ed a5be
00000100: 03e3 253f 8787 36bf 295c 95be 0020 853e
00000110: 07e9 853c 2846 b7bf e54f 1abf 566e 503f
00000120: 4944 8b3e 1a46 a93e 60ec 0ebf 7ec7 133e
00000130: 4aa2 0cbf e48b cbbf b14d 5dbe 0ccc 5fbe
00000140: 7cc9 a43e fae8 98bf 0782 81bf 7c44 62be
00000150: e7a6 0dbf 4dc0 7abf 66a2 ebbe 8d49 8bbf
00000160: 4d2e 023f 10c8 5abf 80e7 60bf dad8 c93e
00000170: adcf 0fbf bbd7 943d 7892 4fbf 1c35 a4bc
00000180: 4063 b13c c111 dbbf 9436 273e 6a95 46bf
00000190: d9ae 0dbf cb78 ff3e b1eb b53e bcad 8bbf
000001a0: 9a99 ba3e c2ae c43d 619b 3fbf c588 9bbb
000001b0: b24a 12bf 3037 96be 0d0e 1a3f c994 c83e
000001c0: 314c d23e 1a65 013f b16a 28be f540 9ebd
000001d0: 8c18 04bf fe5a 973e ed56 15be e0fc 75be
000001e0: e3a1 be3e 1553 da3e 279a e4be 248f 813e
000001f0: df2a 08bf f9e1 3f3e 50d7 c03e 06be 98bf
00000200: 67ba 81be e6b4 fcbf 9537 013f eacb 74bf
00000210: ee84 89be 4143 b2bf 6edb cabf 4173 d6be
00000220: 4fa4 b23e 3c1a 2f3f 49f5 c1bf c34d b5bf
00000230: 365b 9fbf 53dc 78bf 4f32 cc3e 7346 b6be
00000240: 258b 643e 5bbd 3bbf bb41 85bd 4286 423e
00000250: ef6a c8bf ed2b 97bf be45 0cbf 1d92 a1bf
00000260: 8a34 503d 70da 9dbf 615b 5bbe 18fb 10bf
00000270: 0d8e 4e3f 1f6f 27bf f093 4ebf 47e6 fbbe
00000280: d699 83be 5264 23bf 4fa7 b1bf e6b4 36bf
00000290: 4c14 89bf 4acc adbd c977 b9bf e07f 5fbf
000002a0: 55bd b23d cb2c ac3e 4b41 ebbe 058b a73d
000002b0: a76f 2fbe bf10 9dbf ff60 b0bf ff86 0f3e
000002c0: a56a 28bd ba1f 62be b57b aebe a447 91bf
000002d0: 7e12 43bf 3bb4 1fbe ec1b d2bf ccd0 06bf
000002e0: 4b51 3c3f b257 203f f560 69bf fd4c d5bf
000002f0: dc0e 75bf 1e59 b53d d4a3 16bf 3ac1 23bf
00000300: 87cd b1be 3225 b1bf a1ba 15bf d558 20be
00000310: 6db1 4a3e 5407 51be b6af 72bf b0f7 a2be
00000320: 0279 d0be ff99 203f 6e49 02be 79c6 053f
00000330: 8e1f 043f 654d f5bc 2e53 b6bf 25c0 37bd
00000340: 8c36 303e 09fe 3ebf 4cfe 41bd e67e 2c3f
00000350: 0c2a b3be 0c40 04bf 7802 ab3e f193 2abf
00000360: 51b6 433e 6805 46bf 2260 03bf d2d1 34bf
00000370: 7219 8d3e 56cd d83e 72cd 20bf 9a9b 4dbf
00000380: a751 2c3e a6b8 dbbc ed58 39bd 266e 28bf
00000390: 5130 8ebf 8f3d 2fbf 44ad 4e3f cd51 1b3f
000003a0: e4f1 cfbf 2d41 203e b66d 363f 6c12 fbbe
000003b0: 0118 0ebe 1e1a a2bf 80ba a8bf 6acc 7bbf
000003c0: 9bb9 003f 3d50 72bf 95e4 b53e 9eb8 edbf
000003d0: 3603 0bbd 3150 47be 1ebf 83bb c8fb c7bf
000003e0: 5b7d 05be 8c9f c03e 2569 3f3f e620 ffbe
000003f0: b10e 7b3c 7690 a13e d7f4 5cbf 7d94 80bf
-0.11911536 -0.21256703 -0.66220635 0.03386891 -0.12851678 0.1453725 -0.45143372 -0.23975682
-0.53619397 -0.5144473 0.31466547 0.108366154 0.45988965 -0.44394407 -0.90748477 -0.43169424
-0.32268104 -0.6401581 -0.92178553 0.2354815 0.065849945 -0.4558841 -0.032205246 -0.43593696
-0.05424409 -0.6222774 -0.6613982 -0.56422174 -0.63756037 0.03362363 0.5730549 -0.028392209
0.6345967 -0.25790712 0.5081594 -0.008849046 0.4169831 0.24372838 -0.022448333 -0.4790857
-0.782333 0.51541567 0.80303985 0.76669925 -0.7688159 -0.3554928 -0.012708093 -0.4433355
0.7608602 -0.76751775 -0.37746537 0.22766078 -0.11317905 0.08465004 -0.355496 -0.9551252
0.15752296 0.50195545 0.5845607 0.47838905 -0.42236722 0.14211854 -0.4841588 -0.32407644
0.6479952 -0.7130055 -0.29171875 0.26000977 0.016346468 -1.4318285 -0.6027816 0.8141836
0.27200535 0.33061296 -0.5582943 0.14431569 -0.54935133 -1.5902066 -0.21611668 -0.21855181
0.3218497 -1.1946099 -1.0117806 -0.22096437 -0.553328 -0.9794968 -0.46022338 -1.0881821
0.508519 -0.8546152 -0.8785324 0.39423257 -0.56176263 0.0726771 -0.8108287 -0.020044856
0.021653771 -1.7114793 0.16329414 -0.7757174 -0.5534492 0.49896845 0.3553138 -1.0912395
0.36445314 0.09603645 -0.74846464 -0.004746529 -0.57145226 -0.2933898 0.6017769 0.39176014
0.41073754 0.50544894 -0.1644695 -0.07727233 -0.51599956 0.2956161 -0.14583941 -0.24022245
0.37232885 0.42641512 -0.4464886 0.2530452 -0.53190416 0.18738545 0.3766427 -1.193299
-0.25337526 -1.9742706 0.50475436 -0.9562365 -0.2685923 -1.3926774 -1.5848215 -0.41884807
0.34890983 0.68399405 -1.515298 -1.4164356 -1.244971 -0.9721119 0.39882132 -0.35600623
0.22318704 -0.7333581 -0.06506678 0.18996528 -1.5657634 -1.181028 -0.5479392 -1.2622715
0.050831355 -1.2332287 -0.21421577 -0.5663314 0.806855 -0.6540393 -0.80694485 -0.49199125
-0.25703305 -0.6382495 -1.3879184 -0.7136978 -1.0709319 -0.08486231 -1.448968 -0.87304497
0.087275185 0.33627924 -0.45948252 0.08180813 -0.17132436 -1.2270736 -1.3779601 0.1401634
-0.04111733 -0.22082415 -0.34078756 -1.1349988 -0.7620009 -0.15596096 -1.6414771 -0.5266235
0.73561543 0.6263381 -0.9116357 -1.666412 -0.957258 0.088548884 -0.5884373 -0.63966715
-0.34727117 -1.3839476 -0.584879 -0.15658887 0.19794245 -0.20412952 -0.94799364 -0.31829596
-0.40717322 0.6273498 -0.12723324 0.5225597 0.5161065 -0.029944131 -1.4244134 -0.044860978
0.17208308 -0.74606377 -0.047361657 0.6738113 -0.34993017 -0.5166023 0.3340032 -0.6663199
0.19112517 -0.77352 -0.5131856 -0.7063266 0.27558476 0.4234416 -0.62813485 -0.80315554
0.16828023 -0.026821446 -0.04525082 -0.65793073 -1.1108495 -0.68453306 0.8073313 0.60671693
-1.6245694 0.15649863 0.71261156 -0.49037492 -0.13876344 -1.266422 -1.3181915 -0.98358786
0.5028321 -0.94653684 0.35525957 -1.8571966 -0.03393861 -0.19464184 -0.0040205857 -1.5623713
-0.130361 0.37621725 0.7476981 -0.49829787 0.015323327 0.31555527 -0.86311096 -1.0045315

fc2.bias f4 [27]
00000000: 2ea5 3bbe 663a 6dbf 1b23 d73d d18b 34bf
00000010: a7aa b73e dc30 3d3c 861a 84bf 4c68 72bf
00000020: a2cd 97bf da4f fcbe 8840 f63e 9fc4 153e
00000030: 7af2 7f3f fcd9 303f 2996 763f 857d 193e
00000040: cb0a 21c0 de21 14c0 64a2 043c a894 563f
00000050: 3b29 ff3f 060a ab3f 0c23 5f3f fe2e 4f3f
00000060: 996f 9f3d 293e 1b3f d049 8b3e
-0.1832473 -0.92667234 0.10504743 -0.7052584 0.35872385 0.0115472935 -1.0320594 -0.94690394
-1.1859629 -0.49279672 0.48096108 0.14625786 0.99979365 0.6908262 0.96322876 0.14989288
-2.5162838 -2.314567 0.008095358 0.8382058 1.9934458 1.3362434 0.8716285 0.8093108
0.077849574 0.60641724 0.27204752
