ckpt/classifiers/rgb_epoch_39.pth (torch, 42168 bytes, 4 tensors)

fc1.weight f4 [64, 128]
0.09451573 -0.7246744 0.022059774 -0.33856776 0.20595954 0.6380155 0.5337532 -0.44661897
0.8262101 -0.5003609 1.0801215 -0.9965832 0.3408829 0.22382197 -0.7873712 -0.16066422
-0.4868176 1.1648614 -0.7995006 -0.2826993 0.2054043 -0.052465677 0.9198246 -0.51572555
-1.4850026 0.05895329 0.25219643 0.016332623 0.49422732 -1.1496955 0.24636915 -0.29061756
0.21914156 0.39931142 0.7404936 0.5257028 0.15017965 -1.3137387 0.3229566 0.7403648
0.20447546 1.4084598 1.0234035 -0.8313077 0.32537767 -0.83046603 -0.35570398 0.6007484
0.09206993 -0.16042109 0.4709999 0.20810325 0.13162819 0.30138785 0.61117506 0.63838637
-1.198573 -1.509094 -0.07938612 0.52369434 -1.0412045 0.052217297 0.7097373 0.01970387
-0.5378168 0.7337071 -0.21408813 -0.08243209 0.06328693 -0.10923447 0.35651326 -1.0180495
-0.19982736 0.42644492 -0.059215024 -0.5712199 -0.050200626 0.3460499 -0.99564826 0.48833647
-0.710591 0.4937142 -0.9569998 0.33898997 0.055043396 -0.29353967 0.6064274 -1.0416579
0.6862948 0.26612768 0.080132276 -0.23226868 -0.5941063 0.16784786 0.42927262 0.6197359
-0.33047906 -0.6558085 0.08574665 -1.1241901 -0.59467125 0.00034008722 0.9875416 -0.022790527
-0.2806251 -0.73586947 -0.6730233 -0.25748098 -0.31435725 1.1353644 -0.8482134 0.97136587
0.42825744 0.48120567 0.054209393 -0.6132241 0.9455089 1.1343751 1.1547501 1.1763166
-0.8422074 -0.121348396 -1.2122883 0.92858624 -0.5291132 -0.07682539 0.9022164 -1.2650967
-0.49919477 -0.34321782 0.44756177 -0.11299899 0.11227642 0.9636547 0.7395297 -0.04089378
0.45925897 -0.21655604 0.47642088 -0.5570385 0.9301334 -0.076750904 -0.18640603 -1.0711749
0.5812946 0.7823065 -0.8640485 -0.28884462 0.6791418 0.90052164 1.4764014 0.4315437
-0.82771146 0.662158 0.5425172 -1.0336548 0.30154112 -0.52588564 -0.39143115 -0.7701248
0.97058403 -1.0832661 0.17043366 0.21807817 -0.1483775 0.15316528 -0.50526893 -0.23186633
0.1819356 1.141742 0.3170478 0.2715627 0.8191789 -1.5649549 -0.86816037 0.18994276
-0.5059649 -0.35948128 0.34961665 -0.81321245 -0.4739416 0.28747672 -0.024263788 -0.5583388
0.34512943 0.66288906 -0.39436695 -0.7610835 -0.38737518 0.6503514 -0.6709832 -0.20839521
-0.042455576 1.2004752 0.13095008 -0.22413857 0.058183774 -0.18521321 -0.064047314 -0.84344727
2.3772063 0.25415894 -0.14437738 -0.7779847 0.20270127 -0.24189171 0.056667794 -0.042836014
-0.05067776 -0.37733567 0.2665472 -0.24821296 0.43122354 -0.77810645 -0.055616815 -1.0107101
0.7100919 0.7134169 0.8438732 0.63652205 -0.8154837 0.3064341 0.12791458 0.7563807
-0.191031 -0.31241953 0.49596196 0.7123922 0.19250959 1.5653532 0.09115435 -0.32407972
-0.30200994 -0.010472039 0.29107276 -0.6888227 -0.55882466 0.8376501 -0.97811306 -0.505924
0.7898041 -0.84297466 0.2517816 -0.190972 0.40278557 0.23889181 0.6002552 0.453427
-1.2119364 0.96007967 -1.102443 0.8576434 -0.5251118 -0.031785894 0.037389845 0.39949468
00000000: 7791 c13d 4384 39bf b3b6 b43c c158 adbe
00000010: 0fe7 523e fc54 233f 0da4 083f 3eab e4be
00000020: 8182 533f a717 00bf 6c41 8a3f 1420 7fbf
00000030: 3488 ae3e 9631 653e 2991 49bf 2985 24be
00000040: 2840 f9be 2e1a 953f 12ac 4cbf f6bd 90be
00000050: 8155 523e 40e6 56bd a079 6b3f 9706 04bf
00000060: 9114 bebf 0179 713d e41f 813e fecb 853c
00000070: 5d0b fd3e 3929 93bf 3248 7c3e d3cb 94be
00000080: a566 603e 8c72 cc3e fd90 3d3f 7594 063f
00000090: b2c8 193e 9728 a8bf 915a a53e 8c88 3d3f
000000a0: 0462 513e 6948 b43f e3fe 823f 95d0 54bf
000000b0: e797 a63e 6c99 54bf d51e b6be a6ca 193f
000000c0: 298f bc3d 6d45 24be e626 f13e 0519 553e
000000d0: 8ac9 063e 824f 9a3e f875 1c3f 4a6d 233f
000000e0: d76a 99bf fe29 c1bf 3195 a2bd d510 063f
000000f0: 3046 85bf cee1 553d 58b1 353f 036a a13c
00000100: 5dae 09bf 3ad4 3b3f eb39 5bbe 28d2 a8bd
00000110: 949c 813d 52b6 dfbd e888 b63e 724f 82bf
00000120: 8b9f 4cbe fd56 da3e 748b 72bd 783b 12bf
00000130: 2c9f 4dbd 742d b13e cee2 7ebf 3d07 fa3e
00000140: 4be9 35bf 1cc8 fc3e f0fd 74bf 1890 ad3e
00000150: 2f75 613d d54a 96be d33e 1b3f 0c55 85bf
00000160: 04b1 2f3f e341 883e 641c a43d d7d7 6dbe
00000170: 5a17 18bf 4fe0 2b3e 9fc9 db3e 03a7 1e3f
00000180: 8d34 a9be 11e3 27bf f19b af3d 76e5 8fbf
00000190: 603c 18bf bc4d b239 87cf 7c3f 33b3 babc
000001a0: 18ae 8fbe f161 3cbf 414b 2cbf 8cd4 83be
000001b0: 6ff3 a0be 9f53 913f 8324 59bf 6fab 783f
000001c0: 8f44 db3e 9760 f63e ab0a 5e3d 41fc 1cbf
000001d0: df0c 723f 3433 913f dace 933f 8b91 963f
000001e0: e79a 57bf 8285 f8bd 432c 9bbf d4b7 6d3f
000001f0: f673 07bf a156 9dbd a7f7 663f b0ee a1bf
00000200: 7596 ffbe 3fba afbe d126 e53e 046c e7bd
00000210: 2ef1 e53d 13b2 763f d251 3d3f 3c80 27bd
00000220: fe23 eb3e dec0 5dbe 70ed f33e 139a 0ebf
00000230: 391d 6e3f 942f 9dbd 39e1 3ebe 421c 89bf
00000240: b9cf 143f 3d45 483f 4832 5dbf 71e3 93be
00000250: 3ddc 2d3f 9688 663f b9fa bc3f 4cf3 dc3e
00000260: e6e4 53bf 3083 293f 68e2 0a3f cd4e 84bf
00000270: 9963 9a3e 71a0 06bf aa69 c8be e626 45bf
00000280: 3278 783f 77a8 8abf 2986 2e3e e24f 5f3e
00000290: 45f0 17be 5cd7 1c3e 4e59 01bf 5e6e 6dbe
000002a0: 534d 3a3e 9a24 923f 1754 a23e 440a 8b3e
000002b0: b5b5 513f 7150 c8bf c23f 5ebf 5b80 423e
000002c0: ea86 01bf ee0d b8be f400 b33e b12e 50bf
000002d0: 79a8 f2be 2630 933e dac4 c6bc 4bef 0ebf
000002e0: ceb4 b03e 19b3 293f 77ea c9be 5ed6 42bf
000002f0: 0a56 c6be 6e7d 263f 8ec5 2bbf 8e65 55be
00000300: e6e5 2dbd 2ca9 993f c717 063e 9584 65be
00000310: 1c52 6e3d 88a8 3dbe 3d2b 83bd 29ec 57bf
00000320: 2624 1840 1f21 823e aad7 13be 012a 47bf
00000330: ec90 4f3e 76b2 77be 7d1c 683d d174 2fbd
00000340: 7c93 4fbd 2432 c1be e078 883e 8a2b 7ebe
00000350: 55c9 dc3e fc31 47bf 75ce 63bd f35e 81bf
00000360: 95c8 353f 7da2 363f 1308 583f 1cf3 223f
00000370: 8ac3 50bf eee4 9c3e 0afc 023e 2aa2 413f
00000380: a19d 43be 74f5 9fbe baee fd3e 565f 363f
00000390: 3c21 453e 7e5d c83f 22af ba3d c7ed a5be
000003a0: 0ca1 9abe ea92 2bbc 7d07 953e af56 30bf
000003b0: 220f 0fbf 3d70 563f 9e65 7abf 3c84 01bf
000003c0: 9a30 4a3f 30cd 57bf 85e9 803e 2a8e 43be
000003d0: e939 ce3e 0ea0 743e 53aa 193f 9527 e83e
000003e0: bb20 9bbf c8c7 753f da1c 8dbf 858e 5b3f
000003f0: ba6d 06bf ed31 02bd 1826 193d 918a cc3e

fc1.bias f4 [64]
-0.7814758 -1.3881797 -1.3664825 -1.7878623 -1.8464265 -1.2627655 -1.1370285 -1.5864469
-2.0155475 -0.97849655 -0.7559356 -0.69831973 -1.5955997 -0.97675055 -1.1385326 -1.2873683
-1.2031314 -0.9649383 -1.0345074 -1.5687163 -1.094823 -0.9947987 -0.73550767 -1.8892233
-0.9146112 -1.3427315 -1.2674558 -1.6025083 -1.1608746 -0.89591485 -1.5671266 -1.3755438
-1.6692626 -0.97162825 -1.2106339 -1.132554 -1.0965346 -1.4423127 -1.3839828 -1.1324397
-0.98087454 -1.5698581 -1.157281 -1.6840006 -0.3800648 -1.2670376 -0.76056516 -1.4258988
-1.4112792 -1.3440881 -2.0020056 -1.3982855 -1.9369036 -1.8124924 -1.3015486 -1.0227585
-1.6392003 -1.9490275 -1.0827173 -1.0141871 -1.467636 -1.2363037 -1.6663266 -1.2273991
00000000: cc0e 48bf dfaf b1bf e6e8 aebf acd8 e4bf
00000010: b457 ecbf 4da2 a1bf 268a 91bf b110 cbbf
00000020: bbfe 00c0 c07e 7abf ff84 41bf 15c5 32bf
00000030: 9c3c ccbf 530c 7abf 70bb 91bf 7cc8 a4bf
00000040: 3600 9abf 3206 77bf bd6a 84bf b2cb c8bf
00000050: 2923 8cbf 21ab 7ebf 3b4a 3cbf 12d2 f1bf
00000060: f623 6abf a0de abbf fe3b a2bf fe1e cdbf
00000070: 8a97 94bf ad5a 65bf 9b97 c8bf d211 b0bf
00000080: 66aa d5bf a1bc 78bf 0df6 9abf 88f7 90bf
00000090: 3f5b 8cbf b49d b8bf 5926 b1bf c9f3 90bf
000000a0: 981a 7bbf 1cf1 c8bf c921 94bf 558d d7bf
000000b0: da97 c2be 4a2e a2bf 66b4 42bf da83 b6bf
000000c0: cca4 b4bf 140b acbf dc20 00c0 05fb b2bf
000000d0: 75ec f7bf c0ff e7bf 2599 a6bf c0e9 82bf
000000e0: 51d1 d1bf bc79 f9bf 7b96 8abf e2d0 81bf
000000f0: 7fdb bbbf 333f 9ebf 314a d5bf 6a1b 9dbf

fc2.weight f4 [27, 64]
-0.11915544 -0.21257703 -0.6622191 0.03150841 -0.12851678 0.14409477 -0.4509378 -0.23980878
-0.53619397 -0.514756 0.31553924 0.11222685 0.4604368 -0.4441189 -0.9075205 -0.43171838
-0.32361314 -0.6403322 -0.9217977 0.23517483 0.0658438 -0.45591873 -0.03300249 -0.43674707
-0.054594126 -0.6223192 -0.66145617 -0.5644019 -0.6375899 0.03170937 0.5766198 -0.022994403
0.63529676 -0.2580203 0.50744116 -0.008046142 0.41787633 0.2433812 -0.022604596 -0.47918436
-0.7824382 0.5166694 0.80245894 0.7670962 -0.76878476 -0.35553074 -0.013369565 -0.44349945
0.7606934 -0.76753014 -0.37750113 0.2292986 -0.113179184 0.08403503 -0.35589725 -0.95524454
0.15739089 0.50109494 0.5882397 0.48079845 -0.4223988 0.1424034 -0.48427802 -0.32416007
0.6452147 -0.71339 -0.2917619 0.25996885 0.016427545 -1.4318686 -0.60279745 0.8139163
0.27200535 0.33048528 -0.558402 0.14420705 -0.54947597 -1.590315 -0.21626681 -0.21873212
0.32276422 -1.1946882 -1.011785 -0.22101294 -0.55334675 -0.9795055 -0.46026078 -1.0882292
0.5079104 -0.85466397 -0.8786643 0.39158118 -0.5617829 0.072485216 -0.81083673 -0.020806283
0.021750722 -1.7115158 0.16305305 -0.7757335 -0.5534914 0.4998962 0.35523763 -1.0912794
0.3630571 0.094750874 -0.7484666 -0.004751684 -0.5684717 -0.29370975 0.60298413 0.39310697
0.4131434 0.50568783 -0.16446988 -0.07491347 -0.51599956 0.2952594 -0.14650075 -0.24023412
0.3731237 0.42491132 -0.44650802 0.25419244 -0.53199077 0.18738526 0.37673223 -1.1933105
-0.25379184 -1.9742723 0.5036996 -0.95624006 -0.2685923 -1.3928782 -1.5848756 -0.41892913
0.34890983 0.6823675 -1.5154433 -1.4164627 -1.245202 -0.97221446 0.39819196 -0.35630453
0.2223892 -0.73381054 -0.0651059 0.18905702 -1.5657763 -1.1810669 -0.54819936 -1.262486
0.050643194 -1.2333254 -0.21478093 -0.56647134 0.80560815 -0.654417 -0.8069598 -0.49208054
-0.25703642 -0.63827515 -1.3879544 -0.71373814 -1.0710475 -0.08493943 -1.4490763 -0.8730747
0.086694516 0.33423197 -0.459586 0.08170374 -0.17139594 -1.2271914 -1.3781084 0.14143385
-0.041145567 -0.22091134 -0.34078917 -1.1349996 -0.7620009 -0.15663134 -1.641521 -0.5267591
0.7339082 0.62532455 -0.9116654 -1.6666619 -0.95731837 0.088548884 -0.58867687 -0.63967216
-0.34740382 -1.3839726 -0.58488387 -0.15834497 0.19794278 -0.20419714 -0.9480339 -0.32237607
-0.4071915 0.6281482 -0.13117151 0.52221644 0.5133839 -0.030275764 -1.4244186 -0.04494098
0.17362098 -0.74617696 -0.047404863 0.6704535 -0.3488678 -0.51664126 0.33080125 -0.6637532
0.18930459 -0.77353257 -0.5133948 -0.7063735 0.27379823 0.42558438 -0.6281711 -0.8089496
0.16846256 -0.026906854 -0.04569998 -0.65858203 -1.1108539 -0.6845424 0.80743265 0.6010038
-1.6246156 0.15635084 0.7133776 -0.49043265 -0.13899559 -1.2664447 -1.3200729 -0.9836118
0.50245386 -0.9478198 0.35105804 -1.8571966 -0.033992197 -0.19466889 -0.0037866696 -1.5625765
-0.13247047 0.3766806 0.7460065 -0.49726388 0.015256607 0.31555519 -0.8631789 -1.0045003
00000000: c407 f4bd cbad 59be 3187 29bf f60e 013d
00000010: e799 03be 948d 133e 52e1 e6be 6f90 75be
00000020: 0244 09bf 0dc7 03bf 5c8e a13e 31d7 e53d
00000030: 5fbe eb3e 8d63 e3be 4353 68bf 310a ddbe
00000040: 9fb0 a5be d0ec 23bf effa 6bbf acd1 703e
00000050: 1dd9 863d 2e6e e9be 9e2d 07bd 509d dfbe
00000060: 179e 5fbd 5050 1fbf 3155 29bf a57c 10bf
00000070: 1739 23bf afe1 013d 5b9d 133f c25e bcbc
00000080: cfa2 223f 3d1b 84be aae7 013f f7d3 03bc
00000090: e3f3 d53e ec38 793e 462d b9bc a757 f5be
000000a0: df4d 48bf 7244 043f f36d 4d3f 6b60 443f
000000b0: 14cf 44bf 2008 b6be 050c 5bbc 5c12 e3be
000000c0: cdbc 423f db7c 44bf d447 c1be 41cd 6a3e
000000d0: 7dca e7bd 8f1a ac3d 2a38 b6be e88a 74bf
000000e0: 142b 213e c247 003f e196 163f 372b f63e
000000f0: a844 d8be 32d2 113e 4af3 f7be 4ff8 a5be
00000100: ca2c 253f baa0 36bf d161 95be a31a 853e
00000110: 0f93 863c 7847 b7bf ef50 1abf d25c 503f
00000120: 4944 8b3e 5e35 a93e 6ff3 0ebf 03ab 133e
00000130: 75aa 0cbf 718f cbbf 0c75 5dbe 50fb 5fbe
00000140: 5a41 a53e 8beb 98bf 2c82 81bf 3751 62be
00000150: 22a8 0dbf dfc0 7abf 4da7 ebbe 184b 8bbf
00000160: 6a06 023f 42cb 5abf 25f0 60bf 547d c83e
00000170: 01d1 0fbf 2173 943d ff92 4fbf f071 aabc
00000180: 922e b23c f312 dbbf 61f7 263e 7896 46bf
00000190: 9db1 0dbf 65f2 ff3e b5e1 b53e 0baf 8bbf
000001a0: 9fe2 b93e bf0c c23d 829b 3fbf 04b4 9bbb
000001b0: 5d87 11bf 2061 96be 2b5d 1a3f 5145 c93e
000001c0: 8887 d33e c274 013f cb6a 28be 3c6c 99bd
000001d0: 8c18 04bf 3d2c 973e 4b04 16be efff 75be
000001e0: 120a bf3e fa8d d93e b39c e4be 8325 823e
000001f0: 8c30 08bf ece1 3f3e 0ce3 c03e 66be 98bf
00000200: 01f1 81be f4b4 fcbf 75f2 003f 26cc 74bf
00000210: ee84 89be d549 b2bf 34dd cabf e17d d6be
00000220: 4fa4 b23e a3af 2e3f 0cfa c1bf a64e b5bf
00000230: c762 9fbf 0ce3 78bf d1df cb3e 8c6d b6be
00000240: ffb9 633e 02db 3bbf 3e56 85bd 2a98 413e
00000250: 5c6b c8bf 332d 97bf cb56 0cbf 2499 a1bf
00000260: 3d6f 4f3d 9bdd 9dbf 88ef 5bbe 4404 11bf
00000270: 563c 4e3f df87 27bf eb94 4ebf fbf1 fbbe
00000280: 479a 83be 0066 23bf 7da8 b1bf 8bb7 36bf
00000290: 1618 89bf b9f4 adbd 557b b9bf d381 5fbf
000002a0: e58c b13d 7420 ab3e db4e ebbe 4a54 a73d
000002b0: 6b82 2fbe 9c14 9dbf db65 b0bf 09d4 103e
000002c0: 4188 28bd 9536 62be eb7b aebe ab47 91bf
000002d0: 7e12 43bf f763 20be 5c1d d2bf afd9 06bf
000002e0: 68e1 3b3f 4515 203f e762 69bf 2d55 d5bf
000002f0: d112 75bf 1e59 b53d 87b3 16bf 8ec1 23bf
00000300: eade b1be 0426 b1bf f3ba 15bf 2f25 22be
00000310: 83b1 4a3e 0e19 51be 5ab2 72bf 7a0e a5be
00000320: 677b d0be 52ce 203f d351 06be faaf 053f
00000330: 216d 033f e104 f8bc 5953 b6bf 0814 38bd
00000340: b3c9 313e 7405 3fbf 9a2b 42bd d7a2 2b3f
00000350: cd9e b2be 9a42 04bf c85e a93e bbeb 29bf
00000360: 10d9 413e 3b06 46bf d76d 03bf e5d4 34bf
00000370: 482f 8c3e 32e6 d93e d2cf 20bf 5217 4fbf
00000380: 7381 2c3e c36b dcbc e72f 3bbd d598 28bf
00000390: 7630 8ebf 2c3e 2fbf e8b3 4e3f 63db 193f
000003a0: 67f3 cfbf 6f1a 203e ea9f 363f fd19 fbbe
000003b0: dc54 0ebe dc1a a2bf 26f8 a8bf fccd 7bbf
000003c0: d1a0 003f 52a4 72bf e1bd b33e 9eb8 edbf
000003d0: 673b 0bbd 4857 47be c629 78bb 8202 c8bf
000003e0: 57a6 07be 48dc c03e 48fa 3e3f 5f99 febe
000003f0: d9f6 793c 7390 a13e 4bf9 5cbf 7793 80bf

fc2.bias f4 [27]
-0.18282226 -0.9268406 0.104134426 -0.70572054 0.3628953 0.013969251 -1.0345408 -0.949127
-1.1863266 -0.49276948 0.48154137 0.14536917 1.0004904 0.68805397 0.96346265 0.1471964
-2.5189598 -2.3142543 0.009560691 0.83957577 1.9952977 1.3370211 0.8737472 0.80538744
0.077052906 0.610374 0.26965988
00000000: c235 3bbe 6d45 6dbf 6e44 d53d 1aaa 34bf
00000010: 6acd b93e 49df 643c d56b 84bf fdf9 72bf
00000020: 8dd9 97bf 484c fcbe 978c f63e a8db 143e
00000030: 1210 803f 4e24 303f 7da5 763f a7ba 163e
00000040: a336 21c0 be1c 14c0 72a4 1c3c 70ee 563f
00000050: ea65 ff3f 8223 ab3f e6ad 5f3f df2d 4e3f
00000060: eacd 9d3d 7841 1c3f dc10 8a3e
