ckpt/classifiers/rgb_epoch_60.pth (torch, 42168 bytes, 4 tensors)

fc1.weight f4 [64, 128]
0.097837254 -0.7270179 0.022960035 -0.3427538 0.20568366 0.6404171 0.5321037 -0.4493019
0.8322014 -0.5029428 1.083779 -1.0032052 0.33733383 0.22889192 -0.7858343 -0.15748307
-0.48819178 1.1626158 -0.7950761 -0.27849486 0.20891608 -0.04679225 0.9240076 -0.5179295
-1.4816351 0.06361909 0.25343424 0.011157552 0.48918238 -1.151029 0.24222888 -0.29094717
0.21942145 0.39309633 0.7384935 0.5249191 0.1486288 -1.3087556 0.3155218 0.738144
0.20162487 1.4128903 1.0229428 -0.83209574 0.32252637 -0.83435297 -0.35911202 0.60339016
0.09039325 -0.16490234 0.4777628 0.2071385 0.12807174 0.30941305 0.60635823 0.6429945
-1.196375 -1.5076008 -0.075535744 0.52006745 -1.0377203 0.05917125 0.71355414 0.024261104
-0.5347034 0.73422164 -0.21053831 -0.08228662 0.057504464 -0.10031101 0.3484415 -1.0191008
-0.20114534 0.41959313 -0.060380843 -0.5786719 -0.05194968 0.33892116 -1.0021635 0.49586686
-0.71105355 0.49754718 -0.95725286 0.33976966 0.05286795 -0.29470775 0.61453795 -1.0454516
0.6921594 0.26521233 0.08551312 -0.23709863 -0.5941712 0.16783199 0.42800456 0.6230788
-0.32837504 -0.65108746 0.08110847 -1.1316292 -0.5949871 0.0008368144 0.99075204 -0.026335653
-0.2822144 -0.7400456 -0.6713441 -0.25639552 -0.31154308 1.1288369 -0.85115886 0.97019535
0.42323008 0.47696748 0.05510453 -0.6114896 0.9405558 1.1410365 1.1544602 1.1841626
-0.835242 -0.122290865 -1.2145469 0.92845035 -0.53232205 -0.07889623 0.9007243 -1.2627814
-0.49936748 -0.34062922 0.44745615 -0.11592539 0.11070263 0.9629486 0.7404919 -0.040301338
0.458696 -0.21914528 0.4788315 -0.55574363 0.9291959 -0.076501146 -0.18596467 -1.0736139
0.5814246 0.7848108 -0.86602575 -0.2930495 0.6786472 0.89884806 1.4775025 0.43454492
-0.82582366 0.662471 0.54114443 -1.0359976 0.3051843 -0.52344835 -0.39577022 -0.7724059
0.96894175 -1.082602 0.17014697 0.21909332 -0.14723381 0.15209761 -0.50580657 -0.23089415
0.17893568 1.1402564 0.31738198 0.27453512 0.82106197 -1.5679115 -0.8686809 0.18981534
-0.5036667 -0.35834384 0.35283738 -0.81407815 -0.47213545 0.28601354 -0.025806993 -0.5563062
0.3448284 0.66068226 -0.39451385 -0.76085883 -0.38646585 0.6529773 -0.6690478 -0.20871557
-0.044441868 1.201599 0.12955444 -0.2227275 0.056447048 -0.18521148 -0.06471468 -0.8426702
2.378053 0.25229108 -0.14508289 -0.77789235 0.20118204 -0.23918843 0.055358015 -0.044167984
-0.05081417 -0.3776489 0.26507697 -0.25047895 0.43380982 -0.7780242 -0.05550634 -1.0094496
0.7089465 0.71473855 0.8411007 0.6360904 -0.8132872 0.3082714 0.1280828 0.7547128
-0.19056618 -0.3146415 0.49563769 0.7095171 0.19431512 1.5677115 0.09229315 -0.32221335
-0.30276707 -0.009254684 0.29083875 -0.6894888 -0.5579074 0.83683 -0.9779129 -0.50679946
0.790329 -0.8438321 0.2509588 -0.18893163 0.40381783 0.23848684 0.6013365 0.45144224
-1.2129306 0.95860857 -1.1052538 0.8566607 -0.52515024 -0.02932051 0.039510157 0.3972229
00000000: e65e c83d d81d 3abf af16 bc3c 6d7d afbe
00000010: bd9e 523e 60f2 233f f337 083f e60a e6be
00000020: 270b 553f dcc0 00bf 45b9 8a3f 0769 80bf
00000030: 05b7 ac3e a562 6a3e 702c 49bf 3e43 21be
00000040: 46f4 f9be 98d0 943f 1b8a 4bbf e196 8ebe
00000050: 19ee 553e 3ba9 3fbd c38b 6c3f 0797 04bf
00000060: 38a6 bdbf ba4a 823d 22c2 813e 2ace 363c
00000070: 1d76 fa3e eb54 93bf d90a 783e 07f7 94be
00000080: 04b0 603e ec43 c93e e90d 3d3f 1961 063f
00000090: 2632 183e 4e85 a7bf 138c a13e 01f7 3c3f
000000a0: c076 4e3e 97d9 b43f caef 823f 3a04 55bf
000000b0: 2d22 a53e 2898 55bf 88dd b7be c777 1a3f
000000c0: 1920 b93d 29dc 28be 539d f43e 1d1c 543e
000000d0: 3d25 033e 636b 9e3e 4b3a 1b3f 4a9b 243f
000000e0: d122 99bf 10f9 c0bf 7cb2 9abd 2423 053f
000000f0: 05d4 84bf 8d5d 723d 7cab 363f 39bf c63c
00000100: 52e2 08bf f3f5 3b3f 5b97 57be e385 a8bd
00000110: cd89 6b3d dc6f cdbd ed66 b23e e571 82bf
00000120: 0bf9 4dbe e9d4 d63e e751 77bd d723 14bf
00000130: 30c9 54bd 1387 ad3e e546 80bf 43e2 fd3e
00000140: 9b07 36bf 81be fe3e 860e 75bf 4af6 ad3e
00000150: 108c 583d efe3 96be 5c52 1d3f 5cd1 85bf
00000160: 5c31 313f e9c9 873e 8121 af3d fcc9 72be
00000170: 9b1b 18bf 26dc 2b3e 6a23 db3e 1882 1f3f
00000180: c620 a8be abad 26bf 331c a63d 3ad9 90bf
00000190: 1351 18bf aa5d 5b3a eda1 7d3f debd d7bc
000001a0: 687e 90be a173 3dbf 35dd 2bbf 4646 83be
000001b0: 9382 9fbe ba7d 903f 8ce5 59bf b95e 783f
000001c0: 9db1 d83e 1535 f43e 4ab5 613d 958a 1cbf
000001d0: 44c8 703f 7c0d 923f 5ac5 933f a492 973f
000001e0: 6bd2 55bf a273 fabd 4676 9bbf ecae 6d3f
000001f0: 4246 08bf 5994 a1bd de95 663f d2a2 a1bf
00000200: 18ad ffbe f466 aebe f918 e53e 4a6a edbd
00000210: 0fb8 e23d cd83 763f e190 3d3f 0413 25bd
00000220: 34da ea3e 9f67 60be 6729 f53e 3745 0ebf
00000230: c8df 6d3f a2ac 9cbd 866d 3ebe 2e6c 89bf
00000240: 3ed8 143f 5ce9 483f ddb3 5dbf 960a 96be
00000250: d3bb 2d3f e81a 663f cd1e bd3f ac7c de3e
00000260: 2e69 53bf b397 293f 7188 0a3f 929b 84bf
00000270: 1e41 9c3e b600 06bf 65a2 cabe 65bc 45bf
00000280: 910c 783f b492 8abf 023b 2e3e 005a 603e
00000290: 76c4 16be 7abf 1b3e 8a7c 01bf 846f 6cbe
000002a0: ea3a 373e ecf3 913f e47f a23e de8f 8c3e
000002b0: 1e31 523f 53b1 c8bf df61 5ebf f45e 423e
000002c0: 4df0 00bf d878 b7be 1aa7 b43e 6d67 50bf
000002d0: bdbb f1be 5e70 923e 3069 d3bc 156a 0ebf
000002e0: 598d b03e 7922 293f b8fd c9be a5c7 42bf
000002f0: dade c5be 8529 273f b746 2bbf 89b9 55be
00000300: ad08 36bd ffcd 993f eba9 043e ae12 64be
00000310: 0535 673d 14a8 3dbe 2189 84bd 3cb9 57bf
00000320: 0532 1840 4c2c 813e 9c90 14be f423 47bf
00000330: aa02 4e3e d0ed 74be 16bf 623d 7de9 34bd
00000340: 8522 50bd 325b c1be 2bb8 873e c73e 80be
00000350: 521c de3e 982c 47bf 9e5a 63bd a535 81bf
00000360: 857d 353f 1bf9 363f 6052 573f d2d6 223f
00000370: 9733 50bf c0d5 9d3e 2328 033e dc34 413f
00000380: c823 43be b118 a1be 39c4 fd3e eaa2 353f
00000390: 8bfa 463e c5aa c83f 3104 bd3d 26f9 a4be
000003a0: 4904 9bbe f5a0 17bc d1e8 943e 5782 30bf
000003b0: 05d3 0ebf 7e3a 563f 8058 7abf 9cbd 01bf
000003c0: 0053 4a3f 6105 58bf ac7d 803e 4b77 41be
000003d0: 36c1 ce3e e535 743e 30f1 193f 7023 e73e
000003e0: 4f41 9bbf 5f67 753f f578 8dbf 1e4e 5b3f
000003f0: 3f70 06bf 9131 f0bc 67d5 213d cd60 cb3e

fc1.bias f4 [64]
-0.77755994 -1.38645 -1.3653826 -1.790332 -1.8462234 -1.2560515 -1.1358662 -1.5765748
-2.0148027 -0.97876734 -0.7569134 -0.6969333 -1.591321 -0.96952367 -1.1358043 -1.2753358
-1.2000889 -0.9655423 -1.0352769 -1.5652249 -1.1032703 -0.99195564 -0.7319436 -1.8944075
-0.91085786 -1.339844 -1.2614496 -1.5970917 -1.1594843 -0.8946224 -1.5600884 -1.3713999
-1.6675813 -0.9685665 -1.2080399 -1.125273 -1.090508 -1.4434011 -1.3821656 -1.1332008
-0.97666144 -1.5677744 -1.1568294 -1.6841307 -0.3742455 -1.262726 -0.7576963 -1.4254925
-1.4140949 -1.341214 -2.0068927 -1.3967783 -1.9377742 -1.810298 -1.3011916 -1.0198585
-1.6353041 -1.9462508 -1.0761595 -1.0142657 -1.4637783 -1.2366347 -1.6645179 -1.222424
00000000: 2b0e 47bf 3277 b1bf dbc4 aebf 9929 e5bf
00000010: 0c51 ecbf 4cc6 a0bf 1064 91bf 34cd c9bf
00000020: 87f2 00c0 7f90 7abf 14c5 41bf 396a 32bf
00000030: 68b0 cbbf b432 78bf 0962 91bf 343e a3bf
00000040: 839c 99bf c82d 77bf f483 84bf 4a59 c8bf
00000050: f637 8dbf cef0 7dbf a860 3bbf f27b f2bf
00000060: fb2d 69bf 0280 abbf 2e77 a1bf 806d ccbf
00000070: fb69 94bf f905 65bf fab0 c7bf 088a afbf
00000080: 4e73 d5bf f9f3 77bf 0da1 9abf f208 90bf
00000090: c495 8bbf 5ec1 b8bf cdea b0bf b90c 91bf
000000a0: 7c06 7abf d5ac c8bf fc12 94bf 9891 d7bf
000000b0: 1b9d bfbe 01a1 a1bf 62f8 41bf 8a76 b6bf
000000c0: 1001 b5bf e6ac abbf ee70 00c0 a2c9 b2bf
000000d0: fc08 f8bf d8b7 e7bf 728d a6bf b98a 82bf
000000e0: a551 d1bf bf1e f9bf 98bf 89bf 75d3 81bf
000000f0: 165d bbbf 0c4a 9ebf ec0e d5bf 6478 9cbf

fc2.weight f4 [27, 64]
-0.119201966 -0.21261509 -0.66227275 0.030882569 -0.12851678 0.14082785 -0.45115015 -0.24043009
-0.5362119 -0.5119864 0.31817746 0.119417444 0.46373457 -0.44509512 -0.90801597 -0.4318125
-0.32452065 -0.64078367 -0.9220034 0.23589459 0.065670714 -0.4560306 -0.03439865 -0.4386165
-0.055813797 -0.62234944 -0.66159874 -0.5648424 -0.63773096 0.029125286 0.5792139 -0.018235946
0.63615006 -0.2583408 0.5041795 -0.005469191 0.42010057 0.24271281 -0.02215987 -0.48016226
-0.78282684 0.52087045 0.80708516 0.76598287 -0.7678533 -0.35571432 -0.013705797 -0.4439951
0.7571607 -0.7676474 -0.3775445 0.23095869 -0.11318516 0.08189121 -0.35731268 -0.95567393
0.15682209 0.50666237 0.5953456 0.48166868 -0.42247725 0.14248402 -0.4844867 -0.3243711
0.6430032 -0.7137849 -0.2919007 0.25995234 0.016943943 -1.4319202 -0.60287994 0.8137083
0.27200535 0.3291961 -0.55912673 0.14381604 -0.5497696 -1.5914018 -0.21650618 -0.21909781
0.324101 -1.195192 -1.0118138 -0.22112961 -0.55337256 -0.9795303 -0.4603458 -1.0884107
0.5098164 -0.8547214 -0.8790862 0.3911434 -0.56186706 0.072116695 -0.8108476 -0.02209786
0.025360834 -1.7115993 0.16261527 -0.7757584 -0.5536053 0.50140923 0.3551242 -1.0915195
0.36784127 0.09136988 -0.74862564 -0.004771345 -0.56644577 -0.2945251 0.60837996 0.3974676
0.4184627 0.50793165 -0.16448511 -0.06741807 -0.51600426 0.296171 -0.14783671 -0.24126261
0.37204233 0.42473572 -0.44548568 0.2544497 -0.5321206 0.18738526 0.3794622 -1.193389
-0.25545073 -1.9742919 0.5018533 -0.956521 -0.2685923 -1.393069 -1.5850574 -0.41915908
0.34780258 0.66821927 -1.5252687 -1.4166381 -1.2453609 -0.97430795 0.39662114 -0.3576132
0.21964078 -0.7344229 -0.06528847 0.18791358 -1.565781 -1.1810976 -0.54988146 -1.2636883
0.05047997 -1.2338871 -0.2163507 -0.56704307 0.7989856 -0.6564509 -0.8070335 -0.4922093
-0.2571469 -0.63833797 -1.3881938 -0.7149601 -1.0720975 -0.08502511 -1.4493679 -0.8734481
0.08618474 0.33214182 -0.45963454 0.08144905 -0.1729989 -1.2281046 -1.378352 0.14585158
-0.041358657 -0.22128995 -0.34079224 -1.1350204 -0.7620922 -0.1566702 -1.641676 -0.5271908
0.72896034 0.62130517 -0.9119009 -1.6672829 -0.9574326 0.088548884 -0.5928944 -0.6398615
-0.34758928 -1.3839906 -0.58489406 -0.15887074 0.19796811 -0.20431218 -0.94812554 -0.32356223
-0.4068737 0.62455636 -0.13096063 0.52171135 0.51086086 -0.032365944 -1.424471 -0.045096412
0.17725354 -0.7468298 -0.047474645 0.6668643 -0.3488267 -0.5167918 0.32894868 -0.6597088
0.18744533 -0.7735552 -0.51465005 -0.70649284 0.26951453 0.42599463 -0.6282542 -0.8125131
0.16777997 -0.027196646 -0.044552986 -0.6596397 -1.1113529 -0.6845601 0.8089535 0.5957632
-1.6248784 0.15475215 0.7084657 -0.49048227 -0.13953695 -1.2665466 -1.3290565 -0.98369396
0.50354177 -0.94826496 0.34882846 -1.8572028 -0.034527183 -0.19561116 -0.0024611417 -1.5633674
-0.13234676 0.37531614 0.7414077 -0.49396068 0.015086466 0.31555256 -0.86338484 -1.0045439
00000000: 2920 f4bd c5b7 59be b58a 29bf 71fd fc3c
00000010: e799 03be 2d35 103e 27fd e6be 4e33 76be
00000020: 2f45 09bf 8a11 03bf 28e8 a23e 2291 f43d
00000030: 9e6e ed3e 82e3 e3be bc73 68bf 8716 ddbe
00000040: 9227 a6be 660a 24bf 6a08 6cbf 5a8e 713e
00000050: 5e7e 863d d87c e9be 99e5 0cbd 5892 e0be
00000060: 029d 64bd 4b52 1fbf 895e 29bf 8399 10bf
00000070: 5642 23bf 2798 ee3c 5d47 143f 8d63 95bc
00000080: bbda 223f 3f45 84be e811 013f e636 b3bb
00000090: 6c17 d73e b589 783e 9e88 b5bc d4d7 f5be
000000a0: 5767 48bf c457 053f 229d 4e3f 7417 443f
000000b0: 0992 44bf 3020 b6be 478e 60bc 5353 e3be
000000c0: 49d5 413f 8a84 44bf 834d c1be 6f80 6c3e
000000d0: 9fcd e7bd 94b6 a73d b0f1 b6be 0ca7 74bf
000000e0: f895 203e a0b4 013f 9268 183f 479d f63e
000000f0: f04e d8be 55e7 113e a40e f8be f813 a6be
00000100: dc9b 243f 9bba 36bf 0274 95be 7918 853e
00000110: 06ce 8a3c 2949 b7bf 5756 1abf 304f 503f
00000120: 4944 8b3e 648c a83e ee22 0fbf 8344 133e
00000130: b3bd 0cbf 0eb3 cbbf ccb3 5dbe 2d5b 60be
00000140: 91f0 a53e 0dfc 98bf 1d83 81bf cd6f 62be
00000150: d3a9 0dbf 7fc2 7abf 72b2 ebbe 0b51 8bbf
00000160: 5483 023f 06cf 5abf cb0b 61bf f343 c83e
00000170: 85d6 0fbf ebb1 933d b593 4fbf 9206 b5bc
00000180: 86c1 cf3c b015 dbbf 9e84 263e 1a98 46bf
00000190: 14b9 0dbf 5b5c 003f d7d2 b53e e9b6 8bbf
000001a0: b155 bc3e 2220 bb3d eea5 3fbf f158 9cbb
000001b0: 9702 11bf fecb 96be cabe 1b3f e080 cb3e
000001c0: be40 d63e cf07 023f c96e 28be 7c12 8abd
000001d0: db18 04bf baa3 973e 8262 17be 8c0d 77be
000001e0: 557c be3e f676 d93e b316 e4be 3b47 823e
000001f0: 0e39 08bf ece1 3f3e df48 c23e f9c0 98bf
00000200: 70ca 82be 99b5 fcbf 7579 003f 8fde 74bf
00000210: ee84 89be 1650 b2bf 29e3 cabf 059c d6be
00000220: 2e13 b23e 6b10 2b3f 013c c3bf 6654 b5bf
00000230: fc67 9fbf 3f6c 79bf ed11 cb3e 1419 b7be
00000240: 83e9 603e 2403 3cbf f6b5 85bd 6b6c 403e
00000250: 836b c8bf 352e 97bf 08c5 0cbf 8ac0 a1bf
00000260: 16c4 4e3d 03f0 9dbf 0a8b 5dbe bc29 11bf
00000270: 528a 4c3f 2b0d 28bf bf99 4ebf db02 fcbe
00000280: c2a8 83be 1e6a 23bf 56b0 b1bf a007 37bf
00000290: 7e3a 89bf a521 aebd e384 b9bf 4b9a 5fbf
000002a0: a081 b03d 7e0e aa3e 3855 ebbe c2ce a63d
000002b0: a026 31be 8832 9dbf d76d b0bf 1e5a 153e
000002c0: b267 29bd d599 62be 527c aebe 5948 91bf
000002d0: 7918 43bf 276e 20be 7022 d2bf faf5 06bf
000002e0: 259d 3a3f db0d 1f3f 5672 69bf 8769 d5bf
000002f0: 4e1a 75bf 1e59 b53d edc7 17bf f7cd 23bf
00000300: 39f7 b1be 9b26 b1bf 9ebb 15bf 03af 22be
00000310: 27b8 4a3e 3637 51be 5bb8 72bf f3a9 a5be
00000320: c051 d0be ede2 1f3f 8b1a 06be e08e 053f
00000330: c7c7 023f 2792 04bd 1155 b6bf 04b7 38bd
00000340: f481 353e 3d30 3fbf c674 42bd 9eb7 2a3f
00000350: 6a99 b2be 784c 04bf f66b a83e ade2 28bf
00000360: abf1 3f3e b707 46bf 1bc0 03bf b7dc 34bf
00000370: cffd 893e f81b da3e 44d5 20bf dc00 50bf
00000380: 83ce 2b3e 80cb debc 317d 36bd 26de 28bf
00000390: d040 8ebf 553f 2fbf 9417 4f3f f083 183f
000003a0: 04fc cfbf 5977 1e3e 025e 353f 7e20 fbbe
000003b0: c6e2 0ebe 331e a2bf 861e aabf 5ed3 7bbf
000003c0: 1de8 003f 7ec1 72bf a599 b23e d2b8 edbf
000003d0: 606c 0dbd 4b4e 48be 1b4b 21bb 6c1c c8bf
000003e0: e985 07be 7029 c03e e5cc 3d3f 6ae8 fcbe
000003f0: 3a2d 773c 1b90 a13e ca06 5dbf e594 80bf

fc2.bias f4 [27]
-0.18289636 -0.9228064 0.101024106 -0.7052139 0.3694098 0.015779769 -1.0413743 -0.9550334
-1.1881796 -0.49419212 0.47878236 0.14531419 1.0016146 0.68063754 0.9671487 0.14495312
-2.5233305 -2.319782 0.012111828 0.8444376 2.0080645 1.337952 0.87131715 0.79975015
0.07698834 0.620511 0.2664218
00000000: 2f49 3bbe 0a3d 6cbf bae5 ce3d e688 34bf
00000010: 4823 bd3e 9344 813c c14b 85bf 127d 74bf
00000020: 4516 98bf c006 fdbe f622 f53e 3ecd 143e
00000030: e834 803f 433e 2e3f 0f97 773f 976e 143e
00000040: 3f7e 21c0 4f77 14c0 b070 463c 102d 583f
00000050: 2184 0040 0342 ab3f a40e 5f3f 6dbc 4c3f
00000060: 10ac 9d3d cfd9 1e3f 7068 883e
