ckpt/classifiers/rgb_epoch_34.pth (torch, 42168 bytes, 4 tensors)

fc1.weight f4 [64, 128]
0.08947706 -0.72795486 0.020181404 -0.33263165 0.20725062 0.6402519 0.5354566 -0.4411257
0.8206162 -0.4957434 1.0798852 -0.99442637 0.3434812 0.22138737 -0.7885578 -0.15775807
-0.48400483 1.1707355 -0.8039884 -0.28711638 0.20450933 -0.05526841 0.9168005 -0.5105847
-1.4885833 0.056038905 0.25194508 0.020060347 0.5013593 -1.1516192 0.24772711 -0.2957439
0.21638851 0.40444863 0.7377389 0.52748936 0.15115541 -1.3149754 0.32988122 0.746401
0.2018913 1.4027617 1.0280752 -0.8329605 0.32435977 -0.83101034 -0.35376266 0.59852964
0.09290104 -0.1549798 0.46666744 0.21332233 0.13906227 0.29682854 0.6103023 0.634959
-1.1949772 -1.5106859 -0.07988606 0.53079015 -1.0466298 0.049774203 0.70496 0.01856762
-0.53979 0.7284168 -0.2195342 -0.086920336 0.06342638 -0.11324354 0.3587819 -1.014569
-0.20442289 0.42868206 -0.05391695 -0.5662829 -0.04990063 0.34862164 -0.98757327 0.48304236
-0.71172863 0.49478102 -0.9607385 0.3370819 0.059021868 -0.29728147 0.6031481 -1.0433265
0.6830094 0.26391396 0.07590312 -0.22579359 -0.5942244 0.17176636 0.43350273 0.6189764
-0.33120733 -0.6547696 0.08874184 -1.1170877 -0.5890572 -0.00045282752 0.9824125 -0.023273926
-0.27448362 -0.7338612 -0.67337507 -0.2622347 -0.31863314 1.1370645 -0.84841794 0.97250813
0.43207458 0.48163903 0.051809125 -0.61652064 0.9517284 1.1295928 1.1590214 1.1717439
-0.84658 -0.12424534 -1.2100581 0.9264967 -0.53207266 -0.07842636 0.90365577 -1.2694483
-0.50148106 -0.34511077 0.44689685 -0.10936305 0.115941726 0.96093816 0.7411374 -0.03965816
0.45653895 -0.21375473 0.47610763 -0.55657345 0.93137664 -0.078749254 -0.18854964 -1.0673776
0.5838462 0.77973455 -0.8667093 -0.28807944 0.6782179 0.90037525 1.4748942 0.43102482
-0.8305942 0.6625443 0.54411256 -1.0312427 0.30089718 -0.52896696 -0.3864572 -0.768538
0.9711244 -1.0807508 0.17182758 0.21812446 -0.14982721 0.15455449 -0.50369304 -0.23265065
0.18387628 1.1404918 0.31782308 0.2723089 0.81745213 -1.5625134 -0.8646858 0.18866932
-0.5062257 -0.35966662 0.3471417 -0.81394786 -0.47529098 0.28455693 -0.021379633 -0.5622361
0.3460233 0.6625863 -0.39223635 -0.76013464 -0.3911585 0.646996 -0.6738887 -0.20981878
-0.043325532 1.1992182 0.1321791 -0.22628692 0.060086988 -0.18778533 -0.060697086 -0.84163135
2.3763747 0.2582378 -0.14360063 -0.7768268 0.20427564 -0.24192992 0.05902354 -0.041320313
-0.050006114 -0.37771192 0.26620582 -0.24754229 0.43165517 -0.77526 -0.057319604 -1.0089766
0.70951384 0.7155967 0.8448808 0.64036304 -0.81794834 0.30732647 0.12756254 0.7575034
-0.1901764 -0.31050703 0.49992245 0.7175059 0.19025502 1.5621737 0.088556156 -0.32604524
-0.30072683 -0.009396587 0.2906349 -0.6905722 -0.5632087 0.84006906 -0.9774493 -0.5061776
0.79181993 -0.84064466 0.25200418 -0.19617388 0.40332565 0.23789911 0.5998127 0.4518799
-1.2099268 0.96020204 -1.0967915 0.8586896 -0.5257082 -0.034927357 0.037155267 0.3999775
00000000: c03f b73d 405b 3abf 7953 a53c b24e aabe
00000010: 8239 543e 8ce7 233f af13 093f 3adb e1be
00000020: e713 523f 14d2 fdbe ae39 8a3f ba92 7ebf
00000030: c5dc af3e 5fb3 623e edde 49bf 558b 21be
00000040: 7bcf f7be a9da 953f 2fd2 4dbf eb00 93be
00000050: e56a 513e 2161 62bd 70b3 6a3f aeb5 02bf
00000060: e689 bebf 0d89 653d f2fe 803e 9955 a43c
00000070: 1559 003f 4268 93bf 2dac 7d3e bf6b 97be
00000080: f394 5d3e e413 cf3e 75dc 3c3f 8b09 073f
00000090: 7cc8 1a3e 1d51 a8bf 31e6 a83e 2314 3f3f
000000a0: 98bc 4e3e b28d b33f f897 833f e63c 55bf
000000b0: 7c12 a63e 18bd 54bf 6120 b5be 3d39 193f
000000c0: e742 be3d 06b3 1ebe 09ef ee3e 2b71 5a3e
000000d0: 5766 0e3e e9f9 973e c63c 1c3f ac8c 223f
000000e0: 03f5 98bf 285e c1bf 4d9b a3bd dde1 073f
000000f0: f7f7 85bf 09e0 4b3d 4278 343f 1f1b 983c
00000100: ad2f 0abf 8679 3a3f 93cd 60be 4a03 b2bd
00000110: b1e5 813d 3bec e7bd 43b2 b73e 66dd 81bf
00000120: 3c54 51be 377c db3e 05d8 5cbd ebf7 10bf
00000130: 9a64 4cbd 897e b23e 9ad1 7cbf 5451 f73e
00000140: d933 36bf f053 fd3e f5f2 75bf 0096 ac3e
00000150: eac0 713d 4735 98be ea67 1a3f b98b 85bf
00000160: b4d9 2e3f bb1f 873e 1873 9b3d 6f36 67be
00000170: 171f 18bf 85e3 2f3e 12f4 dd3e 3d75 1e3f
00000180: 0294 a9be fb9e 27bf 48be b53d bbfc 8ebf
00000190: 74cc 16bf 7b69 edb9 637f 7b3f f6a8 bebc
000001a0: 1e89 8cbe 54de 3bbf 4f62 2cbf a043 86be
000001b0: e223 a3be 548b 913f eb31 59bf 4bf6 783f
000001c0: e138 dd3e 6499 f63e ce35 543d 4cd4 1dbf
000001d0: 79a4 733f 7f96 903f d05a 943f b4fb 953f
000001e0: 78b9 58bf 5774 febd 2fe3 9abf e32e 6d3f
000001f0: ea35 08bf 009e a0bd fc55 673f 487d a2bf
00000200: 1061 00bf 5cb2 b0be aacf e43e bcf9 dfbd
00000210: db72 ed3d 0b00 763f 2ebb 3d3f 9870 22bd
00000220: 79bf e93e 85e2 5abe 61c4 f33e 997b 0ebf
00000230: b36e 6e3f 4a47 a1bd 2813 41be d49f 88bf
00000240: f276 153f af9c 473f a9e0 5dbf 267f 93be
00000250: b09f 2d3f fe7e 663f 55c9 bc3f 49af dc3e
00000260: d2a1 54bf 819c 293f f64a 0b3f c3ff 83bf
00000270: 320f 9a3e 616a 07bf b8dd c5be e8be 44bf
00000280: 9c9b 783f 0b56 8abf 92f3 2f3e 055c 5f3e
00000290: 4e6c 19be 8843 1e3e 07f2 00bf f93b 6ebe
000002a0: 104a 3c3e a3fb 913f b5b9 a23e 126c 8b3e
000002b0: 8b44 513f 7000 c8bf 0c5c 5dbf 8832 413e
000002c0: 0298 01bf 3926 b8be 8fbc b13e e35e 50bf
000002d0: 5759 f3be 72b1 913e 5724 afbc b4ee 0fbf
000002e0: f729 b13e 419f 293f 34d3 c8be 2f98 42bf
000002f0: ed45 c8be 88a1 253f f883 2cbf bcda 56be
00000300: 1d76 31bd fb7f 993f f559 073e c2b7 67be
00000310: c61d 763d cc4a 40be 829d 78bd 2775 57bf
00000320: 8616 1840 bf37 843e 0b0c 13be 1fde 46bf
00000330: a22d 513e 7abc 77be abc2 713d 7d3f 29bd
00000340: 36d3 4cbd 7563 c1be 214c 883e ba7b 7dbe
00000350: e801 dd3e 7077 46bf f6c7 6abd 2526 81bf
00000360: b3a2 353f 5831 373f 1c4a 583f d5ee 233f
00000370: 1065 51bf e559 9d3e c19f 023e beeb 413f
00000380: 9abd 42be c7fa 9ebe d6f5 ff3e 77ae 373f
00000390: 36d2 423e 4ff5 c73f ee5c b53d 67ef a6be
000003a0: def8 99be 24f4 19bc 19ce 943e 57c9 30bf
000003b0: 722e 10bf c40e 573f 1e3a 7abf db94 01bf
000003c0: b6b4 4a3f 7d34 57bf b106 813e cee1 48be
000003d0: b380 ce3e d39b 733e 538d 193f cd5c e73e
000003e0: e2de 9abf cdcf 753f aa63 8cbf 15d3 5b3f
000003f0: d094 06bf fd0f 0fbd 1f30 183d dac9 cc3e

fc1.bias f4 [64]
-0.77954096 -1.3904243 -1.3668766 -1.7840681 -1.8464168 -1.2644928 -1.1392146 -1.5879054
-2.0157745 -0.9796282 -0.75606096 -0.70035684 -1.6004083 -0.9757782 -1.1393698 -1.2912598
-1.2060306 -0.96768224 -1.0352813 -1.5728891 -1.0931106 -0.99543345 -0.7407109 -1.8831502
-0.9135164 -1.3458074 -1.2719188 -1.6063248 -1.1644431 -0.89729536 -1.5731834 -1.3806252
-1.6695446 -0.97078687 -1.211503 -1.1360645 -1.099794 -1.4388113 -1.3864897 -1.132582
-0.9830509 -1.5706837 -1.156277 -1.6841904 -0.38569102 -1.2685757 -0.7616273 -1.4249771
-1.4104398 -1.3444121 -2.0009992 -1.4013923 -1.9366666 -1.8138809 -1.3056267 -1.0273112
-1.6408372 -1.9490424 -1.0848587 -1.0149084 -1.468169 -1.2363799 -1.6655859 -1.2308149
00000000: ff8f 47bf 6cf9 b1bf d0f5 aebf 585c e4bf
00000010: 6357 ecbf e6da a1bf c9d1 91bf 7c40 cbbf
00000020: 7302 01c0 eac8 7abf 368d 41bf 964a 33bf
00000030: 2eda ccbf 9acc 79bf dfd6 91bf 0048 a5bf
00000040: 365f 9abf 06ba 77bf 1984 84bf 6e54 c9bf
00000050: 0ceb 8bbf bad4 7ebf 3b9f 3dbf 110b f1bf
00000060: 36dc 69bf 6b43 acbf 3cce a2bf 0d9c cdbf
00000070: 790c 95bf 26b5 65bf 135e c9bf 54b8 b0bf
00000080: a3b3 d5bf 7d85 78bf 8812 9bbf 906a 91bf
00000090: 0dc6 8cbf f82a b8bf 7f78 b1bf 72f8 90bf
000000a0: 39a9 7bbf 2a0c c9bf e200 94bf 8d93 d7bf
000000b0: 4b79 c5be b060 a2bf 02fa 42bf a665 b6bf
000000c0: 4b89 b4bf b215 acbf 5f10 00c0 d360 b3bf
000000d0: b1e4 f7bf 402d e8bf c71e a7bf ef7e 83bf
000000e0: f406 d2bf 397a f9bf a6dc 8abf 85e8 81bf
000000f0: f6ec bbbf b241 9ebf eb31 d5bf 588b 9dbf

fc2.weight f4 [27, 64]
-0.119099624 -0.21255858 -0.6621985 0.034934983 -0.12851678 0.14633298 -0.45283243 -0.23973992
-0.53619397 -0.51405084 0.31483492 0.10601449 0.4593978 -0.44387597 -0.9074515 -0.43168265
-0.3218362 -0.6400658 -0.9217619 0.23615497 0.06585783 -0.4558607 -0.03162027 -0.43565923
-0.053940337 -0.62219065 -0.6613181 -0.56416965 -0.637534 0.034612853 0.57214683 -0.031203834
0.6330026 -0.2577873 0.5083346 -0.010736856 0.41679928 0.24385841 -0.022242997 -0.47901002
-0.7822267 0.5144006 0.80451757 0.76709723 -0.7697749 -0.3554702 -0.012295881 -0.4431693
0.761563 -0.7675096 -0.37740436 0.22373083 -0.11317887 0.084895805 -0.35528764 -0.95508325
0.15772505 0.50283545 0.5832081 0.47567877 -0.42234018 0.14201285 -0.4841268 -0.3239822
0.6510123 -0.7126425 -0.29167774 0.2600334 0.016343608 -1.431814 -0.60277736 0.8142034
0.27200535 0.33004305 -0.5581916 0.14438239 -0.5492109 -1.5901847 -0.21601738 -0.21848807
0.3212384 -1.1945429 -1.0117743 -0.22091818 -0.5533016 -0.97949296 -0.46019417 -1.0881759
0.51065606 -0.8545213 -0.8784771 0.3974879 -0.5617518 0.072790444 -0.8108242 -0.01922496
0.021432439 -1.7114419 0.16335596 -0.77570516 -0.55337006 0.49888 0.35536197 -1.0912113
0.36584783 0.0964766 -0.74846035 -0.004744879 -0.5734767 -0.29276216 0.60277903 0.3928357
0.4091073 0.50550956 -0.16446865 -0.07867618 -0.51599956 0.29530695 -0.14554067 -0.23979604
0.37055948 0.42683414 -0.44646928 0.25319228 -0.5318869 0.1873859 0.37533042 -1.1932832
-0.25264814 -1.9742675 0.5052967 -0.95623034 -0.2685923 -1.3925862 -1.5847611 -0.41869733
0.34890988 0.68603384 -1.5152159 -1.4164183 -1.2447323 -0.97207093 0.39950243 -0.3555695
0.22418141 -0.73265964 -0.065016456 0.19183517 -1.5657511 -1.1810018 -0.54785335 -1.2622297
0.051204894 -1.233051 -0.21316737 -0.5662081 0.80827636 -0.65396047 -0.80691683 -0.49192625
-0.2570254 -0.6382272 -1.3878742 -0.7136882 -1.0709307 -0.08482546 -1.4489535 -0.8729962
0.08794317 0.33617535 -0.45924768 0.081845045 -0.17127962 -1.2270302 -1.3779421 0.13903058
-0.041099664 -0.22080603 -0.340784 -1.1349968 -0.7620009 -0.15457201 -1.6414195 -0.5265799
0.736185 0.62832236 -0.91159606 -1.6662802 -0.95723635 0.088548884 -0.5884381 -0.6396567
-0.3472365 -1.3839413 -0.5848746 -0.15582626 0.19794245 -0.20408759 -0.94797254 -0.3171039
-0.40713385 0.62765205 -0.12687573 0.5227382 0.5168754 -0.02962343 -1.4244114 -0.04476051
0.17154211 -0.74595773 -0.047335744 0.6757514 -0.34992725 -0.5165867 0.33446404 -0.66638416
0.19143678 -0.7735137 -0.5128259 -0.70625824 0.27651986 0.42216647 -0.62807065 -0.79897463
0.16834702 -0.026699627 -0.044809405 -0.657856 -1.110842 -0.68452406 0.8072032 0.6091321
-1.6245416 0.1565252 0.7101626 -0.49048424 -0.13870238 -1.266416 -1.3158568 -0.98355204
0.5024147 -0.9461476 0.35647961 -1.8571966 -0.033908453 -0.19461557 -0.00414942 -1.5623214
-0.12933518 0.3754509 0.7481776 -0.49869296 0.015334123 0.31555563 -0.8630043 -1.0045727
00000000: 81ea f3bd f5a8 59be d785 29bf fc17 0f3d
00000010: e799 03be 50d8 153e a7d9 e7be 627e 75be
00000020: 0244 09bf d698 03bf 0b32 a13e 201e d93d
00000030: 3036 eb3e b643 e3be be4e 68bf 8205 ddbe
00000040: b7c7 a4be 5adb 23bf 96f8 6bbf 9cd2 713e
00000050: 78e0 863d 9366 e9be 4284 01bd ba0e dfbe
00000060: 8bf0 5cbd e347 1fbf 254c 29bf 6c6d 10bf
00000070: 6e35 23bf 35c6 0d3d 3778 123f 2f9f ffbc
00000080: 750c 223f b2fc 83be 3722 023f a3e9 2fbc
00000090: b766 d53e 05b6 793e f236 b6bc cd40 f5be
000000a0: 0240 48bf c2af 033f ddf4 4d3f 7c60 443f
000000b0: f80f 45bf 3100 b6be aa74 49bc 16e7 e2be
000000c0: cbf5 423f 827b 44bf 253b c1be b219 653e
000000d0: 53ca e7bd dadd ad3d 43e8 b5be 5680 74bf
000000e0: ad82 213e d3b9 003f 204d 153f 2b8c f33e
000000f0: f93c d8be d16b 113e 78df f7be ffe0 a5be
00000100: bea8 263f bd6f 36bf c956 95be 1923 853e
00000110: 08e3 853c ae45 b7bf 9e4f 1abf a26f 503f
00000120: 4944 8b3e 67fb a83e a5e5 0ebf fad8 133e
00000130: 1699 0cbf 2c8b cbbf a933 5dbe 56bb 5fbe
00000140: 5c79 a43e c8e6 98bf d281 81bf 6038 62be
00000150: 2ca5 0dbf 0dc0 7abf 929e ebbe 5949 8bbf
00000160: 5bba 023f e8c1 5abf e0e3 60bf 8983 cb3e
00000170: f7ce 0fbf 2813 953d 2d92 4fbf aa7d 9dbc
00000180: 1593 af3c 8710 dbbf c946 273e 9d94 46bf
00000190: a9a9 0dbf 336d ff3e 01f2 b53e d0ac 8bbf
000001a0: 6850 bb3e 8695 c53d 199b 3fbf ee7a 9bbb
000001b0: 5ecf 12bf ece4 95be ba4f 1a3f c321 c93e
000001c0: 8376 d13e 1369 013f 786a 28be fa20 a1bd
000001d0: 8c18 04bf 7932 973e 9d08 15be 188d 75be
000001e0: f9b9 bd3e 018a da3e 9f97 e4be 6ba2 813e
000001f0: bd29 08bf 17e2 3f3e 4f2b c03e 81bd 98bf
00000200: 195b 81be ccb4 fcbf 205b 013f 83cb 74bf
00000210: ee84 89be 4440 b2bf 74d9 cabf 7f5f d6be
00000220: 51a4 b23e ea9f 2f3f 98f2 c1bf 324d b5bf
00000230: 6353 9fbf a4d9 78bf 958b cc3e 350d b6be
00000240: d08f 653e 958f 3bbf 5927 85bd 7070 443e
00000250: 886a c8bf 112b 97bf 1e40 0cbf be90 a1bf
00000260: 39bc 513d 9dd4 9dbf 8c48 5abe 04f3 10bf
00000270: 33eb 4e3f f469 27bf 1a92 4ebf c2dd fbbe
00000280: d598 83be dc62 23bf dda5 b1bf 45b4 36bf
00000290: 4214 89bf f9b8 adbd 4f77 b9bf ae7c 5fbf
000002a0: 8c1b b43d 2d1f ac3e 8322 ebbe 609e a73d
000002b0: ed63 2fbe 530f 9dbf 6860 b0bf 085e 0e3e
000002c0: 1f58 28bd fa1a 62be 3e7b aebe 9347 91bf
000002d0: 7e12 43bf 2048 1ebe 091a d2bf f1cd 06bf
000002e0: 9f76 3c3f bcd9 203f 5c5e 69bf ab48 d5bf
000002f0: 710d 75bf 1e59 b53d e1a3 16bf 8bc0 23bf
00000300: fcc8 b1be fd24 b1bf 57ba 15bf eb90 1fbe
00000310: 6db1 4a3e 56fc 50be 54ae 72bf 715b a2be
00000320: d973 d0be cead 203f b6eb 01be 2cd2 053f
00000330: f251 043f d6ac f2bc 1d53 b6bf cc56 37bd
00000340: bca8 2f3e 16f7 3ebf 20e3 41bd 0bfe 2c3f
00000350: aa29 b3be 073f 04bf df3e ab3e 2798 2abf
00000360: 0108 443e fe04 46bf 8f48 03bf 57cd 34bf
00000370: 0394 8d3e 3426 d83e 3dc9 20bf 9a89 4cbf
00000380: 2963 2c3e 2db9 dabc 118a 37bd 4069 28bf
00000390: 1230 8ebf f83c 2fbf dea4 4e3f 15f0 1b3f
000003a0: fbf0 cfbf 2448 203e 37cd 353f c020 fbbe
000003b0: ff07 0ebe eb19 a2bf ff6d a8bf 11ca 7bbf
000003c0: 409e 003f bb36 72bf 7f84 b63e 9eb8 edbf
000003d0: 97e3 0abd 4e49 47be dcf7 87bb 26fa c7bf
000003e0: 7170 04be 1a3b c03e 9188 3f3f af54 ffbe
000003f0: f93b 7b3c 8290 a13e daed 5cbf d795 80bf

fc2.bias f4 [27]
-0.1837932 -0.92504483 0.1064716 -0.7055303 0.35709175 0.009199072 -1.0308679 -0.9459125
-1.1860147 -0.49301356 0.4799272 0.14633398 0.9992778 0.6905282 0.9617883 0.15158963
-2.5150328 -2.313147 0.008408814 0.8377539 1.9916365 1.3360424 0.8705479 0.81103927
0.07904389 0.6051697 0.27456638
00000000: 4934 3cbe bdcf 6cbf c80d da3d a29d 34bf
00000010: bbd4 b63e b4b7 163c 7bf3 83bf 5227 72bf
00000020: 54cf 97bf 466c fcbe 05b9 f53e 93d8 153e
00000030: abd0 7f3f 75c6 303f c237 763f 503a 1b3e
00000040: 4cf6 20c0 9a0a 14c0 1fc5 093c 0a77 563f
00000050: f2ed fe3f 7003 ab3f 3adc 5e3f 45a0 4f3f
00000060: c3e1 a13d 67ec 1a3f f793 8c3e
