ckpt/classifiers/rgb_epoch_59.pth (torch, 42168 bytes, 4 tensors)

fc1.weight f4 [64, 128]
0	0x3dc82314	0.097723156
1	0xbf3a22d9	-0.72709423
2	0x3cbbc060	0.02291888
3	0xbeaf6f3b	-0.3426455
4	0x3e529d3c	0.20567793
5	0x3f23f4ad	0.6404522
6	0x3f083ea5	0.5322059
7	0xbee60009	-0.44921902
8	0x3f550381	0.8320847
9	0xbf00bc58	-0.5028739
10	0x3f8abbe3	1.0838588
11	0xbf806979	-1.0032188
12	0x3eacb91b	0.33734974
13	0x3e6a4712	0.22878674
14	0xbf492f41	-0.7858773
15	0xbe211cfa	-0.1573371
16	0xbef9ec89	-0.48813275
17	0x3f94d57e	1.1627653
18	0xbf4b8dfd	-0.7951353
19	0xbe8eaba7	-0.27865335
20	0x3e55e524	0.20888191
21	0xbd3fec7c	-0.04685639
22	0x3f6c8b7b	0.9240033
23	0xbf049058	-0.5178275
24	0xbfbda7cf	-1.4816836
25	0x3d822bf1	0.063560374
26	0x3e81b78c	0.25335348
27	0x3c3846d1	0.011247353
28	0x3efa81f3	0.48927268
29	0xbf9355f6	-1.1510608
30	0x3e781329	0.24226059
31	0xbe95061d	-0.29106227
32	0x3e609ace	0.21934053
33	0x3ec956c5	0.39324012
34	0x3f3d0ba8	0.7384591
35	0x3f066375	0.5249551
36	0x3e183ae8	0.14866221
37	0xbfa7867b	-1.3087915
38	0x3ea18f35	0.3155457
39	0x3f3cfe9d	0.7382601
40	0x3e4e5f13	0.20153455
41	0x3fb4d611	1.4127828
42	0x3f82f426	1.0230758
43	0xbf54fb54	-0.83195996
44	0x3ea51e43	0.3224965
45	0xbf5594df	-0.83430284
46	0xbeb7d073	-0.35901222
47	0x3f1a75b3	0.60335845
48	0x3db93352	0.09042992
49	0xbe28c29e	-0.1648049
50	0x3ef49212	0.47767693
51	0x3e5440d0	0.20727849
52	0x3e034ff7	0.12823473
53	0x3e9e619b	0.30933842
54	0x3f1b366e	0.6062993
55	0x3f249486	0.6428913
56	0xbf99209a	-1.1963074
57	0xbfc0f8fc	-1.5075984
58	0xbd9ab442	-0.07553913
59	0x3f052ab1	0.52018267
60	0xbf84d860	-1.0378532
61	0x3d72444d	0.059147168
62	0x3f36a6df	0.71348375
63	0x3cc67bd5	0.02422897
64	0xbf08e3e8	-0.5347276
65	0x3f3beef7	0.73411506
66	0xbe57b201	-0.21063997
67	0xbda8be4c	-0.08239421
68	0x3d6b7ff3	0.05749507
69	0xbdcd8c96	-0.1003658
70	0x3eb26dce	0.348494
71	0xbf82703d	-1.0190502
72	0xbe4e0d35	-0.20122226
73	0x3ed6d589	0.4195979
74	0xbd76d250	-0.060259163
75	0xbf141c1b	-0.57855386
76	0xbd54a74b	-0.051917356
77	0x3ead9af5	0.33907285
78	0xbf8042b8	-1.0020361
79	0x3efdd2b7	0.49574825
80	0xbf3609b6	-0.7110857
81	0x3efeb8a6	0.4975025
82	0xbf750d88	-0.9572377
83	0x3eadee38	0.3397081
84	0x3d58ab71	0.052897874
85	0xbe96eef7	-0.2947919
86	0x3f1d4a2c	0.614413
87	0xbf85d0fe	-1.0454404
88	0x3f312b5e	0.692068
89	0x3e87c32f	0.265161
90	0x3daef87d	0.08543489
91	0xbe729b2e	-0.23692009
92	0xbf181e36	-0.594211
93	0x3e2bf032	0.16790846
94	0x3edb3080	0.4281044
95	0x3f1f7f00	0.6230316
96	0xbea82784	-0.32842648
97	0xbf26aa42	-0.6510354
98	0x3da616c1	0.08109809
99	0xbf90d427	-1.1314744
100	0xbf18497b	-0.5948712
101	0x3a507cf9	0.00079531927
102	0x3f7d9ea4	0.9907019
103	0xbcd81b74	-0.026380278
104	0xbe9072f8	-0.28212714
105	0xbf3d6d3d	-0.7399481
106	0xbf2be0b8	-0.6713977
107	0xbe8356a8	-0.2565205
108	0xbe9f92c0	-0.3116665
109	0x3f907e36	1.1288517
110	0xbf59e16c	-0.8510959
111	0x3f7863d5	0.9702733
112	0x3ed8b897	0.4232833
113	0x3ef432f1	0.47695115
114	0x3d619cc3	0.05508114
115	0xbf1c8fe9	-0.6115709
116	0x3f70d050	0.9406786
117	0x3f920c8c	1.1410079
118	0x3f93c8ca	1.1545651
119	0x3f978ef0	1.1840496
120	0xbf55d5fb	-0.83529633
121	0xbdfa9cef	-0.12236964
122	0xbf9b74e9	-1.2145053
123	0x3f6da8e3	0.92835826
124	0xbf084958	-0.53236914
125	0xbda1b79b	-0.07896348
126	0x3f6695c4	0.90072274
127	0xbfa1a7b6	-1.2629306
128	0xbeffbc55	-0.49948373
129	0xbeae663c	-0.34062374
130	0x3ee51726	0.44744223
131	0xbded4a32	-0.11586417
132	0x3de2aafa	0.110677674
133	0x3f768301	0.96293646
134	0x3f3d90d4	0.74049115
135	0xbd24e054	-0.040253
136	0x3eead063	0.4586211
137	0xbe605989	-0.21909155
138	0x3ef52fbb	0.47887978
139	0xbf0e4407	-0.5557255
140	0x3f6de3eb	0.929259
141	0xbd9cb8e4	-0.076524526
142	0xbe3e61c3	-0.1859198
143	0xbf896e56	-1.0736797
144	0x3f14dbbc	0.5814779
145	0x3f48e99a	0.7848145
146	0xbf5db988	-0.86611223
147	0xbe960b73	-0.2930561
148	0x3f2dba6e	0.67862594
149	0x3f661f53	0.89891547
150	0x3fbd216a	1.4775822
151	0x3ede886b	0.43463454
152	0xbf536c3d	-0.82587034
153	0x3f2998cf	0.6624879
154	0x3f0a88e6	0.5411514
155	0xbf849c37	-1.0360173
156	0x3e9c4881	0.30524066
157	0xbf06015a	-0.5234581
158	0xbecaa15f	-0.3957624
159	0xbf45c0c2	-0.7724725
160	0x3f78131a	0.96904147
161	0xbf8a944a	-1.0826504
162	0x3e2e2814	0.17007476
163	0x3e607304	0.21918875
164	0xbe16b39a	-0.1471695
165	0x3e1bdd9f	0.1522126
166	0xbf0177a6	-0.50573194
167	0xbe6c65c9	-0.23085703
168	0x3e373129	0.17889847
169	0x3f91f13b	1.1401743
170	0x3ea27cf0	0.31735945
171	0x3e8c8eaf	0.2745261
172	0x3f522e37	0.8210177
173	0xbfc8b4c8	-1.568017
174	0xbf5e630c	-0.86869884
175	0x3e4257b0	0.18978763
176	0xbf00f1c4	-0.50368905
177	0xbeb77ae1	-0.35835937
178	0x3eb49da7	0.3527653
179	0xbf506bcb	-0.8141448
180	0xbef1b7d5	-0.47210565
181	0x3e926620	0.2859354
182	0xbcd3e85c	-0.025867634
183	0xbf0e6a22	-0.55630696
184	0x3eb095f3	0.34489402
185	0x3f292a6a	0.66080344
186	0xbec9f6af	-0.39446017
187	0xbf42c7dc	-0.7608621
188	0xbec5ceff	-0.38634488
189	0x3f272c23	0.6530172
190	0xbf2b4cdb	-0.6691415
191	0xbe55ab17	-0.20866047
192	0xbd35dbae	-0.044398956
193	0x3f99cac2	1.2015002
194	0x3e04a035	0.12951739
195	0xbe641e26	-0.22277126
196	0x3d674270	0.056459844
197	0xbe3dabc7	-0.18522559
198	0xbd849219	-0.064731784
199	0xbf57bb48	-0.84270144
200	0x4018315f	2.3780134
201	0x3e812a84	0.2522775
202	0xbe1486a5	-0.14504488
203	0xbf472af8	-0.7779994
204	0x3e4e189b	0.20126574
205	0xbe74f814	-0.2392276
206	0x3d62f5eb	0.055410307
207	0xbd350e82	-0.04420329
208	0xbd50293f	-0.050820585
209	0xbec157d0	-0.37762308
210	0x3e87accd	0.26499024
211	0xbe804ce6	-0.2505867
212	0x3ede1ef0	0.43382978
213	0xbf472ac9	-0.7779966
214	0xbd6378cd	-0.055535126
215	0xbf813603	-1.0094608
216	0x3f357fb2	0.7089797
217	0x3f36fd6a	0.7148043
218	0x3f57550f	0.84114164
219	0x3f22dd4d	0.6361893
220	0xbf503442	-0.8132974
221	0x3e9dd6a4	0.3082782
222	0x3e032cca	0.12810054
223	0x3f4136a9	0.7547403
224	0xbe431a96	-0.1905311
225	0xbea1141b	-0.31460652
226	0x3efdc272	0.49562413
227	0x3f35a5df	0.70956224
228	0x3e470421	0.19435169
229	0x3fc8ad30	1.5677853
230	0x3dbce11f	0.09222626
231	0xbea500b4	-0.322271
232	0xbe9af9cf	-0.30268714
233	0xbc18fa2c	-0.009336989
234	0x3e94f1af	0.2909064
235	0xbf307f53	-0.6894428
236	0xbf0ed2c6	-0.55790365
237	0x3f56362b	0.83676404
238	0xbf7a5e4c	-0.97800136
239	0xbf01bdc5	-0.5068019
240	0x3f4a4ec1	0.7902642
241	0xbf58073b	-0.8438603
242	0x3e8075b0	0.25089788
243	0xbe41766e	-0.18892834
244	0x3ecebae9	0.40376976
245	0x3e743830	0.23849559
246	0x3f19eac6	0.6012386
247	0x3ee71664	0.4513427
248	0xbf9b3e0f	-1.2128314
249	0x3f75660c	0.95858836
250	0xbf8d7622	-1.1051676
251	0x3f5b5152	0.8567096
252	0xbf067410	-0.5252085
253	0xbcf0a90a	-0.02937748
254	0x3d216bfc	0.039409623
255	0x3ecb729f	0.39735886

fc1.bias f4 [64]
0	0xbf470a87	-0.7775044
1	0xbfb174f8	-1.3863821
2	0xbfaec48c	-1.3653731
3	0xbfe527f4	-1.7902818
4	0xbfec510c	-1.8462234
5	0xbfa0caba	-1.2561867
6	0xbf915fab	-1.135732
7	0xbfc9cedb	-1.5766252
8	0xc000f294	-2.0148058
9	0xbf7a92aa	-0.9788004
10	0xbf41ca2e	-0.75699127
11	0xbf327185	-0.6970447
12	0xbfcbb1a8	-1.5913591
13	0xbf7832b4	-0.96952367
14	0xbf915fe6	-1.1357391
15	0xbfa340dd	-1.275417
16	0xbf999cbe	-1.2000959
17	0xbf7734c1	-0.9656487
18	0xbf8487cd	-1.0353943
19	0xbfc85ce7	-1.5653352
20	0xbf8d3681	-1.1032258
21	0xbf7df28c	-0.9919822
22	0xbf3b5d1d	-0.73188955
23	0xbff27e0f	-1.894472
24	0xbf692efd	-0.91087323
25	0xbfab8407	-1.3399667
26	0xbfa17ad3	-1.2615608
27	0xbfcc6e1a	-1.59711
28	0xbf9467e3	-1.1594204
29	0xbf650cc6	-0.89472616
30	0xbfc7b1e8	-1.5601168
31	0xbfaf8bcd	-1.3714539
32	0xbfd57339	-1.6675788
33	0xbf77fa21	-0.9686604
34	0xbf9aa1ca	-1.2080624
35	0xbf900958	-1.1252851
36	0xbf8b9532	-1.0904906
37	0xbfb8c24f	-1.4434298
38	0xbfb0e983	-1.3821262
39	0xbf910bcd	-1.1331726
40	0xbf7a0aae	-0.97672546
41	0xbfc8aed6	-1.5678356
42	0xbf941449	-1.156869
43	0xbfd7914d	-1.6841217
44	0xbebfad51	-0.37436917
45	0xbfa1a7d0	-1.2629337
46	0xbf41f9d8	-0.75771856
47	0xbfb6793f	-1.4255751
48	0xbfb5000b	-1.4140638
49	0xbfabaf35	-1.3412844
50	0xc0006f94	-2.0068102
51	0xbfb2c96f	-1.3967723
52	0xbff80a1b	-1.9378084
53	0xbfe7b7fe	-1.8103025
54	0xbfa6903e	-1.3012769
55	0xbf828b75	-1.0198809
56	0xbfd1515f	-1.6352957
57	0xbff921a8	-1.9463396
58	0xbf89c17a	-1.0762169
59	0xbf81d26a	-1.0142338
60	0xbfbb5f4f	-1.4638461
61	0xbf9e4a02	-1.2366335
62	0xbfd51060	-1.6645622
63	0xbf9c7d5b	-1.2225755

fc2.weight f4 [27, 64]
0	0xbdf41e47	-0.119198374
1	0xbe59b7c2	-0.21261504
2	0xbf298a83	-0.6622698
3	0x3cfcfd8b	0.030882617
4	0xbe0399e7	-0.12851678
5	0x3e10407b	0.14087097
6	0xbee70c38	-0.4512651
7	0xbe762741	-0.24038412
8	0xbf09452f	-0.5362119
9	0xbf0310f2	-0.5119773
10	0x3ea2e487	0.31814978
11	0x3df47d31	0.11937941
12	0x3eed6942	0.46369368
13	0xbee3ddc7	-0.4450514
14	0xbf687392	-0.90801346
15	0xbedd165e	-0.43181127
16	0xbea626d2	-0.32451493
17	0xbf2409fa	-0.64077723
18	0xbf6c0846	-0.92200124
19	0x3e7196c4	0.23592669
20	0x3d8681ba	0.06567712
21	0xbee97c9b	-0.4560288
22	0xbd0ccdc1	-0.03437591
23	0xbee08fb1	-0.43859628
24	0xbd64d4a5	-0.055866856
25	0xbf1f5245	-0.6223491
26	0xbf295e7e	-0.6615981
27	0xbf109915	-0.56483585
28	0xbf2341bc	-0.6377218
29	0x3ceee8f2	0.029163811
30	0x3f14482d	0.5792263
31	0xbc95c97e	-0.018284556
32	0x3f22d875	0.6361154
33	0xbe844440	-0.2583332
34	0x3f01135e	0.50420177
35	0xbbba0e33	-0.005677962
36	0x3ed718ac	0.4201101
37	0x3e788a48	0.242715
38	0xbcb571bf	-0.022148965
39	0xbef5d754	-0.48015845
40	0xbf486701	-0.7828217
41	0x3f05577c	0.52086616
42	0x3f4e97c5	0.8070033
43	0x3f441ccc	0.7660644
44	0xbf44a88f	-0.768197
45	0xbeb61f77	-0.3557088
46	0xbc60549d	-0.013692048
47	0xbee3530f	-0.44399306
48	0x3f41d47b	0.75714844
49	0xbf4483e7	-0.76763767
50	0xbec14d83	-0.3775445
51	0x3e6c3b22	0.23069432
52	0xbde7cd9c	-0.11318514
53	0x3da7b725	0.08189229
54	0xbeb6ed91	-0.35728124
55	0xbf74a6f7	-0.9556727
56	0x3e20980a	0.15682998
57	0x3f01ae01	0.50656134
58	0x3f1865e9	0.595305
59	0x3ef689ae	0.48151916
60	0xbed84ecc	-0.42247617
61	0x3e11e756	0.14248404
62	0xbef80e60	-0.48448467
63	0xbea61373	-0.32436714
64	0x3f249f57	0.64305633
65	0xbf36ba32	-0.7137786
66	0xbe9573e2	-0.29189974
67	0x3e851881	0.25995257
68	0x3c8ace11	0.016943963
69	0xbfb7491c	-1.4319186
70	0xbf1a5641	-0.60287863
71	0x3f504dfe	0.81369007
72	0x3e8b4449	0.27200535
73	0x3ea8888e	0.32916683
74	0xbf0f22a7	-0.5591225
75	0x3e13457e	0.14381978
76	0xbf0cbd2f	-0.5497617
77	0xbfcbb296	-1.5913875
78	0xbe5db36a	-0.21650472
79	0xbe605a96	-0.21909556
80	0x3ea5ec01	0.3240662
81	0xbf98fb5e	-1.1951711
82	0xbf8182f8	-1.0118093
83	0xbe626eda	-0.22112599
84	0xbf0da9ce	-0.55337226
85	0xbf7ac27d	-0.97953016
86	0xbeebb25f	-0.46034524
87	0xbf8b5105	-1.08841
88	0x3f0280d6	0.5097784
89	0xbf5acf05	-0.85472137
90	0xbf610b9e	-0.8790835
91	0x3ec84b13	0.39119777
92	0xbf0fd644	-0.5618632
93	0x3d93b405	0.072120704
94	0xbf4f93b5	-0.8108476
95	0xbcb4e8a9	-0.022083597
96	0x3ccf532a	0.02530821
97	0xbfdb15a7	-1.7115983
98	0x3e2687e1	0.16262771
99	0xbf4697e8	-0.7757554
100	0xbf0db907	-0.55360454
101	0x3f005d00	0.50141907
102	0x3eb5d2ef	0.35512492
103	0xbf8bb6d0	-1.0915165
104	0x3ebc51f0	0.36781263
105	0x3dbb2e16	0.091396496
106	0xbf3fa5ec	-0.7486255
107	0xbb9c56d4	-0.004771093
108	0xbf10fe43	-0.5663797
109	0xbe96ca5f	-0.29451272
110	0x3f1bb8a6	0.60828626
111	0x3ecb80c1	0.3974667
112	0x3ed63fda	0.4184559
113	0x3f020730	0.5079222
114	0xbe286b45	-0.1644717
115	0xbd8a24a7	-0.06745272
116	0xbf0418da	-0.5160042
117	0x3e97a2ce	0.29616398
118	0xbe1761cb	-0.14783399
119	0xbe77062b	-0.24123447
120	0x3ebe7c87	0.37204382
121	0x3ed95b75	0.4245259
122	0xbee4172b	-0.44548926
123	0x3e824367	0.2544205
124	0xbf0838f9	-0.53211933
125	0x3e3fe1ec	0.18738526
126	0x3ec24605	0.37944046
127	0xbf98c0e5	-1.1933867
128	0xbe82c6f8	-0.25542426
129	0xbffcb591	-1.974291
130	0x3f0080d3	0.5019657
131	0xbf74de85	-0.9565204
132	0xbe8984ee	-0.2685923
133	0xbfb2500d	-1.393068
134	0xbfcae2f9	-1.5850517
135	0xbed69b58	-0.41915393
136	0x3eb2132e	0.34780258
137	0x3f2b17ae	0.6683301
138	0xbfc33bbc	-1.5252604
139	0xbfb55466	-1.4166381
140	0xbf9f67ed	-1.2453591
141	0xbf796b50	-0.9742937
142	0x3ecb1454	0.39663947
143	0xbeb7107a	-0.35754758
144	0x3e60f654	0.21968967
145	0xbf3c0272	-0.7344123
146	0xbd85b49b	-0.065285884
147	0x3e407527	0.1879469
148	0xbfc86b83	-1.565781
149	0xbf972e35	-1.1810976
150	0xbf0cc4df	-0.549879
151	0xbfa1c06c	-1.2636847
152	0x3d4ee657	0.050512638
153	0xbf9ded02	-1.2337954
154	0xbe5d7f88	-0.2163068
155	0xbf112964	-0.5670378
156	0x3f4c8f90	0.7990656
157	0xbf280ce1	-0.6564465
158	0xbf4e99bf	-0.8070335
159	0xbefc024e	-0.49220508
160	0xbe83a8c2	-0.2571469
161	0xbf236a0a	-0.6383368
162	0xbfb1b00c	-1.388185
163	0xbf370014	-0.71484494
164	0xbf893a7d	-1.0720974
165	0xbdae217b	-0.0850248
166	0xbfb984de	-1.4493673
167	0xbf5f99f9	-0.8734432
168	0x3db0959a	0.08622284
169	0x3eaa0509	0.33206967
170	0xbeeb5533	-0.4596344
171	0x3da6d0b8	0.08145279
172	0xbe3124e3	-0.17299227
173	0xbf9d3148	-1.2280664
174	0xbfb06db5	-1.378348
175	0x3e15540b	0.14582841
176	0xbd295eaa	-0.041350044
177	0xbe62996a	-0.22128835
178	0xbeae7c49	-0.34079197
179	0xbf914854	-1.1350198
180	0xbf431861	-0.76209074
181	0xbe206fb9	-0.15667619
182	0xbfd2221e	-1.6416662
183	0xbf06f5d6	-0.52718866
184	0x3f3a9d8f	0.72896665
185	0x3f1f1408	0.6213994
186	0xbf69723c	-0.9118993
187	0xbfd56976	-1.6672809
188	0xbf751a21	-0.95742995
189	0x3db5591e	0.088548884
190	0xbf17c6fd	-0.5928801
191	0xbf23cd8d	-0.6398552
192	0xbeb1f722	-0.3475886
193	0xbfb1269b	-1.3839906
194	0xbf15bb99	-0.58489376
195	0xbe22ae60	-0.15886831
196	0x3e4ab822	0.19796804
197	0xbe5136f5	-0.2043112
198	0xbf72b837	-0.9481234
199	0xbea5a96b	-0.32355818
200	0xbed05241	-0.40687755
201	0x3f1fe6cf	0.6246156
202	0xbe062fae	-0.13104126
203	0x3f058939	0.5216251
204	0x3f02caa6	0.51090467
205	0xbd047711	-0.032340113
206	0xbfb654a0	-1.4244576
207	0xbd38b529	-0.045094643
208	0x3e357727	0.17721234
209	0xbf3f2ecf	-0.746808
210	0xbd4273c1	-0.047473673
211	0x3f2ab334	0.6667969
212	0xbeb293de	-0.3487844
213	0xbf044c61	-0.51679045
214	0x3ea8732e	0.32900375
215	0xbf28ea90	-0.65982914
216	0x3e3fddaa	0.18736902
217	0xbf4607ad	-0.7735546
218	0xbf03bef3	-0.5146324
219	0xbf34dca3	-0.70649165
220	0x3e8a0582	0.26957327
221	0x3eda192c	0.4259733
222	0xbf20d4c7	-0.6282467
223	0xbf5000d2	-0.8125125
224	0x3e2bcbdd	0.16776986
225	0xbcdec4d6	-0.027193468
226	0xbd367a92	-0.044550486
227	0xbf28d5f3	-0.6595146
228	0xbf8e40cc	-1.1113524
229	0xbf2f3f55	-0.6845601
230	0x3f4f1605	0.80892974
231	0x3f18927c	0.5959852
232	0xbfcffbe3	-1.6248745
233	0x3e1e7b75	0.15476783
234	0x3f355f57	0.708486
235	0xbefb208b	-0.49048266
236	0xbe0edd64	-0.13951641
237	0xbfa21d29	-1.2665149
238	0xbfaa1dba	-1.3290322
239	0xbf7bd33d	-0.983692
240	0x3f00e8cb	0.50355214
241	0xbf72c0c4	-0.94825387
242	0x3eb2b072	0.34900242
243	0xbfedb8cc	-1.857202
244	0xbd0cab3f	-0.034343
245	0xbe484e46	-0.19561109
246	0xbb213592	-0.002459858
247	0xbfc81c60	-1.5633659
248	0xbe078761	-0.13235237
249	0x3ec024e9	0.3752816
250	0x3f3dcebd	0.7414358
251	0xbefcebe4	-0.4939872
252	0x3c7732fe	0.015087841
253	0x3ea19021	0.31555274
254	0xbf5d06b0	-0.8633833
255	0xbf8094da	-1.0045426

fc2.bias f4 [27]
0	0xbe3b49f5	-0.18289931
1	0xbf6c3ef8	-0.9228358
2	0x3dcf30c1	0.10116721
3	0xbf348c16	-0.70526254
4	0x3ebd2c04	0.36947644
5	0x3c814624	0.015780516
6	0xbf85493c	-1.0412974
7	0xbf7476ac	-0.9549358
8	0xbf981550	-1.1881504
9	0xbefd082e	-0.49420303
10	0x3ef523bb	0.47878823
11	0x3e14c1ee	0.14527103
12	0x3f803245	1.0015341
13	0x3f2e4118	0.68068075
14	0x3f77912d	0.96705896
15	0x3e1490fa	0.14508429
16	0xc0217ddb	-2.5233066
17	0xc01475aa	-2.3196816
18	0x3c44302f	0.0119743785
19	0x3f582571	0.8443213
20	0x40008340	2.0080109
21	0x3fab4437	1.3380193
22	0x3f5f0e06	0.87130773
23	0x3f4cb846	0.7996868
24	0x3d9d9db7	0.07696097
25	0x3f1ed37f	0.6204147
26	0x3e886f79	0.26647547
