ckpt/classifiers/rgb_epoch_58.pth (torch, 42168 bytes, 4 tensors)

fc1.weight f4 [64, 128]
00000000: 5d20 c83d be21 3abf 2117 bc3c f36b afbe
00000010: 38a3 523e daf4 233f 263f 083f 3903 e6be
00000020: 1003 553f b2be 00bf b6bb 8a3f b768 80bf
00000030: f5b5 ac3e a535 6a3e 7632 49bf 1318 21be
00000040: 4bec f9be 09d6 943f 848f 4bbf 2eb2 8ebe
00000050: 06db 553e 1018 40bd b98a 6c3f 0791 04bf
00000060: eca7 bdbf 2f16 823d abb2 813e 4caa 383c
00000070: b081 fa3e f155 93bf 331f 783e 5e08 95be
00000080: ad8d 603e bb5d c93e 770c 3d3f 0f63 063f
00000090: 5844 183e 7a87 a7bf 8e8d a13e 40fe 3c3f
000000a0: 0463 4e3e 6dd5 b43f f8f3 823f 30f7 54bf
000000b0: 8420 a53e d791 55bf 08cb b7be 1178 1a3f
000000c0: de2b b93d acc8 28be d58c f43e 7a4d 543e
000000d0: 6f50 033e 705d 9e3e ba38 1b3f d98f 243f
000000e0: 3221 99bf aff8 c0bf b0ce 9abd 412c 053f
000000f0: f8d9 84bf 8032 723d 82a5 363f 033e c63c
00000100: 24e5 08bf 4bee 3b3f e5b7 57be fbbd a8bd
00000110: 85ce 6b3d a7a0 cdbd a971 b23e d36e 82bf
00000120: 210c 4ebe 28da d63e 8de6 76bd 8e18 14bf
00000130: c670 54bd 8e9d ad3e 0242 80bf 25d0 fd3e
00000140: 2606 36bf a9af fe3e 1f0a 75bf c3ef ad3e
00000150: a793 583d 58ec 96be b348 1d3f 23d0 85bf
00000160: 702a 313f 48c5 873e 72e1 ae3d 7296 72be
00000170: c51d 18bf 40eb 2b3e 2a34 db3e 077e 1f3f
00000180: 8c30 a8be b6a9 26bf 6e19 a63d 65d2 90bf
00000190: e447 18bf ea37 513a 0fa0 7d3f b214 d8bc
000001a0: c775 90be 4b69 3dbf 9ae0 2bbf 2d58 83be
000001b0: 8c95 9fbe aa7e 903f 25df 59bf 2a65 783f
000001c0: 65b8 d83e 1335 f43e 63be 613d cc90 1cbf
000001d0: 6ad0 703f 0f0c 923f 20c9 933f a08d 973f
000001e0: 6fd6 55bf d483 fabd c374 9bbf 5aa6 6d3f
000001f0: 6547 08bf fdb7 a1bd f495 663f 54a8 a1bf
00000200: d1cf ffbe 4d64 aebe f716 e53e 7226 edbd
00000210: 6b96 e23d ae83 763f 508f 3d3f 50b3 24bd
00000220: 79c6 ea3e b44c 60be db36 f53e 1d43 0ebf
00000230: d9e7 6d3f 5fc9 9cbd b54d 3ebe e970 89bf
00000240: 32de 143f 54ec 483f 81c1 5dbf 6c10 96be
00000250: 57b9 2d3f b823 663f 8d24 bd3f c695 de3e
00000260: ca6e 53bf 6b99 293f 2f87 0a3f 169d 84bf
00000270: b150 9c3e 7100 06bf 78a2 cabe 8fc7 45bf
00000280: a61a 783f 8496 8abf 640d 2e3e 3794 603e
00000290: a396 16be 32ff 1b3e 8e72 01bf 1057 6cbe
000002a0: b922 373e f6ed 913f 8178 a23e 228f 8c3e
000002b0: ac2c 523f 38b9 c8bf 0266 5ebf 6853 423e
000002c0: 34f5 00bf 0680 b7be c692 b43e b170 50bf
000002d0: fbb1 f1be 445a 923e 6f99 d4bc d169 0ebf
000002e0: fc9f b03e b735 293f 00ef c9be 85c7 42bf
000002f0: 21ba c5be 4e30 273f 1c53 2bbf 0199 55be
00000300: c5ac 35bd 87c6 993f 818c 043e f22a 64be
00000310: 7e76 673d b1ad 3dbe 33aa 84bd b7bc 57bf
00000320: 5630 1840 ac27 813e 817d 14be cd33 47bf
00000330: 0433 4e3e 2007 75be a63b 633d e047 35bd
00000340: ee18 50bd da56 c1be 28a0 873e 635e 80be
00000350: 9f20 de3e d027 47bf f98b 63bd ea36 81bf
00000360: 8a83 353f 9e02 373f 3357 573f 0ae4 223f
00000370: 1033 50bf b2d5 9d3e ab35 033e 3338 413f
00000380: 0d19 43be 8b0c a1be 86c0 fd3e 3da9 353f
00000390: 6717 473e 15b1 c83f 65bd bc3d f10a a5be
000003a0: 8aed 9abe e38a 1abc 31ff 943e 277b 30bf
000003b0: 40d1 0ebf 192f 563f 9866 7abf ecbd 01bf
000003c0: 3149 4a3f 2a0a 58bf c96c 803e ef6e 41be
000003d0: c1b3 ce3e 7339 743e f1e2 193f 2f05 e73e
000003e0: f639 9bbf 1065 753f 4f73 8dbf 6353 5b3f
000003f0: 3078 06bf 2822 f1bc cee6 203d 8289 cb3e
0.09771798 -0.72707736 0.022960247 -0.34262046 0.20570076 0.6404549 0.53221357 -0.44924334
0.832078 -0.5029098 1.0838535 -1.0031956 0.33732572 0.22872026 -0.7859262 -0.1573184
-0.4881309 1.1627818 -0.7951586 -0.27870315 0.20884332 -0.046897948 0.92399174 -0.51783794
-1.4816871 0.063518874 0.25331625 0.011271071 0.4892707 -1.1510602 0.24230652 -0.29107946
0.21929045 0.39329323 0.73847145 0.524949 0.14869821 -1.3088219 0.3155331 0.73825455
0.20154959 1.4127632 1.0230703 -0.8318968 0.3225137 -0.8342566 -0.35897088 0.60339457
0.0904157 -0.164828 0.47763696 0.2073268 0.12823652 0.30930662 0.6063343 0.64281994
-1.1963255 -1.5075892 -0.07558954 0.5202065 -1.0379019 0.05913019 0.71346295 0.024199491
-0.5347464 0.7341048 -0.21066244 -0.08239361 0.05757 -0.10040408 0.3485234 -1.0190071
-0.20121814 0.41963315 -0.060278464 -0.5784997 -0.05186536 0.33909267 -1.0020144 0.49572864
-0.7110313 0.49743393 -0.9571857 0.33971986 0.052875187 -0.2947719 0.61439055 -1.0454143
0.6920538 0.265177 0.08539094 -0.23690203 -0.59420425 0.1678896 0.42813236 0.6230168
-0.32849538 -0.6510271 0.08110319 -1.1314207 -0.59484696 0.0007981049 0.99072355 -0.026377056
-0.28214857 -0.7398879 -0.6713959 -0.2565321 -0.31168783 1.1288655 -0.85106117 0.97029364
0.42328182 0.47696742 0.055113208 -0.6115844 0.94068015 1.140993 1.1545753 1.1840096
-0.83530325 -0.122321755 -1.2145008 0.9283196 -0.5323394 -0.07896421 0.9007256 -1.2629495
-0.4996324 -0.34060898 0.44744083 -0.115795985 0.11063846 0.9629468 0.740468 -0.04021007
0.45854548 -0.2190426 0.47893414 -0.55571157 0.92931896 -0.07655596 -0.1858433 -1.0737582
0.58151543 0.7848561 -0.8662339 -0.29309404 0.6786093 0.8989825 1.477678 0.43473643
-0.82590926 0.6624972 0.54112524 -1.0360439 0.30530313 -0.52344424 -0.3957708 -0.7725763
0.9691566 -1.0827184 0.16997296 0.2193154 -0.14705901 0.15234068 -0.5056542 -0.23080087
0.1788434 1.1400745 0.31732562 0.27452952 0.82099414 -1.5681524 -0.868744 0.1897713
-0.5037415 -0.35839862 0.3526823 -0.81421953 -0.472061 0.28584492 -0.02595207 -0.55630213
0.34497058 0.6609759 -0.39440155 -0.7608569 -0.38618568 0.6530808 -0.6692369 -0.20859148
-0.04435422 1.2013711 0.12944223 -0.22282007 0.056509487 -0.1852329 -0.064777754 -0.8427233
2.3779502 0.2522558 -0.14501001 -0.77813417 0.20136648 -0.23928499 0.055476807 -0.044258
-0.050805025 -0.37761575 0.26489377 -0.2507201 0.43384263 -0.77795124 -0.05555341 -1.0094883
0.7090384 0.7148837 0.8411743 0.6362921 -0.81327915 0.308271 0.12813441 0.7547638
-0.19052525 -0.31454882 0.49560946 0.7096136 0.19442521 1.5679041 0.09215812 -0.3223491
-0.30259353 -0.009432527 0.29100946 -0.68937916 -0.5578804 0.83665615 -0.97812796 -0.5068042
0.7901793 -0.8439051 0.25082996 -0.18889974 0.40371516 0.2385004 0.6011191 0.45121142
-1.2127063 0.95857334 -1.1050814 0.85674113 -0.5252714 -0.029435232 0.039282613 0.39753348

fc1.bias f4 [64]
00000000: 040c 47bf bd71 b1bf 1cc4 aebf 3227 e5bf
00000010: 1051 ecbf b4cd a0bf 0f5e 91bf 7fd0 c9bf
00000020: a9f2 00c0 ad91 7abf 57cd 41bf fb76 32bf
00000030: 23b1 cbbf 5230 78bf 105d 91bf e645 a3bf
00000040: f29d 99bf 7c3c 77bf 0689 84bf bd5e c8bf
00000050: 6733 8dbf 8ff4 7dbf a55b 3bbf 7980 f2bf
00000060: 4030 69bf e186 abbf 2b80 a1bf 0a70 ccbf
00000070: 0564 94bf f915 65bf 60b3 c7bf 378d afbf
00000080: 0173 d5bf 7105 78bf 21a2 9abf 000b 90bf
00000090: eb94 8bbf 0dc1 b8bf 40ea b0bf cd0a 91bf
000000a0: 0614 7abf d0af c8bf 4014 94bf 2491 d7bf
000000b0: f1cb bfbe 0faa a1bf 42f9 41bf b57b b6bf
000000c0: 5400 b5bf 24b0 abbf 0d6e 00c0 24cc b2bf
000000d0: ff0b f8bf 4ab8 e7bf 9192 a6bf 878b 82bf
000000e0: 7c51 d1bf b426 f9bf a9c2 89bf ccd1 81bf
000000f0: df5f bbbf d949 9ebf af13 d5bf a882 9cbf
-0.7775271 -1.3862835 -1.3653598 -1.7902586 -1.8462238 -1.2562776 -1.135683 -1.5766753
-2.0148108 -0.97878534 -0.7570395 -0.697128 -1.5913433 -0.9694873 -1.1356525 -1.2755706
-1.2001326 -0.96576667 -1.0354316 -1.5653912 -1.1031312 -0.9920129 -0.73186713 -1.8945457
-0.9108925 -1.3400537 -1.2617239 -1.5971692 -1.1593024 -0.8948665 -1.5601616 -1.371497
-1.6675721 -0.968833 -1.2080728 -1.1253357 -1.0904821 -1.4433914 -1.3821487 -1.1331421
-0.97686803 -1.5678654 -1.156868 -1.6841168 -0.37460282 -1.2630023 -0.7577096 -1.4256502
-1.4140725 -1.3413129 -2.006717 -1.3968549 -1.9378661 -1.8103116 -1.3013479 -1.019883
-1.6352992 -1.9464936 -1.076253 -1.014215 -1.4638633 -1.2366287 -1.6646632 -1.2227373

fc2.weight f4 [27, 64]
00000000: 101e f4bd bdb7 59be 338a 29bf b5fd fc3c
00000010: e799 03be 074f 103e 6d0b e7be 1913 76be
00000020: 2f45 09bf 7710 03bf f9e0 a23e fc67 f43d
00000030: 3762 ed3e 22db e3be 6773 68bf 2316 ddbe
00000040: 0c26 a6be a509 24bf 2808 6cbf eb9e 713e
00000050: 2887 863d 497c e9be d9b0 0cbd 588b e0be
00000060: 96c9 64bd 4352 1fbf 6b5e 29bf 9198 10bf
00000070: 0241 23bf a45d ef3c ce48 143f 7a0b 96bc
00000080: 65d4 223f 8e43 84be 4c15 013f 2cef babb
00000090: eb18 d73e 038b 783e 6b4b b5bc 8dd6 f5be
000000a0: ca66 48bf 6a56 053f 0f97 4e3f 7f1f 443f
000000b0: 4cab 44bf 591e b6be f13d 60bc b952 e3be
000000c0: 2ed6 413f 1583 44bf 834d c1be 413a 6c3e
000000d0: 97cd e7bd e5b7 a73d 26ea b6be dfa6 74bf
000000e0: 8899 203e 10ac 013f 8964 183f 737f f63e
000000f0: 9d4e d8be 5be7 113e 0a0e f8be 1a13 a6be
00000100: 15a0 243f d1b9 36bf b273 95be 8e18 853e
00000110: 04ce 8a3c 1249 b7bf 2e56 1abf 7c4d 503f
00000120: 4944 8b3e 4d89 a83e 4322 0fbf c746 133e
00000130: debc 0cbf f4b1 cbbf ecb2 5dbe ea59 60be
00000140: b6e7 a53e 50fa 98bf c582 81bf 856e 62be
00000150: c5a9 0dbf 7dc2 7abf 51b2 ebbe fb50 8bbf
00000160: d67e 023f 00cf 5abf 760b 61bf 1746 c83e
00000170: 17d6 0fbf fdb5 933d b593 4fbf fbba b4bc
00000180: 24c5 ce3c 9915 dbbf 558b 263e 9597 46bf
00000190: 01b9 0dbf d75d 003f d1d2 b53e abb6 8bbf
000001a0: 484b bc3e f13c bb3d e7a5 3fbf bf53 9cbb
000001b0: 00fb 10bf fcc7 96be 2bb9 1b3f d987 cb3e
000001c0: ff3e d63e 0508 023f 406b 28be d837 8abd
000001d0: d518 04bf 90a2 973e f060 17be b206 77be
000001e0: 8f7a be3e 9556 d93e a117 e4be f53c 823e
000001f0: df38 08bf ece1 3f3e 2c3e c23e dbc0 98bf
00000200: 2ac1 82be 84b5 fcbf 0989 003f 74de 74bf
00000210: ee84 89be fe4f b2bf d9e2 cabf 499a d6be
00000220: 2e13 b23e 071d 2b3f 4d3b c3bf 6654 b5bf
00000230: da67 9fbf 8e6a 79bf a317 cb3e f80f b7be
00000240: 49f9 603e d301 3cbf 71b3 85bd e67c 403e
00000250: 836b c8bf 352e 97bf bac4 0cbf 3ac0 a1bf
00000260: a814 4f3d f9e7 9dbf a56f 5dbe ea28 11bf
00000270: 659a 4c3f 770c 28bf bc99 4ebf 6401 fcbe
00000280: c2a8 83be f369 23bf b1af b1bf 70f3 36bf
00000290: 7d3a 89bf 3721 aebd d884 b9bf 7799 5fbf
000002a0: 18b0 b03d 51fd a93e 2e55 ebbe fed3 a63d
000002b0: 6c22 31be 322f 9dbf a06d b0bf 334d 153e
000002c0: a24f 29bd 2c99 62be 3a7c aebe 5348 91bf
000002d0: 3818 43bf 0670 20be e221 d2bf b6f5 06bf
000002e0: ee9b 3a3f 9314 1f3f 1b72 69bf 5b69 d5bf
000002f0: f319 75bf 1e59 b53d 9ec5 17bf 4dcd 23bf
00000300: fdf6 b1be 9826 b1bf 94bb 15bf 65ae 22be
00000310: 1db8 4a3e 9636 51be 16b8 72bf 85a8 a5be
00000320: 0853 d0be 1bed 1f3f 5c4c 06be 8285 053f
00000330: a4cf 023f b667 04bd 9b54 b6bf 8bb2 38bd
00000340: 096b 353e 252e 3fbf 2c73 42bd 2eb0 2a3f
00000350: 468e b2be 544c 04bf a582 a83e acf4 28bf
00000360: 70c2 3f3e a707 46bf 47bd 03bf 8bdc 34bf
00000370: c210 8a3e 9316 da3e 15d4 20bf c300 50bf
00000380: 5dc8 2b3e 3ebe debc 7971 36bd 42c8 28bf
00000390: c840 8ebf 553f 2fbf 5d13 4f3f a2aa 183f
000003a0: d3fb cfbf d67c 1e3e 6b5f 353f a120 fbbe
000003b0: bdd9 0ebe 091d a2bf 951d aabf 31d3 7bbf
000003c0: 4ee9 003f f9bf 72bf cfd5 b23e c1b8 edbf
000003d0: 5c67 0bbd 404e 48be 108c 21bb 4c1c c8bf
000003e0: 0388 07be 5e1d c03e 12cf 3d3f 99ee fcbe
000003f0: 0b39 773c 2c90 a13e 8c06 5dbf d794 80bf
-0.119197965 -0.21261497 -0.662265 0.030882696 -0.12851678 0.14092647 -0.45125905 -0.24030723
-0.5362119 -0.51197 0.31812266 0.11933896 0.46363994 -0.44503123 -0.9080109 -0.4318095
-0.32450902 -0.64077216 -0.92199945 0.23595779 0.06568748 -0.45602635 -0.034348343 -0.4385631
-0.05585631 -0.62234896 -0.66159695 -0.564828 -0.6377107 0.029219456 0.5792359 -0.01831602
0.6360534 -0.2583279 0.5042312 -0.005704781 0.42011198 0.24271779 -0.022130689 -0.48015252
-0.78281844 0.5208498 0.8069925 0.7661056 -0.7682388 -0.35570028 -0.013686643 -0.4439905
0.7571744 -0.76762515 -0.3775445 0.23069097 -0.1131851 0.08189372 -0.35725516 -0.95567125
0.15683568 0.5065317 0.59528404 0.4814411 -0.42247477 0.14248411 -0.4844821 -0.32436448
0.64306766 -0.71377283 -0.2918983 0.25995296 0.016943939 -1.4319174 -0.6028775 0.8136823
0.27200535 0.32917252 -0.55911654 0.14382468 -0.5497569 -1.5913682 -0.21650285 -0.219093
0.32403344 -1.1951389 -1.0118033 -0.22112472 -0.5533717 -0.97953016 -0.46034482 -1.0884088
0.50974786 -0.85472107 -0.87908113 0.39115974 -0.5618605 0.07212446 -0.8108476 -0.022061815
0.025240488 -1.7115966 0.16264088 -0.77575046 -0.5536042 0.5014319 0.35512403 -1.0915121
0.36776185 0.09142483 -0.7486252 -0.0047707255 -0.56632996 -0.2944945 0.6082942 0.3975208
0.41844937 0.50793487 -0.16447163 -0.067489326 -0.5160039 0.29616213 -0.14783072 -0.24123648
0.3720288 0.4244887 -0.44549277 0.25437132 -0.5321178 0.18738526 0.37938058 -1.1933855
-0.25537997 -1.9742894 0.502091 -0.95651937 -0.2685923 -1.3930662 -1.5850478 -0.41914585
0.34780258 0.6684117 -1.5252472 -1.4166381 -1.2453568 -0.97428215 0.3966647 -0.3575437
0.21970095 -0.73440284 -0.06528366 0.18797645 -1.565781 -1.1810976 -0.5498768 -1.2636788
0.05055681 -1.2336417 -0.2162462 -0.56703055 0.7992309 -0.6564402 -0.8070333 -0.4921981
-0.2571469 -0.6383354 -1.3881742 -0.71465206 -1.0720974 -0.08502429 -1.4493666 -0.87343544
0.08627337 0.33201078 -0.45963424 0.08145903 -0.17298287 -1.2280028 -1.3783455 0.1458023
-0.04133571 -0.22128743 -0.34079152 -1.1350197 -0.7620883 -0.15667734 -1.641659 -0.52718675
0.7289418 0.6214077 -0.91189736 -1.6672777 -0.9574272 0.088548884 -0.59285915 -0.6398514
-0.3475875 -1.3839903 -0.58489347 -0.15886839 0.19796796 -0.20430979 -0.9481214 -0.32355133
-0.40688348 0.6247117 -0.13115066 0.5215684 0.51098084 -0.03232547 -1.424457 -0.045092147
0.17716612 -0.74679786 -0.047473118 0.6667508 -0.3487417 -0.5167897 0.32912174 -0.6599834
0.18726516 -0.77355427 -0.5146069 -0.7064902 0.2696591 0.42595348 -0.6282361 -0.8125116
0.16775651 -0.027190324 -0.04454181 -0.6593057 -1.111352 -0.6845601 0.8088892 0.59635365
-1.6248726 0.15477309 0.7084872 -0.4904833 -0.13950248 -1.2665111 -1.3290278 -0.9836913
0.50355995 -0.9482418 0.34928748 -1.8572007 -0.034034118 -0.195611 -0.0024650134 -1.5633636
-0.13235478 0.37522405 0.7414409 -0.49400786 0.015089284 0.31555307 -0.86338115 -1.0045422

fc2.bias f4 [27]
00000000: c840 3bbe 1a3f 6cbf fb73 cf3d 938f 34bf
00000010: 8530 bd3e 6d26 813c 5248 85bf d071 74bf
00000020: 2b14 98bf 3704 fdbe 8a1b f53e 1bb5 143e
00000030: 872e 803f 8745 2e3f 228a 773f 16b6 143e
00000040: 467d 21c0 a473 14c0 d834 423c ff20 583f
00000050: 1481 0040 8b47 ab3f 9310 5f3f 1ab8 4c3f
00000060: 2085 9d3d 41ce 1e3f ff71 883e
-0.18286431 -0.92283785 0.101295434 -0.70531577 0.3695108 0.015765393 -1.0412695 -0.95486164
-1.1881155 -0.49417278 0.47872573 0.14522211 1.0014199 0.6807484 0.9669515 0.14522585
-2.523271 -2.3195581 0.011853419 0.8442535 2.0078783 1.3381208 0.87134665 0.79968417
0.07691407 0.6203347 0.26649472
