ckpt/classifiers/rgb_epoch_42.pth (torch, 42168 bytes, 4 tensors)

fc1.weight f4 [64, 128]
0.09524062 -0.7253427 0.023194917 -0.3393765 0.20545314 0.6389617 0.5333027 -0.4479398
0.82844424 -0.5015818 1.0813854 -0.9993793 0.3398537 0.22498037 -0.7866898 -0.15949471
-0.48776317 1.1644775 -0.7983816 -0.28186306 0.20627928 -0.050547507 0.9218692 -0.51653963
-1.4841708 0.060082257 0.25160664 0.014783756 0.49199077 -1.1503886 0.24562764 -0.2912716
0.21925274 0.39755574 0.7394352 0.5261817 0.15097992 -1.3119279 0.32008472 0.7398299
0.20339951 1.4100902 1.0231745 -0.8311426 0.32482484 -0.8317919 -0.3569891 0.6027507
0.090435326 -0.16217639 0.47267148 0.20810026 0.13075009 0.30405617 0.609409 0.63946825
-1.1981431 -1.5080504 -0.0782633 0.5228393 -1.0399473 0.054811694 0.7105032 0.021381868
-0.53667814 0.7333316 -0.2137045 -0.08269443 0.06153352 -0.10639432 0.35383612 -1.0186993
-0.2003646 0.4240961 -0.059692327 -0.5738372 -0.049378462 0.34333155 -0.99764276 0.49085557
-0.71016264 0.49417403 -0.9566978 0.33851415 0.053710435 -0.29318985 0.6088641 -1.0431874
0.6890925 0.26574054 0.08203057 -0.23386183 -0.59362096 0.16726677 0.42969868 0.61968905
-0.33015096 -0.6534192 0.084165856 -1.1265175 -0.59402484 0.0011697672 0.9889542 -0.024527876
-0.28124526 -0.7373665 -0.67145747 -0.2566744 -0.31341183 1.132639 -0.84980696 0.9717267
0.42561486 0.47927827 0.054441977 -0.6125384 0.94351465 1.1370114 1.1530442 1.1786107
-0.8394317 -0.120613776 -1.2126664 0.92856616 -0.5301708 -0.07821549 0.90047663 -1.2641889
-0.5007443 -0.34234318 0.44700655 -0.11414347 0.11129061 0.9640907 0.74059784 -0.039982624
0.45838985 -0.21746193 0.47867718 -0.55702764 0.93000925 -0.0764712 -0.18558225 -1.071617
0.5819591 0.78482264 -0.865447 -0.29166844 0.6795277 0.9004529 1.4774805 0.4340711
-0.8263732 0.6627521 0.5416263 -1.0354453 0.30360192 -0.52421683 -0.3945245 -0.77243406
0.96988773 -1.0835145 0.16901527 0.21865344 -0.14760444 0.15339436 -0.5054658 -0.2304523
0.17929453 1.1403737 0.31788087 0.2732792 0.8202169 -1.5676945 -0.8688533 0.1895457
-0.5051863 -0.35867557 0.3517208 -0.8137198 -0.4721175 0.28605285 -0.026173007 -0.55697125
0.34604117 0.66249406 -0.39439335 -0.7608386 -0.38657373 0.6526244 -0.6701704 -0.2082123
-0.04354888 1.1996127 0.12986243 -0.22447862 0.056820728 -0.18442595 -0.06539976 -0.8426
2.376895 0.25252807 -0.14406614 -0.7789424 0.20187606 -0.24017319 0.057030585 -0.044133775
-0.0506982 -0.37722787 0.2652264 -0.2501611 0.4332365 -0.7782274 -0.055488877 -1.0103909
0.7098559 0.7144957 0.8423728 0.6375457 -0.81373525 0.30813017 0.1281523 0.75587106
-0.19061406 -0.31274948 0.4955376 0.71160704 0.19467478 1.5669689 0.091203675 -0.32419747
-0.30144587 -0.0101806605 0.29193494 -0.6898514 -0.55852044 0.8363187 -0.9788061 -0.5070916
0.79001725 -0.84432024 0.25086737 -0.1900663 0.40351158 0.23863903 0.600642 0.4517426
-1.2119309 0.95908445 -1.1035471 0.85648584 -0.5264626 -0.031120123 0.038154185 0.39872804
00000000: 840d c33d 0fb0 39bf 4403 be3c c2c2 adbe
00000010: 4f62 523e fe92 233f 8786 083f 5e58 e5be
00000020: ec14 543f aa67 00bf d66a 8a3f 52d7 7fbf
00000030: 4e01 ae3e 4161 663e 8164 49bf 9552 23be
00000040: 18bc f9be 990d 953f bd62 4cbf 5b50 90be
00000050: e03a 533e e70a 4fbd 9fff 6b3f f13b 04bf
00000060: 4ff9 bdbf d018 763d 96d2 803e 9137 723c
00000070: 37e6 fb3e ef3f 93bf d085 7b3e 8d21 95be
00000080: ca83 603e 6d8c cb3e a04b 3d3f d8b3 063f
00000090: 7b9a 1a3e 41ed a7bf 25e2 a33e 7e65 3d3f
000000a0: f647 503e d67d b43f 62f7 823f c3c5 54bf
000000b0: 714f a63e 50f0 54bf 46c7 b6be df4d 1a3f
000000c0: 2836 b93d 9111 26be ff01 f23e 3c18 553e
000000d0: 5ae3 053e 40ad 9b3e 3a02 1c3f 31b4 233f
000000e0: c15c 99bf cc07 c1bf 8248 a0bd ccd8 053f
000000f0: fe1c 85bf 3a82 603d 8ae3 353f 0729 af3c
00000100: bd63 09bf 9fbb 3b3f 5ad5 5abe b35b a9bd
00000110: 930a 7c3d 44e5 d9bd 022a b53e bd64 82bf
00000120: 612c 4dbe 2023 d93e f17f 74bd ffe6 12bf
00000130: 1241 4abd 27c9 af3e 8465 7fbf 6c51 fb3e
00000140: 38cd 35bf 6104 fd3e 26ea 74bf ba51 ad3e
00000150: 79ff 5b3d fb1c 96be 85de 1b3f 2a87 85bf
00000160: 5e68 303f 250f 883e a5ff a73d 7a79 6fbe
00000170: 8bf7 17bf fb47 2b3e 7701 dc3e f1a3 1e3f
00000180: 8c09 a9be 7b46 27bf 265f ac3d ba31 90bf
00000190: 0312 18bf e052 993a 1a2c 7d3f afee c8bc
000001a0: 61ff 8fbe 0dc4 3cbf a3e4 2bbf d46a 83be
000001b0: 8477 a0be 51fa 903f f38c 59bf 15c3 783f
000001c0: 31ea d93e f663 f53e 8dfe 5e3d 51cf 1cbf
000001d0: 2d8a 713f 9789 913f f496 933f b7dc 963f
000001e0: ffe4 56bf 5b04 f7bd a738 9bbf 83b6 6d3f
000001f0: 46b9 07bf 712f a0bd a385 663f f1d0 a1bf
00000200: c730 00bf 9b47 afbe 0bde e43e 0dc4 e9bd
00000210: 55ec e33d a6ce 763f d297 3d3f d2c4 23bd
00000220: 13b2 ea3e 57ae 5ebe 2d15 f53e 5d99 0ebf
00000230: 1615 6e3f ef9c 9cbd 4609 3ebe bf2a 89bf
00000240: 46fb 143f 23ea 483f ef8d 5dbf 9155 95be
00000250: 87f5 2d3f 1584 663f 151e bd3f 913e de3e
00000260: 328d 53bf 1faa 293f 05a8 0a3f 7989 84bf
00000270: b671 9b3e 1333 06bf 1eff c9be 3dbe 45bf
00000280: 904a 783f 9ab0 8abf 5712 2d3e b0e6 5f3e
00000290: 9e25 17be 6913 1d3e 3566 01bf b0fb 6bbe
000002a0: fc98 373e c4f7 913f 48c1 a23e 40eb 8b3e
000002b0: bcf9 513f 37aa c8bf 2b6d 5ebf 4518 423e
000002c0: e453 01bf 53a4 b7be c014 b43e f14f 50bf
000002d0: 63b9 f1be 8575 923e c668 d6bc ab95 0ebf
000002e0: 4f2c b13e 3699 293f eded c9be 52c6 42bf
000002f0: feec c5be 6512 273f 4a90 2bbf 9b35 55be
00000300: 4f60 32bd e98c 993f a8fa 043e b9dd 65be
00000310: dabc 683d 28da 3cbe 4ff0 85bd a2b4 57bf
00000320: 0c1f 1840 5c4b 813e 1386 13be c568 47bf
00000330: 99b8 4e3e f6ef 75be e798 693d 9ec5 34bd
00000340: eaa8 4fbd 0324 c1be c1cb 873e 1e15 80be
00000350: 2dd1 dd3e e939 47bf 4e48 63bd 7d54 81bf
00000360: 1eb9 353f 31e9 363f bea5 573f 3236 233f
00000370: f450 50bf 3dc3 9d3e 5b3a 033e c480 413f
00000380: 5530 43be b320 a0be 1bb7 fd3e e12b 363f
00000390: d358 473e 7092 c83f fec8 ba3d 36fd a5be
000003a0: 1d57 9abe c9cc 26bc 7f78 953e 1a9a 30bf
000003b0: 32fb 0ebf fb18 563f 0993 7abf c1d0 01bf
000003c0: 923e 4a3f 5f25 58bf b071 803e bda0 42be
000003d0: 1299 ce3e ca5d 743e adc3 193f ce4a e73e
000003e0: 8d20 9bbf 8f86 753f 0841 8dbf a842 5b3f
000003f0: 41c6 06bf a1ef febc 9047 1c3d 1526 cc3e

fc1.bias f4 [64]
-0.7800353 -1.3860015 -1.3660911 -1.7883159 -1.8463796 -1.259712 -1.1364716 -1.5825193
-2.0152767 -0.9768545 -0.7569344 -0.69854766 -1.5938743 -0.9738655 -1.1362439 -1.2822299
-1.2026831 -0.9646607 -1.0360088 -1.5663779 -1.0977178 -0.9938002 -0.7338542 -1.8911715
-0.91325176 -1.3418437 -1.266593 -1.6009918 -1.1610745 -0.8947906 -1.5624621 -1.3734958
-1.6679035 -0.96938795 -1.2087117 -1.1290871 -1.0941635 -1.4442399 -1.3825116 -1.1337575
-0.9798298 -1.5692722 -1.1570133 -1.6841865 -0.3771603 -1.2647262 -0.76112896 -1.4263384
-1.4127438 -1.3440455 -2.0050309 -1.3990041 -1.9383597 -1.8116467 -1.3018116 -1.0209597
-1.6371561 -1.9475579 -1.078657 -1.0120996 -1.466053 -1.2361867 -1.6653984 -1.2276808
00000000: 65b0 47bf 7f68 b1bf 13dc aebf 89e7 e4bf
00000010: 2b56 ecbf 3e3e a1bf e777 91bf fe8f cabf
00000020: 4bfa 00c0 2313 7abf 74c6 41bf 05d4 32bf
00000030: 1304 ccbf 404f 79bf 7170 91bf 1c20 a4bf
00000040: 85f1 99bf 01f4 76bf f09b 84bf 127f c8bf
00000050: 0482 8cbf b169 7ebf dedd 3bbf e811 f2bf
00000060: deca 69bf 89c1 abbf b81f a2bf 4ded ccbf
00000070: 179e 94bf ff10 65bf c2fe c7bf b6ce afbf
00000080: dd7d d5bf cf29 78bf 11b7 9abf ed85 90bf
00000090: 8d0d 8cbf dadc b8bf 24f6 b0bf f71e 91bf
000000a0: 20d6 7abf e9dd c8bf 0319 94bf 6c93 d7bf
000000b0: 281b c1be 8ce2 a1bf 59d9 42bf 4292 b6bf
000000c0: cad4 b4bf af09 acbf 6d52 00c0 9112 b3bf
000000d0: 2c1c f8bf 0ae4 e7bf c3a1 a6bf cfae 82bf
000000e0: 558e d1bf 9449 f9bf 6f11 8abf 7b8c 81bf
000000f0: a0a7 bbbf 5e3b 9ebf c62b d5bf a524 9dbf

fc2.weight f4 [27, 64]
-0.119178906 -0.21259782 -0.66222864 0.03099699 -0.12851678 0.14286852 -0.4510291 -0.23993203
-0.53619397 -0.5145891 0.3174864 0.11592922 0.46381992 -0.44434047 -0.9075873 -0.43176025
-0.3240314 -0.64051205 -0.9218038 0.23572358 0.065841496 -0.45599058 -0.033531226 -0.43753573
-0.054925982 -0.6223321 -0.6614788 -0.5646261 -0.63761103 0.030434035 0.5789318 -0.01993645
0.6358082 -0.25812253 0.5063574 -0.0069983453 0.42023948 0.24307887 -0.022228327 -0.47930503
-0.7825509 0.5186637 0.80568725 0.7671652 -0.7688299 -0.35560513 -0.013519867 -0.44367665
0.7584591 -0.76754105 -0.37752482 0.22957657 -0.11317935 0.08361156 -0.35659656 -0.95548105
0.15733188 0.5053206 0.59295386 0.48145628 -0.42243585 0.1424712 -0.484374 -0.32424274
0.64417636 -0.7135965 -0.29182553 0.2599576 0.016786113 -1.4318887 -0.60282797 0.81349957
0.27200535 0.3296906 -0.55878156 0.14401306 -0.54957867 -1.5909207 -0.21633461 -0.21894759
0.32305294 -1.1947482 -1.0117892 -0.22105269 -0.5533571 -0.979513 -0.46028024 -1.0882963
0.5080094 -0.85469854 -0.87878466 0.39097393 -0.5618209 0.07235386 -0.8108445 -0.021348534
0.023354262 -1.7115521 0.16288005 -0.77574027 -0.55353117 0.5008649 0.35520986 -1.0913447
0.3638011 0.09314099 -0.74846727 -0.0047566607 -0.5670486 -0.29409543 0.6048113 0.3937289
0.41718313 0.50508857 -0.16447046 -0.07006197 -0.51599956 0.29526407 -0.14689559 -0.24105407
0.37262064 0.4239813 -0.44591624 0.25385597 -0.53206027 0.18738526 0.37651113 -1.1933166
-0.25414297 -1.974275 0.5033318 -0.95624125 -0.2685923 -1.3929359 -1.5849506 -0.4190154
0.34856758 0.6756559 -1.5202527 -1.4164801 -1.2452896 -0.97305274 0.39787272 -0.35686767
0.22135277 -0.73410267 -0.065134816 0.18874653 -1.5657794 -1.1810822 -0.5490997 -1.262784
0.05062099 -1.2333591 -0.21498947 -0.5666115 0.8028307 -0.65544486 -0.8069868 -0.49215105
-0.25709936 -0.63829976 -1.3880274 -0.71377575 -1.0718786 -0.08498684 -1.4491618 -0.8731508
0.08636394 0.33206475 -0.4596082 0.08164433 -0.17206086 -1.2275745 -1.3782777 0.14307497
-0.041156754 -0.2211139 -0.34079033 -1.1350148 -0.7620009 -0.15681285 -1.6415507 -0.52703756
0.73020375 0.6240815 -0.91180104 -1.667073 -0.9573727 0.088548884 -0.5907279 -0.63967973
-0.34745213 -1.3839823 -0.5848876 -0.15874718 0.1979429 -0.20425993 -0.9480695 -0.32326514
-0.40719536 0.6262403 -0.13106978 0.5212905 0.5117472 -0.03047264 -1.4244301 -0.045023415
0.17528817 -0.7464645 -0.04748731 0.6685672 -0.34846863 -0.5166779 0.3296625 -0.66111624
0.18825337 -0.7735414 -0.51347995 -0.7064067 0.27119502 0.4247681 -0.6282094 -0.81089133
0.16795488 -0.027163118 -0.04542465 -0.65892553 -1.111138 -0.6845511 0.80798537 0.59830254
-1.6246892 0.15550293 0.70952326 -0.49047345 -0.1391915 -1.2664753 -1.3242152 -0.98364913
0.5026216 -0.9481438 0.349912 -1.8571966 -0.034004092 -0.19470473 -0.0031880282 -1.5630374
-0.1326338 0.37459552 0.7425458 -0.49647653 0.015173984 0.31555498 -0.8632156 -1.004496
00000000: 1214 f4bd 3eb3 59be d187 29bf 66ed fd3c
00000010: e799 03be 204c 123e 49ed e6be beb0 75be
00000020: 0244 09bf 1cbc 03bf 948d a23e 4d6c ed3d
00000030: ce79 ed3e 9880 e3be a457 68bf ae0f ddbe
00000040: 72e7 a5be 99f8 23bf 55fb 6bbf 8661 713e
00000050: e8d7 863d 9977 e9be 0a58 09bd af04 e0be
00000060: 11fa 60bd 2851 1fbf ad56 29bf 568b 10bf
00000070: 7a3a 23bf cc50 f93c e034 143f c451 a3bc
00000080: 54c4 223f a328 84be a3a0 013f 6052 e5bb
00000090: a129 d73e abe9 783e 2e18 b6bc 7867 f5be
000000a0: 4155 48bf 25c7 043f 8541 4e3f f064 443f
000000b0: 09d2 44bf e011 b6be 6f82 5dbc 9629 e3be
000000c0: 602a 423f 927d 44bf ef4a c1be 1f16 6b3e
000000d0: 93ca e7bd 8a3c ab3d d393 b6be 689a 74bf
000000e0: 9c1b 213e b15c 013f d3cb 173f 7081 f63e
000000f0: 8349 d8be f8e3 113e deff f7be 2503 a6be
00000100: bee8 243f 43ae 36bf 286a 95be 2a19 853e
00000110: 0883 893c 2148 b7bf ef52 1abf 8241 503f
00000120: 4944 8b3e 35cd a83e 4f0c 0fbf 2978 133e
00000130: 30b1 0cbf 4aa3 cbbf d286 5dbe cc33 60be
00000140: 3267 a53e 82ed 98bf 4f82 81bf a35b 62be
00000150: d0a8 0dbf 5dc1 7abf daa9 ebbe 4b4d 8bbf
00000160: e70c 023f 86cd 5abf 08f8 60bf bc2d c83e
00000170: 7fd3 0fbf 432e 943d 8193 4fbf 1fe3 aebc
00000180: 7051 bf3c 2414 dbbf 07ca 263e ea96 46bf
00000190: 38b4 0dbf af38 003f 11de b53e 2fb1 8bbf
000001a0: 2344 ba3e b4c0 be3d 8d9b 3fbf c3dd 9bbb
000001b0: 192a 11bf ad93 96be ead4 1a3f d696 c93e
000001c0: 0799 d53e 7c4d 013f f26a 28be a67c 8fbd
000001d0: 8c18 04bf da2c 973e cc6b 16be e1d6 76be
000001e0: 22c8 be3e 1414 d93e 224f e4be 69f9 813e
000001f0: 1a35 08bf ece1 3f3e 11c6 c03e 99be 98bf
00000200: 071f 82be 0bb5 fcbf 5ada 003f 3acc 74bf
00000210: ee84 89be b94b b2bf a9df cabf 3089 d6be
00000220: 7377 b23e c9f7 2c3f a497 c2bf 384f b5bf
00000230: a665 9fbf fc19 79bf f9b5 cb3e 5cb7 b6be
00000240: 4daa 623e 27ee 3bbf 6765 85bd c546 413e
00000250: 766b c8bf b42d 97bf cc91 0cbf e8a2 a1bf
00000260: f557 4f3d b6de 9dbf 3326 5cbe 740d 11bf
00000270: 5086 4d3f 3ccb 27bf b096 4ebf 39fb fbbe
00000280: 87a2 83be 9d67 23bf e2aa b1bf 02ba 36bf
00000290: 5133 89bf 950d aebd 227e b9bf d086 5fbf
000002a0: 94df b03d 6404 aa3e c451 ebbe 2435 a73d
000002b0: b930 30be 2921 9dbf 676b b0bf 3f82 123e
000002c0: fc93 28bd af6b 62be 127c aebe 2a48 91bf
000002d0: 7e12 43bf 8c93 20be 551e d2bf efeb 06bf
000002e0: a2ee 3a3f cec3 1f3f cb6b 69bf a662 d5bf
000002f0: 6116 75bf 1e59 b53d f239 17bf 0dc2 23bf
00000300: 3fe5 b1be 5526 b1bf 32bb 15bf 9f8e 22be
00000310: 8bb1 4a3e 8429 51be afb4 72bf 0283 a5be
00000320: e97b d0be 4951 203f 2837 06be 4b73 053f
00000330: dd01 033f c2a1 f9bc ba53 b6bf 796a 38bd
00000340: be7e 333e 4c18 3fbf 0e82 42bd 3827 2b3f
00000350: 7b6a b2be 0145 04bf 86c9 a83e ea3e 29bf
00000360: 7ec5 403e cf06 46bf 6c73 03bf 12d7 34bf
00000370: 13da 8a3e 347b d93e 55d2 20bf 9396 4fbf
00000380: 5dfc 2b3e 3085 debc 330f 3abd 58af 28bf
00000390: c539 8ebf be3e 2fbf 21d8 4e3f 5b2a 193f
000003a0: d1f5 cfbf 293c 1f3e 51a3 353f 561f fbbe
000003b0: 3788 0ebe dd1b a2bf e27f a9bf 6ed0 7bbf
000003c0: cfab 003f 8db9 72bf aa27 b33e 9eb8 edbf
000003d0: e047 0bbd ad60 47be 3dee 50bb 9c11 c8bf
000003e0: 28d1 07be fcca bf3e 7b17 3e3f 2c32 febe
000003f0: 4d9c 783c 6c90 a13e b3fb 5cbf 5393 80bf

fc2.bias f4 [27]
-0.1813226 -0.9255247 0.10337035 -0.7059732 0.36535686 0.014586761 -1.0385627 -0.9511948
-1.1875184 -0.4926982 0.4808983 0.14605045 1.0010527 0.6834771 0.9654518 0.1458963
-2.52123 -2.3159034 0.010478486 0.8410109 2.000773 1.3382728 0.8726127 0.80097806
0.078401975 0.6143496 0.26777446
00000000: a2ac 39be 30ef 6cbf d6b3 d33d a9ba 34bf
00000010: 0e10 bb3e 4ffd 6e3c 9fef 84bf 8181 73bf
00000020: 9a00 98bf f042 fcbe 4d38 f63e 408e 153e
00000030: 7f22 803f 5bf8 2e3f d927 773f d765 153e
00000040: d55b 21c0 c337 14c0 f5ad 2b3c 7e4c 573f
00000050: aa0c 0040 864c ab3f 8c63 5f3f e60c 4d3f
00000060: 3791 a03d 0446 1d3f bc19 893e
