ckpt/classifiers/rgb_epoch_44.pth (torch, 42168 bytes, 4 tensors)

fc1.weight f4 [64, 128]
000000 85 5d c4 3d 98 f0 39 bf ec 69 c1 3c e8 30 ae be
       0.0958815 -0.7263274 0.023610078 -0.34021688
000010 05 59 52 3e 88 cf 23 3f 32 86 08 3f f4 b1 e5 be
       0.20541771 0.6398854 0.53329766 -0.4486233
000020 e5 7c 54 3f 82 9b 00 bf d7 9a 8a 3f 41 30 80 bf
       0.83003074 -0.50237286 1.0828503 -1.0014726
000030 67 8e ad 3e 7d 7c 67 3e 04 59 49 bf 78 dd 21 be
       0.33897707 0.22606082 -0.7865145 -0.1580714
000040 cd d3 f9 be 91 06 95 3f b2 19 4c bf f8 db 8f be
       -0.48794404 1.1642629 -0.7972671 -0.2809751
000050 79 66 54 3e 30 95 48 bd 2d 5c 6c 3f 01 52 04 bf
       0.20742215 -0.0489704 0.9232815 -0.5168763
000060 32 dd bd bf be 43 7b 3d 52 cf 80 3e f2 e7 5a 3c
       -1.4833128 0.0613439 0.25158173 0.013360964
000070 07 33 fb 3e 64 56 93 bf 05 7c 7a 3e ae 81 95 be
       0.49062368 -1.1510739 0.24461372 -0.292005
000080 e9 24 60 3e b7 dc ca 3e fd 0f 3d 3f 61 a0 06 3f
       0.2188908 0.39621517 0.7385252 0.5258847
000090 7a 66 1a 3e d7 b7 a7 bf 4e ba a2 3e bf 4b 3d 3f
       0.15078154 -1.3102978 0.31782764 0.73943704
0000a0 62 24 4f 3e 13 9d b4 3f a5 01 83 3f f7 ca 54 bf
       0.20228723 1.4110435 1.0234877 -0.831222
0000b0 7f c2 a5 3e 11 35 55 bf 27 25 b7 be e6 8c 1a 3f
       0.3237495 -0.832841 -0.35770532 0.60371244
0000c0 94 cd b7 3d a2 49 27 be 1b e3 f2 3e d2 8d 55 3e
       0.08974758 -0.16336682 0.47438893 0.20854881
0000d0 d9 47 05 3e 6b c8 9c 3e a5 8d 1b 3f 44 f7 23 3f
       0.13015689 0.30621657 0.6076301 0.6404917
0000e0 50 4a 99 bf 87 f6 c0 bf 57 60 9e bd 3c a4 05 3f
       -1.1975803 -1.5075234 -0.07733219 0.52203727
0000f0 30 07 85 bf 12 67 69 3d 0e 1b 36 3f f8 57 ba 3c
       -1.0392818 0.05698306 0.7113503 0.022747025
000100 89 2f 09 bf 21 b0 3b 3f 5f fb 59 be 87 f6 a9 bd
       -0.5358816 0.73315626 -0.21287297 -0.082989745
000110 8f fc 74 3d 1f 89 d4 bd ac e8 b3 3e e2 6c 82 bf
       0.05981117 -0.10377716 0.35138452 -1.0189478
000120 1c b0 4d be 7b 09 d8 3e 0d b7 74 bd 23 6e 13 bf
       -0.20086712 0.42194733 -0.059744883 -0.5758993
000130 16 a3 4a bd c8 d7 ae 3e 4e d4 7f bf 91 51 fc 3e
       -0.049471937 0.34149003 -0.99933326 0.4928098
000140 de d4 35 bf 0e 77 fd 3e ec e0 74 bf 91 55 ad 3e
       -0.71027935 0.49504894 -0.95655704 0.33854344
000150 47 12 59 3d 25 66 96 be f0 6b 1c 3f 4f ac 85 bf
       0.052995946 -0.29374805 0.611022 -1.044321
000160 5b d7 30 3f 8c cf 87 3e bc f0 aa 3d 07 55 70 be
       0.69078606 0.26525533 0.08346698 -0.23469935
000170 16 fc 17 bf 1c 80 2b 3e 42 09 dc 3e 4d fa 1e 3f
       -0.5936903 0.16748089 0.42975813 0.6210068
000180 96 c1 a8 be 54 da 26 bf dd 5c a9 3d f8 6c 90 bf
       -0.32960194 -0.6517689 0.082696654 -1.1283255
000190 a3 f3 17 bf e6 36 b1 3a 77 67 7d 3f 85 99 d3 bc
       -0.59356135 0.0013520389 0.98986 -0.02583004
0001a0 dd 20 90 be 43 0c 3d bf 7f c6 2b bf 00 74 83 be
       -0.28150073 -0.73846835 -0.67099756 -0.25674438
0001b0 4e 37 a0 be cc b4 90 3f a0 c5 59 bf 53 b8 78 3f
       -0.31292194 1.1305175 -0.85067177 0.97156256
0001c0 8b fc d8 3e 58 a8 f4 3e d3 9f 60 3d 63 bf 1c bf
       0.42380175 0.47784686 0.05483992 -0.6122953
0001d0 74 36 71 3f b2 d1 91 3f d0 9b 93 3f a2 26 97 3f
       0.94223714 1.1392119 1.1531925 1.1808665
0001e0 c5 5c 56 bf 1d 94 f7 bd fc 46 9b bf 79 9b 6d 3f
       -0.83735305 -0.12088797 -1.2131038 0.9281536
0001f0 fa 05 08 bf ab 08 a2 bd 05 51 66 3f 63 c6 a1 bf
       -0.5313412 -0.079118095 0.89967376 -1.2638668
000200 87 20 00 bf 39 b4 ae be 81 f8 e4 3e f0 48 eb bd
       -0.5004963 -0.34121874 0.44720843 -0.11488521
000210 37 e9 e2 3d 06 aa 76 3f e7 93 3d 3f 5b 3d 24 bd
       0.110796385 0.96353185 0.74053806 -0.040097576
000220 02 8f ea 3e 03 77 5f be 19 2d f5 3e e2 58 0e bf
       0.4581223 -0.21822743 0.4788597 -0.55604374
000230 4b 1b 6e 3f 0a 2e 9d bd 38 7e 3d be b1 4f 89 bf
       0.93010396 -0.07674797 -0.1850518 -1.0727445
000240 1a eb 14 3f 9d 0f 49 3f d1 ae 5d bf ac ac 95 be
       0.58171237 0.7853945 -0.86594874 -0.292333
000250 c3 d4 2d 3f f6 5f 66 3f 1b 26 bd 3f 62 a7 de 3e
       0.67902774 0.89990175 1.4777254 0.43487078
000260 7a 72 53 bf 56 ac 29 3f bc 82 0a 3f e6 ab 84 bf
       -0.8259655 0.6627859 0.54105735 -1.0364959
000270 2a f0 9b 3e b6 fa 05 bf 90 8c ca be 9d d4 45 bf
       0.30456668 -0.5233568 -0.39560366 -0.7727755
000280 d6 36 78 3f 43 a5 8a bf b0 1a 2d 3e b6 6f 60 3e
       0.96958673 -1.0831684 0.16904712 0.21917614
000290 95 a9 16 be 0f d6 1c 3e 38 70 01 bf 55 2d 6c be
       -0.14713128 0.15316032 -0.5056186 -0.23064168
0002a0 9f 12 37 3e e4 e8 91 3f 72 a2 a2 3e 41 62 8c 3e
       0.17878197 1.1399198 0.3176456 0.27418712
0002b0 3b 21 52 3f c0 bd c8 bf de 74 5e bf 71 fc 41 3e
       0.82081956 -1.5682907 -0.86897075 0.18943955
0002c0 87 2f 01 bf 86 8f b7 be 87 56 b4 3e c5 6b 50 bf
       -0.50463146 -0.35851687 0.35222265 -0.81414443
0002d0 3c 87 f1 be d5 46 92 3e eb c1 d8 bc 3a 7a 0e bf
       -0.47173488 0.28569666 -0.026459655 -0.5565525
0002e0 71 fa b0 3e 78 84 29 3f 98 e8 c9 be 2c db 42 bf
       0.34566072 0.66217756 -0.39435267 -0.7611568
0002f0 35 98 c5 be 71 31 27 3f ce 76 2b bf 24 5f 55 be
       -0.38592687 0.65309817 -0.66978157 -0.20837075
000300 fb 1d 33 bd 1f a9 99 3f 41 b2 04 3e c8 f6 64 be
       -0.043729763 1.2004737 0.12958623 -0.22359765
000310 31 ee 68 3d b9 37 3d be 14 05 86 bd d2 ad 57 bf
       0.056867782 -0.18478288 -0.06543937 -0.84249604
000320 4f 2b 18 40 7f 13 81 3e 21 ee 13 be b7 5b 47 bf
       2.3776433 0.25210187 -0.14446308 -0.7787432
000330 bd 6e 4e 3e bb 66 75 be 3c 69 67 3d 72 98 36 bd
       0.20159431 -0.2396497 0.056496844 -0.044578977
000340 5f 9d 4f bd 6b 5a c1 be 6f 9a 87 3e 5b 6e 80 be
       -0.05068719 -0.37764296 0.2648501 -0.25084195
000350 e1 1a de 3e 5a 2b 47 bf eb 36 63 bd 55 4c 81 bf
       0.43379882 -0.77800524 -0.055472296 -1.010142
000360 77 a5 35 3f fa 04 37 3f 83 77 57 3f 19 11 23 3f
       0.70955604 0.7149197 0.84166735 0.63697964
000370 38 32 50 bf 48 c7 9d 3e 13 24 03 3e 36 51 41 3f
       -0.8132663 0.30816102 0.1280673 0.75514543
000380 08 03 43 be ca 8c a0 be 43 9a fd 3e 6d fa 35 3f
       -0.19044125 -0.31357414 0.49531755 0.71085244
000390 69 73 47 3e 82 ac c8 3f ba 91 bb 3d f2 91 a5 be
       0.19477619 1.5677645 0.091586545 -0.3233791
0003a0 ad 84 9a be 19 aa 23 bc ce 4a 95 3e 33 81 30 bf
       -0.3017935 -0.009989285 0.29158634 -0.6894714
0003b0 2f e2 0e bf 2e ff 55 3f ab 90 7a bf 3d ec 01 bf
       -0.5581388 0.835925 -0.97876996 -0.50751096
0003c0 d0 3d 4a 3f 09 32 58 bf 61 72 80 3e 2b d0 41 be
       0.7900057 -0.8445135 0.25087264 -0.18927066
0003d0 1d b6 ce 3e 9c 28 74 3e 13 c9 19 3f 34 ee e6 3e
       0.40373316 0.23843616 0.6007244 0.4510361
0003e0 39 25 9b bf 24 7d 75 3f 61 54 8d bf d0 3c 5b 3f
       -1.2120734 0.95894074 -1.1041375 0.8563967
0003f0 10 a2 06 bf 9c e5 f5 bc b2 59 1d 3d 0f f0 cb 3e
       -0.5259104 -0.030016713 0.03841562 0.39831588

fc1.bias f4 [64]
000000 44 55 47 bf 4d 5e b1 bf 82 cf ae bf 7f 00 e5 bf
       -0.7786448 -1.3856903 -1.3657076 -1.7890776
000010 c7 55 ec bf 0c f2 a0 bf 05 65 91 bf 30 13 ca bf
       -1.8463677 -1.2573867 -1.1358954 -1.5787106
000020 d7 f2 00 c0 33 5e 7a bf dc bd 41 bf 09 da 32 bf
       -2.0148218 -0.97799987 -0.7568033 -0.69863945
000030 ea d7 cb bf 04 99 78 bf 6a 45 91 bf 62 b2 a3 bf
       -1.5925267 -0.97108483 -1.1349308 -1.2788813
000040 9b bd 99 bf 98 14 77 bf 61 93 84 bf 90 7b c8 bf
       -1.2010988 -0.965158 -1.0357476 -1.5662708
000050 72 d8 8c bf 3b 16 7e bf 6f a1 3b bf 61 85 f2 bf
       -1.1003554 -0.9925267 -0.73293203 -1.8946954
000060 b3 7a 69 bf db aa ab bf 86 da a1 bf 1a a3 cc bf
       -0.9120285 -1.3411516 -1.2644813 -1.5987275
000070 fa 7b 94 bf 26 1b 65 bf 2d d0 c7 bf 73 a0 af bf
       -1.1600335 -0.8949455 -1.5610405 -1.372084
000080 83 7d d5 bf 4b 36 78 bf fb b0 9a bf 0a 33 90 bf
       -1.6678928 -0.96957844 -1.208526 -1.1265576
000090 ee b4 8b bf c5 ca b8 bf 9f fb b0 bf 33 21 91 bf
       -1.091459 -1.443688 -1.3826789 -1.1338257
0000a0 07 4e 7a bf d0 ee c8 bf da 0e 94 bf 64 96 d7 bf
       -0.9777531 -1.569788 -1.1567032 -1.684277
0000b0 48 9b c0 be 0e b7 a1 bf 5a 67 42 bf 35 7f b6 bf
       -0.3761847 -1.2633989 -0.7593895 -1.425757
0000c0 17 fc b4 bf db e8 ab bf 5a 5f 00 c0 82 e1 b2 bf
       -1.4139432 -1.3430437 -2.0058198 -1.397507
0000d0 73 1b f8 bf e1 c6 e7 bf 7e 93 a6 bf 30 82 82 bf
       -1.9383377 -1.8107568 -1.3013761 -1.019598
0000e0 28 66 d1 bf 3f 40 f9 bf 8c d2 89 bf a7 9a 81 bf
       -1.6359301 -1.9472731 -1.0767379 -1.0125321
0000f0 6f 84 bb bf f7 3a 9e bf 87 13 d5 bf b9 eb 9c bf
       -1.464979 -1.2361745 -1.6646584 -1.2259437

fc2.weight f4 [27, 64]
000000 00 1a f4 bd 62 b5 59 be 5e 88 29 bf 5f 31 fd 3c
       -0.119190216 -0.21260598 -0.66223705 0.030907331
000010 e7 99 03 be a7 52 11 3e c0 19 e7 be 59 ce 75 be
       -0.12851678 0.14191686 -0.45136833 -0.24004497
000020 02 44 09 bf f2 66 03 bf bf 09 a3 3e db 72 f2 3d
       -0.53619397 -0.5132896 0.31843373 0.11838313
000030 22 e9 ed 3e 4d af e3 be 7d 59 68 bf ac 12 dd be
       0.4646693 -0.4446968 -0.9076155 -0.43178308
000040 b5 04 a6 be ab fe 23 bf d1 fb 6b bf 31 d2 71 3e
       -0.32425466 -0.6406047 -0.92181116 0.23615338
000050 ac d3 86 3d 15 7a e9 be c2 aa 0a bd 49 30 e0 be
       0.06583342 -0.45600954 -0.033854254 -0.4378684
000060 29 52 61 bd c6 51 1f bf 2f 59 29 bf 8d 91 10 bf
       -0.055009995 -0.6223415 -0.6615171 -0.5647209
000070 58 3b 23 bf 52 38 f4 3c 74 44 14 3f 56 13 9a bc
       -0.63762426 0.029812012 0.5791695 -0.018808048
000080 63 ce 22 3f b8 33 84 be 57 76 01 3f 2d e0 c7 bb
       0.6359617 -0.25820708 0.505712 -0.006099722
000090 79 81 d7 3e 63 b5 78 3e 6d 95 b4 bc c6 72 f5 be
       0.42090967 0.24287944 -0.022043908 -0.47939128
0000a0 88 5e 48 bf c7 07 05 3f b3 cf 4e 3f a5 52 44 3f
       -0.78269243 0.5196499 0.80785674 0.76688606
0000b0 e1 cf 44 bf 0b 18 b6 be 53 4f 5c bc 77 38 e3 be
       -0.768797 -0.35565218 -0.013446647 -0.44379017
0000c0 d1 ef 41 3f 2a 7f 44 bf ed 4c c1 be 5d 20 6b 3e
       0.75756556 -0.76756537 -0.37754002 0.22961564
0000d0 94 cb e7 bd e2 4e a9 3d 68 b5 b6 be b2 a2 74 bf
       -0.11318126 0.08266999 -0.35685277 -0.95560753
0000e0 7a 0a 21 3e a9 d3 01 3f 26 4a 18 3f 94 18 f6 3e
       0.15726653 0.5071359 0.5948814 0.48065627
0000f0 a3 4b d8 be 1f e7 11 3e e7 04 f8 be b5 09 a6 be
       -0.42245206 0.14248322 -0.4844124 -0.3242928
000100 07 f6 24 3f 4f b3 36 bf 21 6e 95 be e7 18 85 3e
       0.6443791 -0.71367353 -0.29185584 0.2599556
000110 ea 89 8a 3c 65 48 b7 bf 3e 54 1a bf 7f 53 50 3f
       0.016911466 -1.4318968 -0.60284793 0.81377405
000120 49 44 8b 3e 2c 75 a8 3e c1 1a 0f bf b4 61 13 3e
       0.27200535 0.32901895 -0.559002 0.1439274
000130 d5 b4 0c bf 48 ad cb bf 98 8c 5d be 44 47 60 be
       -0.5496343 -1.5912256 -0.21635664 -0.21902186
000140 b4 8d a5 3e e5 f2 98 bf 5b 82 81 bf 13 64 62 be
       0.32334673 -1.1949126 -1.0117906 -0.22108488
000150 26 a9 0d bf e4 c1 7a bf 2c af eb be f6 4e 8b bf
       -0.55336225 -0.97952104 -0.46032083 -1.0883472
000160 dc 41 02 3f 68 ce 5a bf a7 fa 60 bf c4 f9 c7 3e
       0.50881743 -0.854712 -0.87882465 0.39057744
000170 b3 d4 0f bf cb ed 93 3d a7 93 4f bf 1b 14 b1 bc
       -0.5618393 0.0722309 -0.81084675 -0.021616032
000180 59 8c c5 3c 95 14 db bf fc b2 26 3e 0b 97 46 bf
       0.024114775 -1.7115656 0.16279215 -0.77574223
000190 de b6 0d bf 08 43 00 3f 3a dd b5 3e 44 b4 8b bf
       -0.5535716 0.5010228 0.35520345 -1.0914388
0001a0 bd 7d bb 3e 80 64 bd 3d 00 a0 3f bf 69 12 9c bb
       0.36619368 0.092476845 -0.74853516 -0.004762937
0001b0 46 0f 11 bf c9 ad 96 be 96 4a 1b 3f 7b cb ca 3e
       -0.5666393 -0.29429463 0.60660684 0.39608368
0001c0 47 e4 d5 3e 03 b6 01 3f 27 6b 28 be 70 75 8d bd
       0.41775724 0.5066835 -0.16447125 -0.06907165
0001d0 91 18 04 bf 6f 62 97 3e 68 f7 16 be 7e fb 76 be
       -0.51599985 0.29567286 -0.14742815 -0.24119374
0001e0 ac 6a be 3e 5b b4 d8 3e 22 31 e4 be 3a ca 81 3e
       0.3719076 0.423251 -0.44568735 0.253496
0001f0 9e 36 08 bf ec e1 3f 3e 40 4c c1 3e 19 bf 98 bf
       -0.5320834 0.18738526 0.37753487 -1.1933318
000200 1b 48 82 be 3e b5 fc bf 71 b6 00 3f 3b cc 74 bf
       -0.25445637 -1.9742811 0.50278383 -0.9562413
000210 ee 84 89 be ba 4c b2 bf dd e0 ca bf 00 8f d6 be
       -0.2685923 -1.3929665 -1.5849873 -0.41905975
000220 ab 27 b2 3e a9 c8 2b 3f ac 14 c3 bf 7d 50 b5 bf
       0.3479589 0.6710306 -1.5240684 -1.4165188
000230 b4 66 9f bf 4a 4f 79 bf 1e 85 cb 3e 43 e0 b6 be
       -1.2453218 -0.9738661 0.39749998 -0.35717973
000240 4f b0 61 3e c2 f3 3b bf 11 6b 85 bd 33 15 41 3e
       0.22039913 -0.7341882 -0.06514562 0.18855743
000250 7a 6b c8 bf f8 2d 97 bf d4 b6 0c bf f9 af a1 bf
       -1.5657799 -1.1810904 -0.54966474 -1.2631828
000260 c8 70 4f 3d 3e df 9d bf 4c aa 5c be 3e 13 11 bf
       0.050644666 -1.2333753 -0.21549338 -0.56669986
000270 d9 12 4d 3f 70 f8 27 bf 08 99 4e bf fe fd fb be
       0.80106884 -0.6561346 -0.8070226 -0.49217218
000280 ff a5 83 be 91 68 23 bf cf ab b1 bf 76 ba 36 bf
       -0.25712582 -0.6383143 -1.3880557 -0.71378267
000290 d7 38 89 bf 97 14 ae bd 2f 81 b9 bf 04 92 5f bf
       -1.0720471 -0.08500021 -1.4492549 -0.8733218
0002a0 58 1e b1 3d 00 d7 a9 3e 5a 53 eb be 3f 22 a7 3d
       0.08648366 0.33171844 -0.4596203 0.08160829
0002b0 7c c7 30 be 44 2a 9d bf c9 6c b0 bf 7d 8b 13 3e
       -0.17263597 -1.2278523 -1.3783199 0.1440868
0002c0 58 ae 28 bd fe 8d 62 be 2d 7c ae be 4b 48 91 bf
       -0.041181892 -0.22124478 -0.34079114 -1.1350187
0002d0 83 12 43 bf 80 84 20 be f6 1f d2 bf 85 f1 06 bf
       -0.7620012 -0.15675545 -1.6416004 -0.5271228
0002e0 52 b1 3a 3f 27 4b 1f 3f 19 70 69 bf 6e 65 d5 bf
       0.7292682 0.6222405 -0.9118667 -1.6671579
0002f0 e9 17 75 bf 1e 59 b5 3d d6 bb 17 bf b0 c6 23 bf
       -0.9573961 0.088548884 -0.5927099 -0.6397505
000300 c0 eb b1 be 78 26 b1 bf 61 bb 15 bf 39 a1 22 be
       -0.34750175 -1.3839865 -0.5848904 -0.15881814
000310 8b b1 4a 3e ed 32 51 be 01 b6 72 bf dd 9a a5 be
       0.1979429 -0.20429583 -0.94808966 -0.32344714
000320 00 7c d0 be c4 24 20 3f 78 b8 06 be c1 60 05 3f
       -0.40719604 0.625561 -0.13156307 0.5210076
000330 96 eb 02 3f fa 46 01 bd f4 53 b6 bf db 90 38 bd
       0.51140726 -0.03156183 -1.424437 -0.04506002
000340 bc 65 34 3e a6 21 3f bf 89 a5 42 bd fc d5 2a 3f
       0.17616934 -0.7466072 -0.047521148 0.66732764
000350 27 72 b2 be 20 47 04 bf 79 a0 a8 3e b4 20 29 bf
       -0.34852716 -0.5167103 0.3293493 -0.66065526
000360 39 4a 40 3e 44 07 46 bf 09 78 03 bf 38 da 34 bf
       0.18778314 -0.77354836 -0.51355034 -0.70645475
000370 82 39 8a 3e d7 b2 d9 3e 17 d3 20 bf c2 bf 4f bf
       0.26997 0.42519256 -0.628221 -0.81151974
000380 f0 d0 2b 3e cd 55 df bc d9 fe 37 bd 93 bc 28 bf
       0.16778922 -0.027262593 -0.044920776 -0.6591274
000390 f0 3e 8e bf 16 3f 2f bf f8 ed 4e 3f dc de 18 3f
       -1.1112957 -0.68455637 0.8083186 0.59715056
0003a0 09 fa cf bf 56 b7 1e 3e 35 2d 35 3f 67 20 fb be
       -1.624818 0.15499625 0.70772105 -0.4904816
0003b0 15 b8 0e be 8b 1c a2 bf 18 f7 a9 bf c5 d1 7b bf
       -0.13937409 -1.2664961 -1.3278532 -0.9836696
0003c0 1a bf 00 3f 39 be 72 bf 0f 09 b3 3e 9e b8 ed bf
       0.502916 -0.94821507 0.3496785 -1.8571966
0003d0 62 4a 0b bd 59 ed 47 be 41 0d 38 bb b2 18 c8 bf
       -0.034006484 -0.19524135 -0.0028084072 -1.5632536
0003e0 41 df 07 be 59 7a bf 3e a4 ce 3d 3f a5 5e fd be
       -0.13268758 0.3739803 0.74143434 -0.4948627
0003f0 b8 f1 77 3c 6c 90 a1 3e f7 00 5d bf 76 93 80 bf
       0.015133314 0.31555498 -0.863296 -1.0045002

fc2.bias f4 [27]
000000 66 16 3a be 8c 8e 6c bf 86 a1 d0 3d 2f c0 34 bf
       -0.18172607 -0.9240501 0.10187058 -0.7060575
000010 a9 50 bc 3e c2 08 80 3c ba 18 85 bf 3e f2 73 bf
       0.3678029 0.015629176 -1.0398171 -0.9529151
000020 24 03 98 bf 3c 8d fc be 04 9e f5 3e 84 a1 14 3e
       -1.1875958 -0.49326503 0.4797212 0.14514738
000030 4c 1d 80 3f 98 9d 2e 3f de 3f 77 3f 5a 81 15 3e
       1.0008941 0.6820922 0.9658183 0.14600125
000040 c4 6a 21 c0 16 50 14 c0 84 1d 2a 3c e7 a7 57 3f
       -2.5221415 -2.317388 0.010383014 0.84240574
000050 9a 45 00 40 c4 55 ab 3f 7d 45 5f 3f 8c a3 4c 3f
       2.0042481 1.3385549 0.87215406 0.7993705
000060 bb ac 9e 3d a6 48 1e 3f 16 a6 88 3e
       0.077477895 0.618296 0.26689214
