ckpt/classifiers/rgb_epoch_25.pth (torch, 42168 bytes, 4 tensors)

fc1.weight f4 [64, 128]
0.10639488 -0.687022 0.076403625 -0.3466817 0.18367255 0.64643127 0.5289895 -0.47349185
0.8342355 -0.5512676 1.0693867 -0.97893375 0.33870453 0.1816618 -0.7970279 -0.18878195
-0.51544833 1.1732768 -0.80717593 -0.3169419 0.19131246 -0.06305795 0.903791 -0.5344972
-1.4519455 0.007680822 0.2187173 0.014229467 0.4844596 -1.1298673 0.26597914 -0.3122709
0.20087792 0.4173238 0.74824053 0.48681253 0.17560352 -1.3354218 0.29464203 0.71709895
0.23012649 1.4199077 1.0011835 -0.803261 0.3628058 -0.80813366 -0.3466854 0.6192483
0.07351007 -0.1659033 0.46528244 0.23962066 0.12226009 0.27978447 0.62377286 0.6066379
-1.2304679 -1.5005853 -0.12960555 0.5116604 -1.0398347 0.052427832 0.72234255 -0.010380557
-0.5534887 0.7552284 -0.22210583 -0.06395873 0.09242925 -0.118713796 0.3634256 -1.0075275
-0.19033211 0.43391716 -0.09058493 -0.5497542 -0.037693217 0.3619855 -0.9955125 0.44751027
-0.65256953 0.43988246 -0.9073225 0.3671812 0.05191258 -0.25018904 0.60102475 -1.0186491
0.69464225 0.26112092 0.04019242 -0.22481997 -0.56768036 0.14876571 0.43571317 0.6300265
-0.36593485 -0.680782 0.08999349 -1.1182023 -0.56739104 0.003803825 1.027961 -0.005945326
-0.31141263 -0.70035315 -0.6622402 -0.25605747 -0.30166334 1.1331053 -0.83807296 0.9748953
0.40214026 0.49709755 0.09744134 -0.58768797 0.9447531 1.1184995 1.1494569 1.1610599
-0.8667014 -0.08129702 -1.2295792 0.8887405 -0.4987225 -0.05883602 0.90859 -1.2709304
-0.5237757 -0.3498089 0.42173716 -0.123856254 0.093132585 0.94584304 0.78755796 -0.034864064
0.42478302 -0.2083586 0.50014716 -0.54112655 0.9612906 -0.07268967 -0.152536 -1.0740981
0.5853637 0.78414667 -0.85858864 -0.3015681 0.6820702 0.8964027 1.4880744 0.45284164
-0.82972306 0.68313986 0.54741025 -1.0118632 0.31485447 -0.5072138 -0.36946523 -0.75772935
0.97228223 -1.070805 0.16559099 0.22213452 -0.16404179 0.13753068 -0.47070506 -0.22493066
0.1902025 1.1378281 0.3207302 0.29699844 0.8438306 -1.5789218 -0.848253 0.16759232
-0.4748674 -0.33437625 0.3727387 -0.8349014 -0.46482825 0.251483 -0.018588684 -0.5274714
0.33610973 0.63476616 -0.39865232 -0.77833956 -0.39262244 0.6311326 -0.6776667 -0.21506554
-0.04592593 1.1996193 0.14495336 -0.22390485 0.025122741 -0.19121967 -0.022489704 -0.834706
2.383005 0.26280713 -0.13191919 -0.76930374 0.19282615 -0.17915459 0.059170224 -0.06614244
-0.088098936 -0.37228715 0.25359 -0.2714939 0.45641974 -0.7855273 -0.08609285 -0.9796832
0.6787255 0.73363626 0.8368187 0.66789013 -0.810086 0.31933185 0.11423729 0.73796225
-0.15188676 -0.34460008 0.48191917 0.71153563 0.17923918 1.5455017 0.07526655 -0.30330542
-0.3028274 -0.014313653 0.29830375 -0.71207917 -0.56521964 0.86600274 -0.9781593 -0.49576882
0.8023552 -0.8567169 0.22684254 -0.2196374 0.43180674 0.24302958 0.5857179 0.4003766
-1.2341095 0.9300702 -1.0863459 0.8672681 -0.5350503 -0.010088714 0.024320288 0.38552317
00000000: 8fe5 d93d ace0 2fbf 8179 9c3d 4480 b1be
00000010: a814 3c3e 857c 253f db6b 073f 866d f2be
00000020: 7590 553f e01f 0dbf aae1 883f 679b 7abf
00000030: ae6a ad3e 8d05 3a3e 050a 4cbf 0e50 41be
00000040: 6cf4 03bf ef2d 963f 15a3 4ebf 3546 a2be
00000050: 6ae7 433e 8724 81bd d95e 673f cfd4 08bf
00000060: 5ad9 b9bf 68af fb3b 6ef7 5f3e b622 693c
00000070: 170b f83e 7e9f 90bf 6b2e 883e f9e1 9fbe
00000080: f1b2 4d3e 77ab d53e b18c 3f3f 7e3f f93e
00000090: 69d1 333e 1aef aabf 52db 963e cc93 373f
000000a0: 47a6 6b3e 89bf b53f c826 803f 83a2 4dbf
000000b0: afc1 b93e d9e1 4ebf c080 b1be 0e87 1e3f
000000c0: 738c 963d 8ee2 29be 8039 ee3e 1e5f 753e
000000d0: 8063 fa3d e93f 8f3e 94af 1f3f 9f4c 1b3f
000000e0: f97f 9dbf 2e13 c0bf 51b7 04be 2dfc 023f
000000f0: 4e19 85bf 91be 563d 71eb 383f 3613 2abc
00000100: 6fb1 0dbf a656 413f b66f 63be cbfc 82bd
00000110: 8c4b bd3d 3820 f3bd ec12 ba3e a9f6 80bf
00000120: 6ce6 42be 642a de3e 9784 b9bd b1bc 0cbf
00000130: 3464 1abd 2a56 b93e e8d9 7ebf 1120 e53e
00000140: cc0e 27bf 4638 e13e 4a46 68bf 2dff bb3e
00000150: 49a2 543d c718 80be c2dc 193f 1863 82bf
00000160: 13d4 313f a4b1 853e cfa0 243d 3537 66be
00000170: 8053 11bf 0a56 183e cc15 df3e 6b49 213f
00000180: d05b bbbe bb47 2ebf 824e b83d 4121 8fbf
00000190: 8a40 11bf 9849 793b 3a94 833f 02d1 c2bb
000001a0: 7a71 9fbe 584a 33bf 9388 29bf f719 83be
000001b0: 9e73 9abe 9809 913f f38b 56bf bd92 793f
000001c0: 54e5 cd3e 9283 fe3e 538f c73d b872 16bf
000001d0: 57db 713f fe2a 8f3f 6721 933f 9c9d 943f
000001e0: 25e0 5dbf 0d7f a6bd da62 9dbf 7f84 633f
000001f0: 8e58 ffbe 0afe 70bd 5b99 683f d9ad a2bf
00000200: 2a16 06bf 271a b3be efed d73e 59a8 fdbd
00000210: 4cbc be3d c522 723f 669d 493f 9fcd 0ebd
00000220: 297d d93e f55b 55be a509 003f 4587 0abf
00000230: 2417 763f 52de 94bd 6632 1cbe 0c7c 89bf
00000240: 65da 153f d6bd 483f 77cc 5bbf 2267 9abe
00000250: 279c 2e3f a67a 653f 3979 be3f dcda e73e
00000260: bb68 54bf 41e2 2e3f 1423 0c3f bc84 81bf
00000270: 9b34 a13e c3d8 01bf 8c2a bdbe 8dfa 41bf
00000280: 7de7 783f 2310 89bf af90 293e 3b77 633e
00000290: 92fa 27be d8d4 0c3e 4100 f1be 3954 66be
000002a0: 72c4 423e 5aa4 913f c036 a43e 2e10 983e
000002b0: 4805 583f 1c1a cabf 1c27 59bf 529d 2b3e
000002c0: d221 f3be 5d33 abbe 9bd7 be3e 19bc 55bf
000002d0: f8fd edbe 61c2 803e 4c47 98bc 5e08 07bf
000002e0: 9316 ac3e 0980 223f 281c ccbe 4341 47bf
000002f0: cf05 c9be e891 213f 917b 2dbf 243a 5cbe
00000300: d41c 3cbd 208d 993f a76e 143e 5047 65be
00000310: 35ce cd3c 17cf 43be 543c b8bc 4baf 55bf
00000320: 2783 1840 a88e 863e d315 07be 17f1 44bf
00000330: 3874 453e 4d74 37be 7a5c 723d b075 87bd
00000340: 376d b4bd 6c9c bebe 8cd6 813e 4001 8bbe
00000350: d9af e93e 5118 49bf 7351 b0bd 85cc 7abf
00000360: f4c0 2d3f 96cf 3b3f c039 563f d9fa 2a3f
00000370: cc61 4fbf 777f a33e 3ef5 e93d 18eb 3c3f
00000380: 3488 1bbe 6c6f b0be 1cbe f63e 3327 363f
00000390: 7a8a 373e 00d3 c53f 5925 9a3d d94a 9bbe
000003a0: 310c 9bbe d083 6abc 45bb 983e d24a 36bf
000003b0: 3cb2 10bf 5bb2 5d3f a668 7abf 69d5 fdbe
000003c0: 2667 4d3f cc51 5bbf 6949 683e a0e8 60be
000003d0: c615 dd3e bfdc 783e 9cf1 153f 29fe cc3e
000003e0: 4df7 9dbf 1519 6e3f 620d 8bbf 4805 5e3f
000003f0: 0ef9 08bf 224b 25bc 573b c73c 4b63 c53e

fc1.bias f4 [64]
-0.8031634 -1.3904603 -1.3657528 -1.77784 -1.8416651 -1.2777988 -1.1398937 -1.5806963
-2.034424 -0.97961116 -0.7748902 -0.7138901 -1.6223984 -0.995452 -1.1504213 -1.3335161
-1.1947919 -0.9795364 -1.0838577 -1.5744219 -1.1295794 -0.9925259 -0.7695947 -1.8970052
-0.91636384 -1.3317643 -1.3192602 -1.6352682 -1.1899011 -0.9225945 -1.5770164 -1.4049863
-1.66574 -0.98764646 -1.2411605 -1.1118917 -1.1093242 -1.4643911 -1.3701595 -1.1840934
-1.0060886 -1.5848074 -1.1581634 -1.705514 -0.37455416 -1.2765725 -0.76376134 -1.4102391
-1.4075855 -1.3747438 -1.9880605 -1.4163418 -1.9368272 -1.8250421 -1.3123188 -1.0857929
-1.648813 -1.9778924 -1.0861075 -1.0234402 -1.4817053 -1.233408 -1.6981033 -1.2379906
00000000: 1e9c 4dbf 9afa b1bf fdd0 aebf 4390 e3bf
00000010: afbb ebbf e98e a3bf 09e8 91bf 4254 cabf
00000020: 0134 02c0 ccc7 7abf 345f 46bf 80c1 36bf
00000030: c0aa cfbf f1d5 7ebf 0141 93bf a8b0 aabf
00000040: f1ee 98bf e6c2 7abf d9bb 8abf a886 c9bf
00000050: 0f96 90bf 2d16 7ebf 2904 45bf 11d1 f2bf
00000060: d296 6abf 4177 aabf 85dd a8bf 7850 d1bf
00000070: ae4e 98bf 272f 6cbf acdb c9bf 97d6 b3bf
00000080: f836 d5bf 66d6 7cbf 59de 9ebf 7852 8ebf
00000090: 56fe 8dbf 2b71 bbbf 6361 afbf 5f90 97bf
000000a0: 83c7 80bf f8da cabf b33e 94bf 484e dabf
000000b0: 90c5 bfbe ba66 a3bf dd85 43bf b782 b4bf
000000c0: c32b b4bf 9bf7 afbf c478 febf b04a b5bf
000000d0: f4e9 f7bf fb9a e9bf 10fa a7bf 43fb 8abf
000000e0: 4e0c d3bf 942b fdbf 9205 8bbf 1700 83bf
000000f0: 85a8 bdbf 50e0 9dbf 735b d9bf 7a76 9ebf

fc2.weight f4 [27, 64]
-0.118620574 -0.2116267 -0.6614269 0.035640806 -0.12850778 0.1633807 -0.45637587 -0.2340592
-0.53619754 -0.5112456 0.24837992 0.07597337 0.43336168 -0.4428433 -0.904574 -0.43120706
-0.31446955 -0.63977706 -0.92035383 0.2384473 0.06854947 -0.45519224 -0.023183722 -0.4216814
-0.04030607 -0.62146616 -0.65549785 -0.5631741 -0.6368235 0.050715346 0.55100083 -0.05068795
0.61295015 -0.25472456 0.47947815 -0.09062634 0.44546726 0.24690828 -0.024095012 -0.47352925
-0.77335536 0.46677282 0.7775619 0.7561689 -0.77551067 -0.3543649 0.00048104013 -0.44070968
0.8009983 -0.76686186 -0.37674966 0.21703437 -0.11315721 0.09244298 -0.34572977 -0.9545635
0.17914586 0.49828783 0.53328496 0.46055096 -0.42192215 0.13991429 -0.48137608 -0.3234127
0.6422342 -0.7097779 -0.2813662 0.2604477 0.014570953 -1.4364566 -0.61292565 0.8501332
0.2720049 0.29971337 -0.55725944 0.15142658 -0.5481558 -1.589796 -0.2145805 -0.21705611
0.3123545 -1.1938701 -1.0116433 -0.21018307 -0.5522798 -0.9792985 -0.45556763 -1.086262
0.50755215 -0.8032746 -0.8771261 0.3749678 -0.5610441 0.0753857 -0.8107668 0.00016624693
0.011947219 -1.7107317 0.1664546 -0.7753904 -0.55228925 0.4841248 0.35603127 -1.089926
0.32844773 0.11986587 -0.7482579 -0.0046423376 -0.56859493 -0.28610212 0.653886 0.4281925
0.40310705 0.47293052 -0.16383615 -0.1085923 -0.515995 0.29688936 -0.13788651 -0.22869478
0.35110503 0.4170976 -0.4467115 0.24028498 -0.5313233 0.18802138 0.38174677 -1.1931913
-0.24627234 -1.9739789 0.44439602 -0.95274204 -0.26859158 -1.3881323 -1.5825633 -0.41597822
0.34896022 0.69880885 -1.5025325 -1.4143082 -1.2437122 -0.9661546 0.41516793 -0.3541447
0.23322897 -0.729556 -0.06395949 0.19996326 -1.564396 -1.1808199 -0.53881115 -1.257701
0.05754052 -1.2315083 -0.20474215 -0.5629813 0.8177187 -0.65067416 -0.80685556 -0.49110165
-0.2565392 -0.6375889 -1.376416 -0.7120269 -1.0706172 -0.0838045 -1.4482741 -0.85651547
0.090773426 0.3117979 -0.4583369 0.08216677 -0.16761684 -1.2210764 -1.3770818 0.093122974
-0.036348823 -0.21859191 -0.33778983 -1.1349759 -0.76220626 -0.14694239 -1.6379933 -0.5254231
0.7460171 0.65953404 -0.905844 -1.6645519 -0.9564154 0.08854914 -0.58461696 -0.63889134
-0.3462363 -1.3835396 -0.58475083 -0.15469629 0.19792296 -0.20257619 -0.947073 -0.3148575
-0.36772147 0.5723598 -0.115265876 0.4956947 0.5891512 0.013443124 -1.4241551 -0.043776467
0.1444575 -0.73157954 -0.047608197 0.7371511 -0.34946442 -0.51615953 0.35974008 -0.67318255
0.17959858 -0.7733961 -0.48220038 -0.70483565 0.29316497 0.44076625 -0.63067985 -0.77143663
0.18220258 -0.026490102 -0.05692078 -0.62217486 -1.1092541 -0.6843182 0.71187806 0.57088995
-1.62291 0.15494905 0.7237604 -0.49087995 -0.13689572 -1.2661285 -1.3005178 -0.98287684
0.4507815 -0.94476676 0.39711982 -1.8571854 -0.03345148 -0.19200332 0.017080158 -1.5617031
-0.12997471 0.37168226 0.79774433 -0.5268343 0.01154354 0.3160447 -0.8608803 -1.0150375
00000000: 58ef f2bd abb4 58be 4653 29bf 18fc 113d
00000010: 8b97 03be 454d 273e 19aa e9be 37ad 6fbe
00000020: 3e44 09bf fee0 02bf 4e57 7e3e ed97 9b3d
00000030: 95e1 dd3e 5bbc e2be 2992 67bf 2cc7 dcbe
00000040: 2702 a1be 6ec8 23bf 4f9c 6bbf 872b 743e
00000050: aa63 8c3d f50e e9be caeb bdbc a0e6 d7be
00000060: fa17 25bd 6818 1fbf b5ce 27bf 2e2c 10bf
00000070: dd06 23bf e5ba 4f3d 640e 0d3f 2b9e 4fbd
00000080: 4dea 1c3f 426b 82be 297e f53e 4d9a b9bd
00000090: 4914 e43e 86d5 7c3e e762 c5bc 6d72 f2be
000000a0: 9efa 45bf d9fc ee3e 4c0e 473f 4994 413f
000000b0: de87 46bf 516f b5be 1d34 fc39 b3a4 e1be
000000c0: 390e 4d3f 0f51 44bf 55e5 c0be 423e 5e3e
000000d0: f8be e7bd bf52 bd3d 7e03 b1be 465e 74bf
000000e0: 0372 373e 951f ff3e 5d85 083f 56cd eb3e
000000f0: 2e06 d8be b145 0f3e ed76 f6be 5996 a5be
00000100: 7669 243f 01b4 35bf 3b0f 90be 6759 853e
00000110: 02bb 6e3c cfdd b7bf b2e8 1cbf 54a2 593f
00000120: 3a44 8b3e 0874 993e 8ea8 0ebf 920f 1b3e
00000130: f053 0cbf 6f7e cbbf feba 5bbe f543 5ebe
00000140: eeec 9f3e bcd0 98bf 877d 81bf 3b3a 57be
00000150: 3562 0dbf 4eb3 7abf 2940 e9be a20a 8bbf
00000160: f0ee 013f 67a3 4dbf 568b 60bf c8fb bf3e
00000170: 96a0 0fbf d163 9a3d 6a8e 4fbf 9252 2e39
00000180: 45be 433c 42f9 dabf 1373 2a3e fc7f 46bf
00000190: d462 0dbf 35df f73e bb49 b63e b282 8bbf
000001a0: 4d2a a83e 3d7c f53d d48d 3fbf c01e 98bb
000001b0: 708f 11bf fa7b 92be 1365 273f 0c3c db3e
000001c0: 0c64 ce3e f323 f23e aac4 27be a465 debd
000001d0: 4018 04bf e201 983e 1f32 0dbe f72e 6abe
000001e0: 0ac4 b33e d18d d53e 5fb7 e4be 440d 763e
000001f0: ce04 08bf ad88 403e 5074 c33e 7eba 98bf
00000200: d12e 7cbe 57ab fcbf e087 e33e e7e6 73bf
00000210: d684 89be 52ae b1bf 6f91 cabf 19fb d4be
00000220: eaaa b23e 23e5 323f fc52 c0bf 0d08 b5bf
00000230: f631 9fbf e855 77bf e490 d43e 7452 b5be
00000240: 93d3 6e3e 2fc4 3abf 31fd 82bd 2bc3 4c3e
00000250: 213e c8bf 1b25 97bf 87ef 09bf 59fc a0bf
00000260: 9caf 6b3d 10a2 9dbf eda7 51be 8b1f 10bf
00000270: 0356 513f 9592 26bf 168e 4ebf ad71 fbbe
00000280: 1b59 83be 0739 23bf 662e b0bf 6547 36bf
00000290: fc09 89bf b2a1 abbd 0c61 b9bf 9944 5bbf
000002a0: 6be7 b93d f9a3 9f3e 22ab eabe 0d47 a83d
000002b0: c0a3 2bbe 3b4c 9cbf 3744 b0bf 42b7 be3d
000002c0: 81e2 14bd 8fd6 5fbe caf2 acbe e446 91bf
000002d0: f31f 43bf 1178 16be c4a9 d1bf 2182 06bf
000002e0: fafa 3e3f 39d7 283f 64e5 67bf 0910 d5bf
000002f0: a4d7 74bf 4059 b53d 75a9 15bf 628e 23bf
00000300: e245 b1be d317 b1bf 3bb2 15bf b468 1ebe
00000310: 51ac 4a3e 2270 4fbe 6073 72bf 0135 a1be
00000320: fd45 bcbe 2c86 123f 8410 ecbd b2cb fd3e
00000330: 9dd2 163f 8c40 5c3c b74a b6bf f44e 33bd
00000340: abec 133e cc48 3bbf d000 43bd efb5 3c3f
00000350: 00ed b2be 0823 04bf da2f b83e b155 2cbf
00000360: b1e8 373e 49fd 45bf f8e2 f6be 1c70 34bf
00000370: b819 963e 1dac e13e 3c74 21bf df7c 45bf
00000380: 5093 3a3e c501 d9bc c425 69bd da46 1fbf
00000390: 0afc 8dbf 7a2f 2fbf a43d 363f d825 123f
000003a0: 84bb cfbf f7aa 1e3e 5d48 393f 9e54 fbbe
000003b0: 642e 0cbe 8010 a2bf 5e77 a6bf d19d 7bbf
000003c0: d5cc e63e 3cdc 71bf 4a53 cb3e 40b8 edbf
000003d0: 6b04 09bd 859c 44be b0eb 8b3c e3e5 c7bf
000003e0: 1718 05be 234d be3e f938 4c3f 9dde 06bf
000003f0: 1e21 3d3c 9cd0 a13e a762 5cbf c0ec 81bf

fc2.bias f4 [27]
-0.19021277 -0.93390304 0.10238073 -0.70070773 0.32110164 0.0051922267 -1.0227932 -0.9410876
-1.1933637 -0.48339847 0.49499056 0.103312045 1.0484388 0.72276485 0.9457739 0.14839232
-2.4927511 -2.25287 -0.018913673 0.8382148 1.9086072 1.3157254 0.8851272 0.86118424
0.105928145 0.5747975 0.28313634
00000000: 23c7 42be 4514 6fbf fdac d13d 9561 33bf
00000010: 6f67 a43e 8e23 aa3b e3ea 82bf 1eeb 70bf
00000020: 24c0 98bf 0180 f7be 676f fd3e 4495 d33d
00000030: 3e33 863f 1e07 393f 3d1e 723f 28f4 173e
00000040: 3c89 1fc0 062f 10c0 d9f0 9abc 3f95 563f
00000050: 3e4d f43f b169 a83f b297 623f 9276 5c3f
00000060: dbf0 d83d ee25 133f 3ff7 903e
