ckpt/classifiers/rgb_epoch_46.pth (torch, 42168 bytes, 4 tensors)

fc1.weight f4 [64, 128]
0.09685792 -0.727251 0.02312977 -0.34166938 0.20570698 0.6408192 0.5329069 -0.4487613
0.8312848 -0.50278234 1.084163 -1.002842 0.3376866 0.2277011 -0.78618073 -0.15669413
-0.48770663 1.1638228 -0.79585344 -0.27973056 0.20867752 -0.047536843 0.9237982 -0.5172028
-1.4821111 0.0627611 0.25263306 0.0121675525 0.4898883 -1.1512865 0.2431052 -0.29206246
0.21869798 0.39457068 0.7381684 0.52490634 0.1493204 -1.3090994 0.31601262 0.73884785
0.20134732 1.4120548 1.0237855 -0.83146363 0.32262933 -0.8338787 -0.35831127 0.6033258
0.09004838 -0.16423178 0.47652322 0.20856255 0.12937897 0.30828297 0.60621005 0.64188635
-1.1963682 -1.507443 -0.0763121 0.52103096 -1.038778 0.0587325 0.7126725 0.023650855
-0.53514296 0.7334043 -0.2114451 -0.08303647 0.05805834 -0.10113222 0.3490747 -1.0188246
-0.20160647 0.4200304 -0.059670307 -0.577449 -0.051126875 0.3398903 -1.0009106 0.49482572
-0.7107993 0.4966967 -0.9567969 0.33942312 0.05322824 -0.295036 0.61343527 -1.0453129
0.69151264 0.26493597 0.08447982 -0.23561205 -0.5943013 0.16815841 0.42894667 0.6230078
-0.32891685 -0.65092933 0.081329875 -1.130163 -0.5938792 0.0007155813 0.9904294 -0.026487388
-0.28177786 -0.7392326 -0.6714839 -0.2571521 -0.31232134 1.129099 -0.85085976 0.9708024
0.4233957 0.4770316 0.055115607 -0.61213195 0.94146013 1.1404469 1.154882 1.1830174
-0.83596647 -0.12207369 -1.2141415 0.9276574 -0.53241414 -0.07918564 0.9004213 -1.2638664
-0.50008976 -0.34078556 0.44737583 -0.11548609 0.110729665 0.9626936 0.74079996 -0.0400407
0.45798835 -0.21868058 0.4789152 -0.5555202 0.9298093 -0.076774284 -0.18536554 -1.0737884
0.58167076 0.78475964 -0.8663995 -0.29291576 0.6783276 0.8990062 1.4775915 0.43494436
-0.8261063 0.6626662 0.54114056 -1.0360093 0.30539918 -0.5234786 -0.39534193 -0.77243054
0.9695399 -1.0827228 0.16984546 0.21936879 -0.14716066 0.15252577 -0.5053419 -0.23085295
0.17911138 1.1399044 0.3174697 0.2748135 0.8211452 -1.5681056 -0.8683687 0.18939239
-0.50366056 -0.35826263 0.3524153 -0.8144432 -0.47199455 0.2852298 -0.025858162 -0.55652356
0.3450628 0.6611162 -0.3940798 -0.7610888 -0.38617554 0.65277857 -0.66963667 -0.20872892
-0.044186737 1.201413 0.12972346 -0.22300452 0.05678988 -0.18533693 -0.06446706 -0.8427461
2.378093 0.25256723 -0.14481157 -0.7781054 0.20140256 -0.23910995 0.055785276 -0.044616096
-0.05097098 -0.37769073 0.26485267 -0.25080946 0.4341474 -0.7779209 -0.055851746 -1.0092438
0.7087996 0.7151638 0.84126145 0.6367727 -0.8135357 0.30832595 0.1279588 0.75479996
-0.19025263 -0.31453463 0.49557737 0.71003187 0.1943281 1.5676206 0.09178821 -0.32241404
-0.3024321 -0.009528097 0.29093415 -0.6894111 -0.5582342 0.83677155 -0.9782005 -0.5068737
0.7901008 -0.84385216 0.25082865 -0.18933274 0.4038387 0.23832701 0.60090494 0.4505849
-1.2125744 0.9583628 -1.1043035 0.8569687 -0.52537215 -0.029379617 0.038914908 0.3978514
00000000: 725d c63d 1f2d 3abf a57a bd3c 4aef aebe
00000010: daa4 523e ba0c 243f 966c 083f 0bc4 e5be
00000020: 15cf 543f 58b6 00bf dac5 8a3f 205d 80bf
00000030: 42e5 ac3e 7a2a 693e 2443 49bf 6d74 20be
00000040: afb4 f9be 25f8 943f 0dbd 4bbf d838 8fbe
00000050: 8faf 553e feb5 42bd 0a7e 6c3f 6767 04bf
00000060: d1b5 bdbf e488 803d 1f59 813e 6a5a 473c
00000070: a4d2 fa3e 5b5d 93bf 92f0 783e 3689 95be
00000080: 5df2 5f3e 2b05 ca3e 9bf8 3c3f 4360 063f
00000090: 72e7 183e 9290 a7bf 68cc a13e 2225 3d3f
000000a0: fe2d 4e3e 36be b43f 670b 833f cdda 54bf
000000b0: ac2f a53e 1379 55bf 9374 b7be 8f73 1a3f
000000c0: 496b b83d 602c 28be dafa f33e 6c91 553e
000000d0: ec7b 043e 44d7 9d3e 9530 1b3f aa52 243f
000000e0: 9822 99bf e4f3 c0bf 8549 9cbd 4962 053f
000000f0: adf6 84bf 7d91 703d b471 363f 70bf c13c
00000100: 21ff 08bf 62c0 3b3f 1085 58be 060f aabd
00000110: 95ce 6d3d 691e cfbd ebb9 b23e d868 82bf
00000120: ed71 4ebe 390e d73e da68 74bd b3d3 13bf
00000130: 6a6a 51bd 1a06 ae3e d71d 80bf cc59 fd3e
00000140: f1f6 35bf 084f fe3e a4f0 74bf dec8 ad3e
00000150: db05 5a3d f50e 97be 180a 1d3f d0cc 85bf
00000160: f906 313f b0a5 873e c203 ad3d 4944 71be
00000170: 2124 18bf b831 2c3e e69e db3e 707d 1f3f
00000180: ca67 a8be 4ea3 26bf 4790 a63d 2ea9 90bf
00000190: 7808 18bf d995 3b3a c88c 7d3f 14fc d8bc
000001a0: 3045 90be 593e 3dbf 5ee6 2bbf 71a9 83be
000001b0: 95e8 9fbe 5186 903f f2d1 59bf 8286 783f
000001c0: 52c7 d83e 7c3d f43e e7c0 613d aeb4 1cbf
000001d0: 8803 713f 2afa 913f 2cd3 933f 1d6d 973f
000001e0: e601 56bf c501 fabd fd68 9bbf f57a 6d3f
000001f0: 4b4c 08bf 152c a2bd 0382 663f 60c6 a1bf
00000200: e205 00bf 727b aebe 720e e53e f983 ecbd
00000210: 3cc6 e23d 1673 763f 11a5 3d3f b801 24bd
00000220: 737d ea3e cded 5fbe 6034 f53e 9236 0ebf
00000230: fb07 6e3f d63b 9dbd 77d0 3dbe e671 89bf
00000240: 60e8 143f 02e6 483f 5ccc 5dbf 0ef9 95be
00000250: e1a6 2d3f 4525 663f b821 bd3f 07b1 de3e
00000260: b47b 53bf 7ea4 293f 3088 0a3f f49b 84bf
00000270: 485d 9c3e b202 06bf 426a cabe 02be 45bf
00000280: c433 783f a996 8abf f8eb 2d3e 36a2 603e
00000290: 49b1 16be b72f 1c3e 165e 01bf b764 6cbe
000002a0: f968 373e 63e8 913f 638b a23e 5bb4 8c3e
000002b0: 9236 523f afb7 c8bf 694d 5ebf 14f0 413e
000002c0: e6ef 00bf 336e b7be c76f b43e 597f 50bf
000002d0: 45a9 f1be a409 923e 7fd4 d3bc 5478 0ebf
000002e0: 12ac b03e e93e 293f d4c4 c9be b7d6 42bf
000002f0: cdb8 c5be 7f1c 273f 4f6d 2bbf 09bd 55be
00000300: 27fd 34bd e7c7 993f 3ad6 043e 4c5b 64be
00000310: 819c 683d f7c8 3dbe 4e07 84bd 35be 57bf
00000320: ad32 1840 7e50 813e 7c49 14be ea31 47bf
00000330: 793c 4e3e 3dd9 74be 1a7f 643d 5ebf 36bd
00000340: f2c6 50bd ae60 c1be c59a 873e 196a 80be
00000350: 9148 de3e d325 47bf cdc4 64bd e72e 81bf
00000360: e473 353f fa14 373f e95c 573f 8903 233f
00000370: e043 50bf e6dc 9d3e a207 033e 923a 413f
00000380: 96d1 42be af0a a1be 51bc fd3e a6c4 353f
00000390: f2fd 463e cba7 c83f 75fb bb3d 7413 a5be
000003a0: 61d8 9abe bc1b 1cbc 52f5 943e 3f7d 30bf
000003b0: 70e8 0ebf a936 563f 596b 7abf 7ac2 01bf
000003c0: 0c44 4a3f b206 58bf 9d6c 803e 71e0 41be
000003d0: f2c3 ce3e ff0b 743e e8d4 193f 10b3 e63e
000003e0: a335 9bbf 4457 753f d159 8dbf 4d62 5b3f
000003f0: ca7e 06bf 86ad f0bc 3d65 1f3d 2eb3 cb3e

fc1.bias f4 [64]
-0.7774794 -1.3863754 -1.3654075 -1.790212 -1.8463578 -1.2567837 -1.135256 -1.5773203
-2.0147247 -0.9786922 -0.75708693 -0.69787484 -1.5921528 -0.9696708 -1.1353062 -1.276954
-1.2003175 -0.96568525 -1.0357904 -1.5659482 -1.1022542 -0.99222225 -0.7324434 -1.8948007
-0.91084874 -1.3405846 -1.2632806 -1.5975838 -1.1586405 -0.8949657 -1.5603724 -1.3719766
-1.6678628 -0.9694529 -1.2087141 -1.1261116 -1.0909979 -1.4434737 -1.3824334 -1.1334544
-0.97723883 -1.5692126 -1.1571481 -1.684287 -0.37609628 -1.2633501 -0.758876 -1.4257382
-1.4140435 -1.342496 -2.0060422 -1.3973768 -1.9380257 -1.8104872 -1.3017677 -1.0196483
-1.6355262 -1.9473999 -1.0763066 -1.0133705 -1.4639338 -1.2361716 -1.6654688 -1.2239312
00000000: e408 47bf c074 b1bf acc5 aebf ab25 e5bf
00000010: 7455 ecbf 4ade a0bf 1250 91bf a2e5 c9bf
00000020: 40f1 00c0 928b 7abf 73d0 41bf eda7 32bf
00000030: aacb cbbf 583c 78bf b751 91bf 3b73 a3bf
00000040: 01a4 99bf 2637 77bf c894 84bf fe70 c8bf
00000050: aa16 8dbf 4702 7ebf 6981 3bbf d488 f2bf
00000060: 622d 69bf 4798 abbf 2eb3 a1bf a07d ccbf
00000070: 554e 94bf 791c 65bf 48ba c7bf ee9c afbf
00000080: 877c d5bf 112e 78bf 25b7 9abf 6d24 90bf
00000090: d2a5 8bbf bfc3 b8bf 94f3 b0bf 0915 91bf
000000a0: 532c 7abf f5db c8bf 6e1d 94bf b796 d7bf
000000b0: b18f c0be 75b5 a1bf b345 42bf 977e b6bf
000000c0: 61ff b4bf e9d6 abbf ff62 00c0 3edd b2bf
000000d0: 3a11 f8bf 0bbe e7bf 53a0 a6bf d683 82bf
000000e0: ec58 d1bf 6644 f9bf 6ac4 89bf 20b6 81bf
000000f0: 2f62 bbbf df3a 9ebf 152e d5bf c7a9 9cbf

fc2.weight f4 [27, 64]
-0.11919364 -0.21260814 -0.66224146 0.030885886 -0.12851678 0.1414866 -0.45151323 -0.24010617
-0.53619397 -0.51238996 0.31822783 0.119085 0.46385542 -0.44487864 -0.90764165 -0.4317954
-0.3244513 -0.64067966 -0.9218164 0.23612712 0.0658272 -0.4560163 -0.034006048 -0.43811876
-0.055153504 -0.6223459 -0.6615608 -0.5647668 -0.63763255 0.029537758 0.579238 -0.018391673
0.6359609 -0.25826222 0.5052194 -0.005844728 0.42091313 0.2427846 -0.022017285 -0.48000523
-0.7827545 0.5202506 0.8076695 0.76639587 -0.7687933 -0.35568386 -0.013630809 -0.44390032
0.7572775 -0.7675741 -0.37754375 0.22961242 -0.11318261 0.082116954 -0.3569288 -0.9556475
0.15693639 0.5067533 0.59509885 0.4807553 -0.4224595 0.14248608 -0.4844488 -0.32434362
0.64410806 -0.7137268 -0.29186925 0.25995517 0.0169402 -1.4319044 -0.60285854 0.81390005
0.27200535 0.32911888 -0.5590681 0.14387621 -0.5496624 -1.5913148 -0.2164136 -0.21905176
0.32368073 -1.1950108 -1.0117934 -0.22111087 -0.5533659 -0.97952884 -0.46033463 -1.088384
0.5093898 -0.85471684 -0.8788638 0.39122912 -0.5618461 0.07218137 -0.8108475 -0.021842314
0.02429922 -1.7115692 0.1627286 -0.77574354 -0.553595 0.50115746 0.3551358 -1.0914739
0.36799 0.092193596 -0.7486148 -0.004765873 -0.5668113 -0.29436567 0.6077973 0.39771184
0.4179746 0.5077315 -0.16447143 -0.068311386 -0.51600015 0.29575193 -0.14763646 -0.24107648
0.37168178 0.42296368 -0.44561037 0.2531548 -0.53209436 0.18738526 0.37844813 -1.1933699
-0.2547352 -1.9742824 0.5021758 -0.9562413 -0.2685923 -1.3930097 -1.5850141 -0.4190722
0.34781453 0.6698838 -1.5250466 -1.4166288 -1.2453378 -0.97418267 0.3973644 -0.35742155
0.22012158 -0.73422146 -0.06516634 0.18848912 -1.5657799 -1.1810975 -0.5498243 -1.2634658
0.050840054 -1.2333817 -0.21570244 -0.5669348 0.80099565 -0.65632886 -0.8070322 -0.49217838
-0.25714362 -0.6383195 -1.3880744 -0.71378434 -1.07209 -0.08500522 -1.4493506 -0.8733715
0.08662766 0.33125627 -0.4596309 0.081590086 -0.17278306 -1.227975 -1.3783311 0.1448579
-0.04119746 -0.22128525 -0.34079129 -1.1350197 -0.76200145 -0.15674028 -1.6416168 -0.527149
0.72881275 0.6216927 -0.91188234 -1.6672121 -0.9574047 0.088548884 -0.59278405 -0.63983846
-0.347548 -1.3839874 -0.5848922 -0.15888286 0.19794895 -0.20431204 -0.9481019 -0.32349572
-0.40717146 0.62504697 -0.13151494 0.52090806 0.51116055 -0.032024115 -1.4244419 -0.045073498
0.17649594 -0.74667 -0.04751577 0.6667641 -0.34874582 -0.51673836 0.32914147 -0.6605467
0.18773909 -0.7735517 -0.51359963 -0.7064764 0.2696604 0.42569974 -0.62822896 -0.812004
0.16774723 -0.027304888 -0.04468983 -0.6591698 -1.1113374 -0.68455786 0.80815744 0.5968632
-1.6248534 0.15475051 0.70781225 -0.49048474 -0.13944171 -1.2665048 -1.3287951 -0.9836803
0.50326526 -0.9482338 0.34966663 -1.857198 -0.03399387 -0.19557358 -0.0026541653 -1.5633224
-0.13253058 0.37435022 0.7413954 -0.49436978 0.015108681 0.31555498 -0.8633349 -1.0045365
00000000: cc1b f4bd f3b5 59be a888 29bf 6604 fd3c
00000010: e799 03be dde1 103e be2c e7be 64de 75be
00000020: 0244 09bf fd2b 03bf c2ee a23e d6e2 f33d
00000030: 757e ed3e 22c7 e3be 345b 68bf 4914 ddbe
00000040: 7b1e a6be 9503 24bf 29fc 6bbf 4fcb 713e
00000050: 69d0 863d f87a e9be ed49 0bbd 1a51 e0be
00000060: a4e8 61bd 1052 1fbf 0c5c 29bf 8f94 10bf
00000070: e33b 23bf 2bf9 f13c f148 143f 22aa 96bc
00000080: 55ce 223f f23a 84be 0f56 013f 2285 bfbb
00000090: ed81 d73e 879c 783e 985d b4bc 3fc3 f5be
000000a0: 9962 48bf 252f 053f 6ec3 4e3f 8532 443f
000000b0: a3cf 44bf 321c b6be c253 5fbc e746 e3be
000000c0: f0dc 413f bc7f 44bf 6a4d c1be 851f 6b3e
000000d0: 49cc e7bd ef2c a83d 5fbf b6be 51a5 74bf
000000e0: efb3 203e 96ba 013f 6658 183f 8f25 f63e
000000f0: 9d4c d8be dfe7 113e ac09 f8be 5e10 a6be
00000100: 44e4 243f cdb6 36bf e36f 95be d818 853e
00000110: 2dc6 8a3c a548 b7bf f054 1abf c15b 503f
00000120: 4944 8b3e 4582 a83e 161f 0fbf 4954 133e
00000130: adb6 0cbf 34b0 cbbf 879b 5dbe 1b4f 60be
00000140: 7bb9 a53e 1df6 98bf 7282 81bf e36a 62be
00000150: 63a9 0dbf 67c2 7abf fbb0 ebbe 2b50 8bbf
00000160: 5f67 023f b9ce 5abf 38fd 60bf 2f4f c83e
00000170: 25d5 0fbf d3d3 933d b493 4fbf a7ee b2bc
00000180: 280f c73c b314 dbbf 53a2 263e 2197 46bf
00000190: 67b8 0dbf db4b 003f 5cd4 b53e 6bb5 8bbf
000001a0: 2f69 bc3e ffcf bc3d 38a5 3fbf 0a2b 9cbb
000001b0: 8c1a 11bf 19b7 96be 9b98 1b3f e3a0 cb3e
000001c0: c400 d63e b1fa 013f 336b 28be d7e6 8bbd
000001d0: 9618 04bf cc6c 973e 032e 17be c1dc 76be
000001e0: 134d be3e b28e d83e 0b27 e4be 829d 813e
000001f0: 5637 08bf ece1 3f3e f4c3 c13e 58c0 98bf
00000200: a76c 82be 49b5 fcbf 988e 003f 3bcc 74bf
00000210: ee84 89be 244e b2bf bee1 cabf a290 d6be
00000220: bf14 b23e 817d 2b3f ba34 c3bf 1854 b5bf
00000230: 3b67 9fbf 0964 79bf 5973 cb3e f5ff b6be
00000240: 8d67 613e f0f5 3bbf ee75 85bd 4b03 413e
00000250: 7a6b c8bf 342e 97bf 49c1 0cbf 3fb9 a1bf
00000260: a93d 503d 74df 9dbf 1ae1 5cbe a422 11bf
00000270: 0d0e 4d3f 2b05 28bf aa99 4ebf cefe fbbe
00000280: 54a8 83be e868 23bf 6cac b1bf 92ba 36bf
00000290: 3f3a 89bf 3717 aebd 5284 b9bf 4695 5fbf
000002a0: d869 b13d 6c9a a93e be54 ebbe b418 a73d
000002b0: 0bee 30be 492e 9dbf 276d b0bf a155 143e
000002c0: abbe 28bd 9a98 62be 327c aebe 5348 91bf
000002d0: 8712 43bf 8680 20be 8020 d2bf 3df3 06bf
000002e0: 7993 3a3f 4127 1f3f 1f71 69bf 3567 d5bf
000002f0: 7918 75bf 1e59 b53d b2c0 17bf 74cc 23bf
00000300: d0f1 b1be 8026 b1bf 7fbb 15bf 30b2 22be
00000310: 21b3 4a3e 2d37 51be ceb6 72bf 3ba1 a5be
00000320: c778 d0be 1403 203f daab 06be 3b5a 053f
00000330: 6bdb 023f b82b 03bd 1d54 b6bf fd9e 38bd
00000340: 5abb 343e c425 3fbf e59f 42bd 0db1 2a3f
00000350: d08e b2be f748 04bf 3b85 a83e 9719 29bf
00000360: ad3e 403e 7c07 46bf 447b 03bf a3db 34bf
00000370: ee10 8a3e 51f5 d93e 9dd3 20bf 7fdf 4fbf
00000380: eec5 2b3e 80ae dfbc af0c 37bd 5abf 28bf
00000390: 4e40 8ebf 2f3f 2fbf 68e3 4e3f 07cc 183f
000003a0: 32fb cfbf eb76 1e3e 2f33 353f d120 fbbe
000003b0: cfc9 0ebe d41c a2bf f515 aabf 79d2 7bbf
000003c0: fed5 003f 73bf 72bf 8107 b33e aab8 edbf
000003d0: 283d 0bbd 7144 48be 81f1 2dbb f31a c8bf
000003e0: 19b6 07be d5aa bf3e 17cc 3d3f 091e fdbe
000003f0: 678a 773c 6c90 a13e 8403 5dbf a794 80bf

fc2.bias f4 [27]
-0.1823801 -0.92310506 0.101605766 -0.70572436 0.3690837 0.015207159 -1.040612 -0.9540796
-1.1875325 -0.49366263 0.4785256 0.14449985 1.0009938 0.68123955 0.9661112 0.14582667
-2.5226073 -2.3184211 0.010722477 0.84325266 2.0063825 1.3384055 0.8727914 0.7994313
0.07685729 0.62022704 0.26662233
00000000: d9c1 3abe 9d50 6cbf af16 d03d 5aaa 34bf
00000010: 8af8 bc3e 7327 793c c632 85bf 903e 74bf
00000020: 1101 98bf 59c1 fcbe 4f01 f53e c5f7 133e
00000030: 9120 803f b765 2e3f 1053 773f 9653 153e
00000040: 6672 21c0 0361 14c0 54ad 2f3c 68df 573f
00000050: 9268 0040 df50 ab3f 426f 5f3f 88a7 4c3f
00000060: 5b67 9d3d 33c7 1e3f b982 883e
