ckpt/classifiers/rgb_epoch_40.pth (torch, 42168 bytes, 4 tensors)

fc1.weight f4 [64, 128]
0.094902724 -0.7248081 0.022232713 -0.33902806 0.2059207 0.63818204 0.5335407 -0.44701684
0.8270003 -0.50069106 1.0805236 -0.99742633 0.34043658 0.22432624 -0.78714025 -0.16037646
-0.48703507 1.1645117 -0.7990214 -0.28218764 0.20561267 -0.051788222 0.9205133 -0.5160318
-1.4846826 0.05949814 0.25225228 0.015764335 0.49349427 -1.1498177 0.245986 -0.29049698
0.21932185 0.3985499 0.7403405 0.52579224 0.15017194 -1.3131912 0.32202432 0.7401002
0.20417376 1.4090488 1.0232544 -0.8313293 0.3251543 -0.83092827 -0.35616204 0.6011915
0.09173919 -0.16094846 0.47162628 0.20778824 0.13119893 0.30234608 0.6106838 0.6388945
-1.1984056 -1.5087909 -0.07890469 0.5232569 -1.040652 0.052994102 0.71005064 0.020246034
-0.5374418 0.7337121 -0.2137427 -0.08241388 0.06266613 -0.1082855 0.3556612 -1.0183654
-0.19989374 0.42568353 -0.05938924 -0.57210636 -0.050214022 0.3451625 -0.9964661 0.4894283
-0.71060777 0.49407378 -0.9570199 0.33894235 0.05476603 -0.29348508 0.60729605 -1.0421001
0.6870237 0.26608628 0.08086674 -0.23294686 -0.59408325 0.16769196 0.4291529 0.6197657
-0.33022836 -0.6551694 0.085122764 -1.1251428 -0.5947767 0.00049759186 0.98797494 -0.023245446
-0.2809193 -0.73647106 -0.67272377 -0.25713155 -0.31393272 1.1346003 -0.84863234 0.9713352
0.4275548 0.48066866 0.054220706 -0.61295485 0.94472396 1.1351814 1.1542834 1.1771854
-0.8412944 -0.12117992 -1.212472 0.9288037 -0.5294017 -0.07715836 0.9018394 -1.2647328
-0.49958947 -0.34282354 0.44733804 -0.11377501 0.11168453 0.96392184 0.740189 -0.04073808
0.45907065 -0.21715918 0.4776684 -0.5572806 0.92978525 -0.07668183 -0.18609197 -1.0711595
0.5814805 0.7832781 -0.86399317 -0.28986076 0.6794308 0.90052533 1.4768823 0.4323897
-0.8269241 0.6625588 0.5420598 -1.034318 0.30201825 -0.52489007 -0.39259502 -0.7709618
0.97019523 -1.0835043 0.16983463 0.21808718 -0.14815725 0.15308781 -0.5056683 -0.23157929
0.18094625 1.1414863 0.3173425 0.2725241 0.8197332 -1.5660274 -0.86849797 0.1897865
-0.5056387 -0.35925183 0.35076684 -0.813266 -0.47342297 0.28716344 -0.025091173 -0.55761
0.3453217 0.6627812 -0.3948052 -0.7612639 -0.38691354 0.6512681 -0.6703517 -0.20839809
-0.04288768 1.2003121 0.13082919 -0.22415495 0.05758201 -0.18455264 -0.06470182 -0.843046
2.377168 0.25330234 -0.14444047 -0.77851015 0.2022247 -0.2408912 0.05652426 -0.043177623
-0.050558325 -0.37740853 0.26627338 -0.24883497 0.43194228 -0.77823013 -0.05548489 -1.0105093
0.70987666 0.7138663 0.8432049 0.6369041 -0.8147266 0.30704868 0.1278331 0.756323
-0.19076464 -0.31252933 0.49519873 0.7117428 0.19333108 1.5657563 0.09138077 -0.32406566
-0.30209792 -0.010319221 0.29150596 -0.68921024 -0.5584841 0.8371116 -0.9782435 -0.506346
0.7896743 -0.8436526 0.25148955 -0.19058336 0.40282944 0.23906167 0.6004922 0.45290387
-1.2119539 0.9595895 -1.1029599 0.8569145 -0.52554727 -0.031309366 0.037763752 0.39919153
00000000: 5c5c c23d 068d 39bf 6121 b63c 1695 adbe
00000010: e0dc 523e e65f 233f 2096 083f 64df e4be
00000020: 4bb6 533f 4a2d 00bf 994e 8a3f 5557 7fbf
00000030: b44d ae3e c7b5 653e 0682 49bf ba39 24be
00000040: a95c f9be b80e 953f ab8c 4cbf e67a 90be
00000050: 218c 523e e31f 54bd c2a6 6b3f a91a 04bf
00000060: 140a bebf 52b4 733d 3627 813e 3524 813c
00000070: 48ab fc3e 3a2d 93bf c1e3 7b3e 05bc 94be
00000080: e895 603e bc0e cc3e f486 3d3f 529a 063f
00000090: acc6 193e a616 a8bf 5fe0 a43e 3577 3d3f
000000a0: ed12 513e b65b b43f 00fa 823f ffd1 54bf
000000b0: a07a a63e b7b7 54bf df5a b6be b0e7 193f
000000c0: c2e1 bb3d accf 24be 0079 f13e 71c6 543e
000000d0: 0359 063e 1bcd 9a3e c655 1c3f 978e 233f
000000e0: 5b65 99bf 0f20 c1bf c898 a1bd 2af4 053f
000000f0: 1634 85bf 5810 593d e1c5 353f 03db a53c
00000100: c995 09bf 8ed4 3b3f 5edf 5abe 9cc8 a8bd
00000110: 1a57 803d cac4 ddbd 3a19 b63e cc59 82bf
00000120: f2b0 4cbe 31f3 d93e 2242 73bd 9075 12bf
00000130: 38ad 4dbd 24b9 b03e 6718 7fbf 5996 fa3e
00000140: 64ea 35bf 3df7 fc3e 42ff 74bf da89 ad3e
00000150: 5852 603d ad43 96be c177 1b3f 8963 85bf
00000160: c9e0 2f3f 763c 883e 769d a53d 9f89 6ebe
00000170: d715 18bf 71b7 2b3e eeb9 db3e f7a8 1e3f
00000180: b113 a9be 2fb9 27bf d854 ae3d ae04 90bf
00000190: 4943 18bf d370 023a edeb 7c3f 3c6d bebc
000001a0: a8d4 8fbe 5e89 3cbf a037 2cbf bfa6 83be
000001b0: cabb a0be 953a 913f f83f 59bf 6ca9 783f
000001c0: 76e8 da3e 341a f63e 8816 5e3d 9cea 1cbf
000001d0: 6ed9 713f a04d 913f 8fbf 933f 03ae 963f
000001e0: 125f 57bf 2e2d f8bd 4832 9bbf 14c6 6d3f
000001f0: df86 07bf 3405 9ebd f2de 663f c4e2 a1bf
00000200: 31ca ffbe 9186 afbe 7e09 e53e df02 e9bd
00000210: dcba e43d 95c3 763f 077d 3d3f f9dc 26bd
00000220: 4f0b eb3e fa5e 5ebe f490 f43e f1a9 0ebf
00000230: 6806 6e3f 5d0b 9dbd e58e 3ebe c11b 89bf
00000240: e8db 143f ea84 483f a82e 5dbf a168 94be
00000250: 2def 2d3f d488 663f 7b0a bd3f 2f62 dd3e
00000260: 4cb1 53bf 749d 293f 6ec4 0a3f 8864 84bf
00000270: 23a2 9a3e 325f 06bf 3702 c9be c15d 45bf
00000280: b75e 783f 45b0 8abf 21e9 2d3e 3f52 5f3e
00000290: 89b6 17be 0dc3 1c3e 7a73 01bf 1f23 6dbe
000002a0: f949 393e 391c 923f b77a a23e 4788 8b3e
000002b0: 09da 513f 9673 c8bf e255 5ebf 6457 423e
000002c0: 8a71 01bf dbef b7be b697 b33e 3332 50bf
000002d0: 7f64 f2be 1607 933e 018c cdbc 87bf 0ebf
000002e0: 02ce b03e 07ac 293f e823 cabe 31e2 42bf
000002f0: 8819 c6be 82b9 263f 2b9c 2bbf 4f66 55be
00000300: feaa 2fbd d4a3 993f 16f8 053e e088 65be
00000310: 1ddb 6b3d 5efb 3cbe 6382 84bd ddd1 57bf
00000320: 8523 1840 d8b0 813e 34e8 13be 714c 47bf
00000330: fe13 4f3e 2fac 76be fc85 673d 05db 30bd
00000340: 3f16 4fbd b13b c1be fc54 883e 98ce 7ebe
00000350: 8a27 dd3e 173a 47bf 2044 63bd 5e58 81bf
00000360: 7aba 353f f1bf 363f 47dc 573f 260c 233f
00000370: ec91 50bf 7c35 9d3e aee6 023e 629e 413f
00000380: ce57 43be d803 a0be b08a fd3e c734 363f
00000390: 95f8 453e b46a c83f d725 bb3d efeb a5be
000003a0: 94ac 9abe f311 29bc 4540 953e 1570 30bf
000003b0: d0f8 0ebf f24c 563f 2b6e 7abf e49f 01bf
000003c0: 1828 4a3f 9ef9 57bf 3dc3 803e 4928 43be
000003d0: a93f ce3e 95cc 743e dbb9 193f 04e3 e73e
000003e0: 4e21 9bbf a8a7 753f ca2d 8dbf c05e 5b3f
000003f0: 448a 06bf 403e 00bd 2aae 1a3d d562 cc3e

fc1.bias f4 [64]
-0.7810862 -1.3873246 -1.3663568 -1.7879815 -1.846407 -1.2614093 -1.1368561 -1.58526
-2.015539 -0.9773562 -0.7561141 -0.69807243 -1.5954381 -0.97621787 -1.137619 -1.2861586
-1.203201 -0.9645135 -1.0345883 -1.5675954 -1.0955715 -0.9943617 -0.73466074 -1.8898251
-0.9136468 -1.3421903 -1.2674465 -1.6019897 -1.1605527 -0.89533067 -1.5654391 -1.3751358
-1.6690947 -0.9711007 -1.2100059 -1.1315601 -1.0956656 -1.4433819 -1.3832076 -1.1331576
-0.98071355 -1.5690011 -1.1574454 -1.6841274 -0.37884578 -1.2662249 -0.761149 -1.425802
-1.4113895 -1.3438932 -2.0032244 -1.3987577 -1.9371257 -1.8121755 -1.3015349 -1.0221747
-1.6383538 -1.9487574 -1.0817978 -1.013217 -1.4669992 -1.2362394 -1.666524 -1.2272867
00000000: 44f5 47bf da93 b1bf c8e4 aebf 94dc e4bf
00000010: 1157 ecbf dc75 a1bf 8084 91bf cde9 cabf
00000020: 97fe 00c0 0434 7abf b290 41bf e0b4 32bf
00000030: 5137 ccbf 6ae9 79bf 809d 91bf d8a0 a4bf
00000040: 7e02 9abf 5bea 76bf 646d 84bf f7a6 c8bf
00000050: b03b 8cbf 7d8e 7ebf ba12 3cbf cae5 f1bf
00000060: c2e4 69bf e4cc abbf b03b a2bf 000e cdbf
00000070: fe8c 94bf 6434 65bf 4f60 c8bf 7304 b0bf
00000080: e5a4 d5bf 0e9a 78bf 79e1 9abf f6d6 90bf
00000090: c53e 8cbf bdc0 b8bf f20c b1bf 4f0b 91bf
000000a0: 0b10 7bbf 07d5 c8bf 2c27 94bf 7d91 d7bf
000000b0: 13f8 c1be a813 a2bf a9da 42bf ae80 b6bf
000000c0: 69a8 b4bf b104 acbf d434 00c0 7e0a b3bf
000000d0: bcf3 f7bf 5ef5 e7bf b298 a6bf 9fd6 82bf
000000e0: 94b5 d1bf e270 f9bf 5a78 8abf 18b1 81bf
000000f0: a1c6 bbbf 183d 9ebf a950 d5bf bb17 9dbf

fc2.weight f4 [27, 64]
-0.11916157 -0.21258003 -0.6622237 0.031247087 -0.12851678 0.14374489 -0.45092884 -0.2398331
-0.53619397 -0.51481074 0.31558818 0.11281991 0.46134508 -0.4441871 -0.90755147 -0.43172812
-0.32373434 -0.6403965 -0.9217996 0.23511134 0.065843076 -0.45594862 -0.033232346 -0.43713176
-0.054705992 -0.62232536 -0.66146547 -0.56449354 -0.63759845 0.031312168 0.57755923 -0.02223934
0.63460255 -0.25804946 0.5071667 -0.00797398 0.41835192 0.24328586 -0.022645693 -0.47922155
-0.78248465 0.5176408 0.8024787 0.76713157 -0.7687944 -0.35555753 -0.013539906 -0.44356638
0.7598262 -0.76753503 -0.37750652 0.2294551 -0.113179184 0.083861895 -0.35619766 -0.95529455
0.15736538 0.5011533 0.5892644 0.48137885 -0.42241156 0.14243786 -0.48431706 -0.3241992
0.64506555 -0.7134683 -0.29177693 0.25996312 0.016555589 -1.4318746 -0.602805 0.81386054
0.27200535 0.3301669 -0.5584447 0.14415197 -0.549516 -1.5905416 -0.21629637 -0.21882303
0.32289535 -1.1947126 -1.011787 -0.22102645 -0.5533507 -0.97950834 -0.46026874 -1.088255
0.50959307 -0.8546804 -0.8787184 0.39147928 -0.5617918 0.07242812 -0.81083924 -0.020948194
0.021759473 -1.7115308 0.16298144 -0.77573675 -0.55349606 0.50036025 0.35522333 -1.091291
0.36289194 0.09405463 -0.7484669 -0.0047542267 -0.56839657 -0.29376763 0.6039115 0.39289114
0.41545182 0.50553846 -0.16446999 -0.0724322 -0.51599956 0.29517654 -0.14661014 -0.24058832
0.37300774 0.42453128 -0.4463664 0.25430077 -0.5320213 0.18738526 0.3764969 -1.1933131
-0.25396144 -1.974273 0.5035618 -0.95624065 -0.2685923 -1.392906 -1.5848904 -0.41894236
0.34890983 0.6812617 -1.5155233 -1.4164658 -1.2452341 -0.9725349 0.3980451 -0.35638228
0.22228922 -0.7339249 -0.06511819 0.1889576 -1.5657779 -1.181074 -0.5483559 -1.2625886
0.050611287 -1.2333426 -0.21487136 -0.5665269 0.8047315 -0.65482265 -0.80696696 -0.49210966
-0.2570368 -0.6382833 -1.3879873 -0.7137567 -1.071472 -0.0849597 -1.4491191 -0.87307984
0.0864989 0.3329306 -0.45959735 0.08167338 -0.17143182 -1.2273587 -1.3781763 0.14194536
-0.04115116 -0.22098574 -0.34078932 -1.1350036 -0.7620009 -0.15668595 -1.6415269 -0.52687895
0.7323021 0.6252943 -0.91169083 -1.6668599 -0.95734 0.088548884 -0.58866227 -0.63967276
-0.34742475 -1.3839772 -0.5848857 -0.15854946 0.19794285 -0.20421793 -0.948042 -0.32282487
-0.40719345 0.6276611 -0.13108365 0.52187055 0.51278895 -0.030368337 -1.4244227 -0.04496445
0.17420799 -0.74621 -0.04743382 0.6701883 -0.34866357 -0.5166546 0.33016902 -0.6624786
0.18889701 -0.7735371 -0.5134313 -0.7063866 0.27338552 0.42556506 -0.62818354 -0.8095859
0.16841757 -0.027003368 -0.045774218 -0.6586659 -1.1108546 -0.68454444 0.8077394 0.5999424
-1.6246352 0.15624702 0.71267074 -0.49045485 -0.1390457 -1.2664565 -1.3203045 -0.98362356
0.50247747 -0.947982 0.3504771 -1.8571966 -0.033998013 -0.19467486 -0.0035895717 -1.5626689
-0.13255179 0.37664297 0.7452833 -0.49711785 0.015221181 0.31555519 -0.86319363 -1.0044975
00000000: fb0a f4bd 94ae 59be 7e87 29bf e4f9 ff3c
00000010: e799 03be dc31 133e 25e0 e6be cf96 75be
00000020: 0244 09bf a3ca 03bf c694 a13e 200e e73d
00000030: 6c35 ec3e 7e6c e3be 4b55 68bf 780b ddbe
00000040: 82c0 a5be 06f1 23bf 0ffb 6bbf 07c1 703e
00000050: bcd8 863d 1972 e9be a41e 08bd bccf dfbe
00000060: 6413 60bd b750 1fbf cd55 29bf a682 10bf
00000070: a739 23bf 3041 003d ecda 133f 472f b6bc
00000080: 5075 223f 0f1f 84be add5 013f 4ca5 02bc
00000090: 3932 d63e ee1f 793e 7683 b9bc 875c f5be
000000a0: ea50 48bf 1c84 043f 3e6f 4d3f bc62 443f
000000b0: b6cf 44bf a30b b6be 7bd6 5dbc 221b e3be
000000c0: f883 423f 2d7d 44bf 8948 c1be 47f6 6a3e
000000d0: 7dca e7bd c9bf ab3d 8a5f b6be 2f8e 74bf
000000e0: 6424 213e 954b 003f 08da 163f 4a77 f63e
000000f0: 5446 d8be 3bdb 113e 68f8 f7be 70fd a5be
00000100: 0423 253f dca5 36bf c963 95be e319 853e
00000110: 969f 873c ab47 b7bf 6e51 1abf 2a59 503f
00000120: 4944 8b3e a30b a93e 3bf6 0ebf 939c 133e
00000130: 15ad 0cbf de96 cbbf cc7c 5dbe 2513 60be
00000140: 8a52 a53e 58ec 98bf 3d82 81bf c254 62be
00000150: 64a8 0dbf 0fc1 7abf 58a8 ebbe f14b 8bbf
00000160: b174 023f 56cc 5abf b0f3 60bf f96f c83e
00000170: 96d1 0fbf 3255 943d 2993 4fbf 8c9b abbc
00000180: ec40 b23c 7113 dbbf 9be4 263e af96 46bf
00000190: ebb1 0dbf 9c17 003f d5df b53e 6caf 8bbf
000001a0: f9cc b93e b79f c03d 879b 3fbf 58c9 9bbb
000001b0: 7082 11bf b668 96be f299 1a3f 0729 c93e
000001c0: 1ab6 d43e f86a 013f d26a 28be 5557 94bd
000001d0: 8c18 04bf 6121 973e f820 16be c95c 76be
000001e0: dffa be3e 2a5c d93e 238a e4be b633 823e
000001f0: 8c32 08bf ece1 3f3e 34c4 c03e 7cbe 98bf
00000200: 3c07 82be fab4 fcbf 6de9 003f 30cc 74bf
00000210: ee84 89be be4a b2bf b0dd cabf 9d7f d6be
00000220: 4fa4 b23e 2b67 2e3f abfc c1bf c04e b5bf
00000230: d563 9fbf 0cf8 78bf 91cc cb3e bd77 b6be
00000240: c99f 633e 81e2 3bbf b05c 85bd 1a7e 413e
00000250: 696b c8bf 6f2d 97bf 0d61 0cbf 819c a1bf
00000260: c84d 4f3d 2cde 9dbf 3d07 5cbe e807 11bf
00000270: e202 4e3f 75a2 27bf 6395 4ebf ccf5 fbbe
00000280: 549a 83be 8966 23bf 91a9 b1bf c2b8 36bf
00000290: ff25 89bf 5aff adbd bc7c b9bf 2982 5fbf
000002a0: 5626 b13d e175 aa3e 5850 ebbe 6044 a73d
000002b0: d38b 2fbe 171a 9dbf 1568 b0bf 205a 113e
000002c0: 1e8e 28bd 164a 62be f07b aebe cc47 91bf
000002d0: 7e12 43bf 4872 20be 8e1d d2bf 8ae1 06bf
000002e0: 2778 3b3f 4a13 203f 9264 69bf aa5b d5bf
000002f0: 3c14 75bf 1e59 b53d 92b2 16bf 98c1 23bf
00000300: a8e1 b1be 2a26 b1bf 12bb 15bf ca5a 22be
00000310: 88b1 4a3e 811e 51be e1b2 72bf 4d49 a5be
00000320: a97b d0be 66ae 203f cb3a 06be 4f99 053f
00000330: 2346 033f 05c7 f8bc 7c53 b6bf a52c 38bd
00000340: 9463 323e 9e07 3fbf f749 42bd 7691 2b3f
00000350: 0884 b2be 7a43 04bf ea0b a93e 3398 29bf
00000360: 386e 413e 8706 46bf 3c70 03bf c1d5 34bf
00000370: 30f9 8b3e aae3 d93e a3d0 20bf 0641 4fbf
00000380: a875 2c3e 2b36 ddbc bf7d 3bbd 549e 28bf
00000390: 7c30 8ebf 4e3e 2fbf 02c8 4e3f d395 193f
000003a0: 0cf4 cfbf 38ff 1f3e 9771 363f e61c fbbe
000003b0: ff61 0ebe 3f1b a2bf bdff a8bf c1ce 7bbf
000003c0: 5da2 003f f3ae 72bf bc71 b33e 9eb8 edbf
000003d0: 8041 0bbd d958 47be 053f 6bbb 8905 c8bf
000003e0: a8bb 07be 59d7 c03e e3ca 3e3f 3b86 febe
000003f0: 4362 793c 7390 a13e 42fa 5cbf 6093 80bf

fc2.bias f4 [27]
-0.18251604 -0.9262845 0.10390918 -0.7054466 0.3638763 0.014286247 -1.0363638 -0.9495922
-1.1870459 -0.4927861 0.48137656 0.14543141 1.000717 0.6867192 0.9644362 0.14608942
-2.5197756 -2.314656 0.009696156 0.8397228 1.9973454 1.3378232 0.8733763 0.8040188
0.077255584 0.6118278 0.26875815
00000000: 7ce5 3abe fb20 6dbf 56ce d43d 2698 34bf
00000010: ff4d ba3e dd10 6a3c 92a7 84bf 7918 73bf
00000020: 1ff1 97bf 764e fcbe fd76 f63e f9eb 143e
00000030: 7f17 803f d4cc 2f3f 4ae5 763f 7798 153e
00000040: 0144 21c0 5323 14c0 a0dc 1e3c 13f8 563f
00000050: 04a9 ff3f ca3d ab3f 9795 5f3f 2dd4 4d3f
00000060: 2d38 9e3d bfa0 1c3f ab9a 893e
