ckpt/classifiers/rgb_epoch_49.pth (torch, 42168 bytes, 4 tensors)

fc1.weight f4 [64, 128]
0.09724028 -0.7271287 0.023145659 -0.34215432 0.20560631 0.6406917 0.532773 -0.44892278
0.83150953 -0.5029391 1.0841966 -1.0029624 0.33742964 0.22796583 -0.7861366 -0.15682913
-0.4878449 1.1635367 -0.7955391 -0.27951226 0.20876363 -0.047388077 0.9237254 -0.5174316
-1.4817611 0.06296541 0.25279 0.011835514 0.4896647 -1.1511215 0.24280787 -0.29173675
0.21878007 0.39412695 0.73847574 0.5246505 0.1489864 -1.3091186 0.31565985 0.738525
0.20143403 1.4123302 1.0235878 -0.8312298 0.32263714 -0.8337574 -0.35842365 0.60320884
0.09031247 -0.1643939 0.47703943 0.20821658 0.12898283 0.30862466 0.6062782 0.64208484
-1.1963459 -1.5074799 -0.07613826 0.5205925 -1.0385729 0.058862966 0.7131593 0.02364135
-0.5350835 0.7337774 -0.21103948 -0.082756095 0.057873614 -0.10082266 0.34890723 -1.01879
-0.20145431 0.41987166 -0.059960123 -0.57767296 -0.05154607 0.33987716 -1.0013489 0.49510026
-0.71077144 0.49680266 -0.95661294 0.33967373 0.05314704 -0.29496172 0.61370146 -1.0451367
0.6915188 0.2649597 0.084621884 -0.23599169 -0.5943286 0.16814344 0.4285697 0.6230851
-0.32881823 -0.6510811 0.081210054 -1.130611 -0.59418887 0.00055002555 0.99070054 -0.026348652
-0.2820548 -0.73917234 -0.6716585 -0.25702918 -0.3121346 1.1290568 -0.8506099 0.9705828
0.42342573 0.47709075 0.055291973 -0.61194664 0.9412742 1.1405932 1.1549683 1.1832981
-0.8358656 -0.12224994 -1.2143679 0.9277041 -0.5323179 -0.07901715 0.90070087 -1.263734
-0.50007564 -0.34075353 0.44731975 -0.11551973 0.11068317 0.9626059 0.7408587 -0.03995524
0.45790988 -0.21865878 0.47891933 -0.55542624 0.9298562 -0.0767256 -0.18542007 -1.0738941
0.5817025 0.78471 -0.8664765 -0.29299814 0.6783494 0.89892036 1.4775591 0.43502027
-0.8261332 0.6626723 0.54116976 -1.0359172 0.3055554 -0.52352923 -0.39539582 -0.77246225
0.96954477 -1.0826491 0.16992772 0.21942037 -0.14718169 0.1525011 -0.50523543 -0.23080884
0.17910787 1.1398721 0.31747815 0.27481696 0.82111967 -1.5681196 -0.8683112 0.18935604
-0.5035647 -0.35816962 0.35240993 -0.8144652 -0.47195387 0.2851671 -0.025837129 -0.5564898
0.34508076 0.6610312 -0.39407137 -0.761059 -0.38621277 0.6527372 -0.6696356 -0.2087619
-0.044242322 1.2014902 0.12970057 -0.22295973 0.05669083 -0.18543808 -0.06432319 -0.84282243
2.3780818 0.2526145 -0.14480342 -0.7779688 0.20139758 -0.23902087 0.05576095 -0.044654403
-0.05104577 -0.37765747 0.2648005 -0.25087836 0.43418288 -0.77792716 -0.05599972 -1.0091469
0.7087289 0.71511215 0.8412213 0.6367995 -0.8135536 0.3083858 0.12795693 0.754764
-0.19017252 -0.31468654 0.4957124 0.7099408 0.19423798 1.5676196 0.09174967 -0.3222881
-0.30245364 -0.0094698565 0.29086295 -0.6894541 -0.5582626 0.8368833 -0.97813094 -0.5068011
0.79016376 -0.84377635 0.25075036 -0.18934552 0.4039512 0.23827031 0.6009027 0.45051515
-1.2126662 0.958308 -1.1044148 0.8570391 -0.5253477 -0.02934837 0.03898296 0.39773232
00000000: e925 c73d 1b25 3abf f79b bd3c da2e afbe
00000010: 768a 523e 5f04 243f d063 083f 35d9 e5be
00000020: cfdd 543f 9ec0 00bf f4c6 8a3f 1261 80bf
00000030: 94c3 ac3e e06f 693e 4040 49bf d197 20be
00000040: cfc6 f9be c5ee 943f 73a8 4bbf 3b1c 8fbe
00000050: 22c6 553e 001a 42bd 4579 6c3f 6676 04bf
00000060: 59aa bdbf 02f4 803d b16d 813e bee9 413c
00000070: 55b5 fa3e f357 93bf a0a2 783e 855e 95be
00000080: e207 603e 02cb c93e bf0c 3d3f 7f4f 063f
00000090: e48f 183e 3391 a7bf 2b9e a13e f90f 3d3f
000000a0: b944 4e3e 3cc7 b43f ed04 833f 7acb 54bf
000000b0: b230 a53e 2071 55bf 4e83 b7be e56b 1a3f
000000c0: bff5 b83d e056 28be 833e f43e ba36 553e
000000d0: 1314 043e 0d04 9e3e 0c35 1b3f ac5f 243f
000000e0: dd21 99bf 1af5 c0bf 60ee 9bbd 8d45 053f
000000f0: f5ef 84bf 4b1a 713d 9c91 363f 81ab c13c
00000100: 3bfb 08bf d6d8 3b3f bc1a 58be 077c a9bd
00000110: e20c 6d3d 1c7c cebd f8a3 b23e b667 82bf
00000120: 0a4a 4ebe 6bf9 d63e bf98 75bd 60e2 13bf
00000130: f921 53bd 6104 ae3e 332c 80bf c87d fd3e
00000140: 1ef5 35bf eb5c fe3e 96e4 74bf b7e9 ad3e
00000150: b6b0 593d 3905 97be 8a1b 1d3f 0ac7 85bf
00000160: 6007 313f cca8 873e 3d4e ad3d cea7 71be
00000170: eb25 18bf cb2d 2c3e 7d6d db3e 8182 1f3f
00000180: dd5a a8be 40ad 26bf 7551 a63d dcb7 90bf
00000190: c31c 18bf 972f 103a 8d9e 7d3f 21d9 d7bc
000001a0: 7d69 90be 663a 3dbf d0f1 2bbf 5499 83be
000001b0: 1bd0 9fbe ef84 903f 92c1 59bf 1d78 783f
000001c0: 42cb d83e 3d45 f43e d679 623d 89a8 1cbf
000001d0: 59f7 703f f5fe 913f 00d6 933f 5076 973f
000001e0: 4afb 55bf 2d5e fabd 6870 9bbf 047e 6d3f
000001f0: fc45 08bf bed3 a1bd 5594 663f 09c2 a1bf
00000200: f504 00bf 3f77 aebe 1807 e53e 9c95 ecbd
00000210: dcad e23d 576d 763f eaa8 3d3f 1ba8 23bd
00000220: 2a73 ea3e 16e8 5fbe ea34 f53e 6a30 0ebf
00000230: 0e0b 6e3f 5022 9dbd c2de 3dbe 5d75 89bf
00000240: 74ea 143f c1e2 483f 67d1 5dbf da03 96be
00000250: 4ea8 2d3f a51f 663f a820 bd3f faba de3e
00000260: 777d 53bf e4a4 293f 1a8a 0a3f ef98 84bf
00000270: c271 9c3e 0306 06bf 5271 cabe 16c0 45bf
00000280: 1634 783f 3f94 8abf 8801 2e3e bcaf 603e
00000290: ccb6 16be 4029 1c3e 1c57 01bf 2759 6cbe
000002a0: 0e68 373e 54e7 913f 7f8c a23e cfb4 8c3e
000002b0: e634 523f 25b8 c8bf a549 5ebf 8de6 413e
000002c0: 9ee9 00bf 0262 b7be 136f b43e cb80 50bf
000002d0: f0a3 f1be 6c01 923e 63a8 d3bc 1e76 0ebf
000002e0: 6dae b03e 5739 293f b9c3 c9be c3d4 42bf
000002f0: aebd c5be c919 273f 3d6d 2bbf aec5 55be
00000300: 7037 35bd 6eca 993f 3ad0 043e 8e4f 64be
00000310: a534 683d 7be3 3dbe e0bb 83bd 36c3 57bf
00000320: 7e32 1840 b056 813e 5947 14be f728 47bf
00000330: 2b3b 4e3e e3c1 74be 9865 643d 89e7 36bd
00000340: 5f15 51bd 525c c1be ee93 873e 2173 80be
00000350: 384d de3e 3c26 47bf f65f 65bd ba2b 81bf
00000360: 426f 353f 9711 373f 475a 573f 4b05 233f
00000370: 0c45 50bf bee4 9d3e 2407 033e 3738 413f
00000380: 96bc 42be 981e a1be 04ce fd3e aebe 353f
00000390: 52e6 463e c2a7 c83f 40e7 bb3d f202 a5be
000003a0: 34db 9abe 7527 1bbc fdeb 943e 1080 30bf
000003b0: 4cea 0ebf fc3d 563f ca66 7abf b8bd 01bf
000003c0: 2c48 4a3f ba01 58bf 5a62 803e cbe3 41be
000003d0: b1d2 ce3e 22fd 733e c2d4 193f eca9 e63e
000003e0: a538 9bbf ac53 753f 775d 8dbf ea66 5b3f
000003f0: 307d 06bf fe6b f0bc 99ac 1f3d 92a3 cb3e

fc1.bias f4 [64]
-0.7775397 -1.3864366 -1.365354 -1.790264 -1.8463162 -1.2566818 -1.1350973 -1.577062
-2.014707 -0.9786556 -0.757223 -0.6976642 -1.5922136 -0.96960086 -1.1354291 -1.2766286
-1.2002624 -0.9658393 -1.0359037 -1.5658029 -1.1026418 -0.9921265 -0.73224974 -1.8950045
-0.9109299 -1.3404757 -1.2627441 -1.5973165 -1.1587645 -0.8949886 -1.560205 -1.3716983
-1.6677556 -0.9694241 -1.2086577 -1.1256204 -1.09072 -1.4434263 -1.3823578 -1.1334666
-0.9771507 -1.568654 -1.1571897 -1.6842592 -0.37575683 -1.2632964 -0.7587231 -1.4256961
-1.413964 -1.3422089 -2.006217 -1.397215 -1.9379516 -1.8103951 -1.3017875 -1.01984
-1.6354525 -1.9468344 -1.0763358 -1.0134984 -1.4637299 -1.2363664 -1.6653281 -1.2236828
00000000: d70c 47bf c176 b1bf ebc3 aebf 5f27 e5bf
00000010: 1754 ecbf f3da a0bf de4a 91bf 2bdd c9bf
00000020: f6f0 00c0 2c89 7abf 5ed9 41bf 1f9a 32bf
00000030: a8cd cbbf c337 78bf be55 91bf 9168 a3bf
00000040: 33a2 99bf 3f41 77bf 7e98 84bf 3b6c c8bf
00000050: 5e23 8dbf 01fc 7dbf b874 3bbf 828f f2bf
00000060: b432 69bf b594 abbf 99a1 a1bf de74 ccbf
00000070: 6552 94bf f91d 65bf ccb4 c7bf cf93 afbf
00000080: 0479 d5bf 2e2c 78bf 4cb5 9abf 5414 90bf
00000090: b79c 8bbf 31c2 b8bf 1af1 b0bf 6f15 91bf
000000a0: 8c26 7abf a7c9 c8bf cb1e 94bf ce95 d7bf
000000b0: 3363 c0be b2b3 a1bf ad3b 42bf 367d b6bf
000000c0: c6fc b4bf 80cd abbf dc65 00c0 f1d7 b2bf
000000d0: cc0e f8bf 07bb e7bf f9a0 a6bf 1e8a 82bf
000000e0: 8256 d1bf df31 f9bf 5fc5 89bf 51ba 81bf
000000f0: 805b bbbf 4141 9ebf 7929 d5bf a3a1 9cbf

fc2.weight f4 [27, 64]
-0.1191941 -0.21260968 -0.6622464 0.03088428 -0.12851678 0.14136404 -0.45151433 -0.24011204
-0.5362063 -0.5122465 0.31836239 0.11928324 0.46395206 -0.44490576 -0.90764475 -0.4317991
-0.3244773 -0.64070827 -0.9218194 0.23613584 0.06582581 -0.4560188 -0.034068596 -0.43819267
-0.055175193 -0.622347 -0.66157055 -0.56479955 -0.63763356 0.029488722 0.5792684 -0.018203666
0.63603586 -0.2582743 0.5051345 -0.005816959 0.42084506 0.24277177 -0.022050595 -0.48008215
-0.7827668 0.52031475 0.80755615 0.76636046 -0.7686074 -0.35568768 -0.013655216 -0.44391772
0.7573038 -0.7675755 -0.377544 0.22998175 -0.11318296 0.08206742 -0.3569375 -0.95565414
0.15688963 0.5067245 0.59522784 0.4806895 -0.422462 0.14248511 -0.48445472 -0.32435077
0.6436084 -0.7137347 -0.2918745 0.25995517 0.016942095 -1.4319079 -0.6028617 0.8138021
0.27200535 0.32931828 -0.5590748 0.14386405 -0.54965526 -1.5913227 -0.21647155 -0.21906652
0.32377133 -1.195027 -1.0117953 -0.22111459 -0.5533685 -0.97952986 -0.46033868 -1.0883917
0.5092764 -0.85471785 -0.8790189 0.3908765 -0.5618472 0.072164685 -0.8108475 -0.02182138
0.024387347 -1.7115728 0.16271049 -0.77574444 -0.5535988 0.5013686 0.35512286 -1.0914763
0.36785668 0.092091255 -0.7486202 -0.004766081 -0.5667173 -0.29439396 0.6082571 0.3977875
0.4180939 0.50780696 -0.16447143 -0.06784271 -0.51600015 0.295917 -0.14771488 -0.24111272
0.3716203 0.42329422 -0.445605 0.25336713 -0.5321005 0.18738526 0.37893167 -1.193375
-0.25477675 -1.9742824 0.50221175 -0.9562688 -0.2685923 -1.393028 -1.5850196 -0.41908222
0.34780505 0.66970396 -1.5251132 -1.4166363 -1.2453389 -0.97421414 0.39729965 -0.35746506
0.21993867 -0.7342775 -0.06517198 0.18833423 -1.5657799 -1.1810976 -0.5498454 -1.2635565
0.050844595 -1.2333825 -0.21575734 -0.5669639 0.8007117 -0.6563435 -0.8070328 -0.49218157
-0.25714573 -0.6383236 -1.3880771 -0.71378434 -1.0720953 -0.08500609 -1.4493587 -0.8733753
0.08657689 0.33135316 -0.4596321 0.08158754 -0.17279793 -1.227984 -1.378333 0.14496338
-0.04120411 -0.22129314 -0.34079129 -1.1350197 -0.76203287 -0.15674192 -1.6416197 -0.52715564
0.7287398 0.6217234 -0.9118835 -1.6672187 -0.95740896 0.088548884 -0.5927924 -0.63984436
-0.34755725 -1.3839874 -0.5848922 -0.15888697 0.19794999 -0.20431037 -0.9481046 -0.32350296
-0.40716335 0.6249822 -0.13135384 0.5208328 0.51094526 -0.03206932 -1.4244442 -0.04507878
0.17662169 -0.7467237 -0.04751593 0.6667208 -0.34876087 -0.5167429 0.32898366 -0.6601561
0.18766308 -0.77355194 -0.5140504 -0.70648277 0.2695354 0.42571184 -0.6282306 -0.8124004
0.1677507 -0.027313072 -0.044631075 -0.65920216 -1.1113409 -0.68455786 0.8080342 0.59680563
-1.6248593 0.15465428 0.7079327 -0.49048525 -0.13944948 -1.2665056 -1.3288801 -0.9836822
0.50323474 -0.9482377 0.34955406 -1.857198 -0.033991583 -0.19560014 -0.0026459729 -1.563344
-0.13251534 0.37436578 0.74129045 -0.49430248 0.015103787 0.31555498 -0.86335474 -1.0045403
00000000: 091c f4bd 5ab6 59be fb88 29bf 0801 fd3c
00000010: e799 03be bcc1 103e e32c e7be eedf 75be
00000020: d144 09bf 9622 03bf 6500 a33e c54a f43d
00000030: 208b ed3e b0ca e3be 685b 68bf c614 ddbe
00000040: e321 a6be 7505 24bf 5bfc 6bbf 98cd 713e
00000050: afcf 863d 4c7b e9be 838b 0bbd ca5a e0be
00000060: 62ff 61bd 2252 1fbf b05c 29bf b496 10bf
00000070: f43b 23bf 5592 f13c ef4a 143f db1f 95bc
00000080: 3fd3 223f 873c 84be 7f50 013f 309c bebb
00000090: 0179 d73e 2a99 783e 73a3 b4bc 54cd f5be
000000a0: 6863 48bf 5933 053f 00bc 4e3f 3330 443f
000000b0: 74c3 44bf b21c b6be 21ba 5fbc 2f49 e3be
000000c0: a9de 413f d47f 44bf 724d c1be 5680 6b3e
000000d0: 78cc e7bd f712 a83d 83c0 b6be c0a5 74bf
000000e0: ada7 203e b2b8 013f da60 183f ef1c f63e
000000f0: f04c d8be 9ee7 113e 730a f8be 4e11 a6be
00000100: 85c3 243f 51b7 36bf 9370 95be d818 853e
00000110: 26ca 8a3c c248 b7bf 2555 1abf 5655 503f
00000120: 4944 8b3e 689c a83e 871f 0fbf 1951 133e
00000130: 35b6 0cbf 76b0 cbbf b8aa 5dbe f952 60be
00000140: 5bc5 a53e a5f6 98bf 8282 81bf dd6b 62be
00000150: 8fa9 0dbf 78c2 7abf 83b1 ebbe 6b50 8bbf
00000160: f05f 023f cace 5abf 6207 61bf f720 c83e
00000170: 38d5 0fbf 14cb 933d b493 4fbf c0c2 b2bc
00000180: f9c7 c73c d114 dbbf 949d 263e 3097 46bf
00000190: a7b8 0dbf b159 003f aad2 b53e 7fb5 8bbf
000001a0: b657 bc3e 579a bc3d 93a5 3fbf c92c 9cbb
000001b0: 6314 11bf ceba 96be bdb6 1b3f ceaa cb3e
000001c0: 6710 d63e a3ff 013f 336b 28be 1ef1 8abd
000001d0: 9618 04bf 6f82 973e 9242 17be 41e6 76be
000001e0: 0445 be3e 05ba d83e 5726 e4be 56b9 813e
000001f0: bd37 08bf ece1 3f3e 5503 c23e 83c0 98bf
00000200: 1972 82be 49b5 fcbf f390 003f 08ce 74bf
00000210: ee84 89be be4e b2bf ece1 cabf f291 d6be
00000220: 8113 b23e b871 2b3f e936 c3bf 5754 b5bf
00000230: 4467 9fbf 1966 79bf dc6a cb3e a905 b7be
00000240: 9a37 613e 9cf9 3bbf e378 85bd b0da 403e
00000250: 7a6b c8bf 352e 97bf abc2 0cbf 38bc a1bf
00000260: 6c42 503d 7adf 9dbf 7eef 5cbe 8c24 11bf
00000270: 71fb 4c3f 2106 28bf b499 4ebf 39ff fbbe
00000280: 9ba8 83be 2d69 23bf 83ac b1bf 92ba 36bf
00000290: 6b3a 89bf ac17 aebd 9684 b9bf 8695 5fbf
000002a0: 394f b13d 1fa7 a93e e654 ebbe 5e17 a73d
000002b0: f1f1 30be 942e 9dbf 376d b0bf 4871 143e
000002c0: a4c5 28bd ab9a 62be 327c aebe 5348 91bf
000002d0: 9614 43bf f480 20be 9820 d2bf acf3 06bf
000002e0: b18e 3a3f 4429 1f3f 3271 69bf 6c67 d5bf
000002f0: c118 75bf 1e59 b53d 3ec1 17bf d7cc 23bf
00000300: 06f3 b1be 8026 b1bf 7fbb 15bf 44b3 22be
00000310: 67b3 4a3e bd36 51be fcb6 72bf 2ea2 a5be
00000320: b777 d0be d5fe 1f3f 9f81 06be 4c55 053f
00000330: 4fcd 023f 1f5b 03bd 3054 b6bf 87a4 38bd
00000340: 51dc 343e 4929 3fbf 10a0 42bd 37ae 2a3f
00000350: c990 b2be 4349 04bf 8c70 a83e fdff 28bf
00000360: c02a 403e 8007 46bf cf98 03bf 0edc 34bf
00000370: 8b00 8a3e e7f6 d93e b8d3 20bf 79f9 4fbf
00000380: d7c6 2b3e aabf dfbc 13cf 36bd 79c1 28bf
00000390: 6b40 8ebf 2f3f 2fbf 54db 4e3f 41c8 183f
000003a0: 64fb cfbf b15d 1e3e 143b 353f e220 fbbe
000003b0: d8cb 0ebe db1c a2bf be18 aabf 99d2 7bbf
000003c0: fed3 003f b5bf 72bf c0f8 b23e aab8 edbf
000003d0: c23a 0bbd 674b 48be 0f68 2dbb a81b c8bf
000003e0: 1ab2 07be dfac bf3e 36c5 3d3f 3715 fdbe
000003f0: e075 773c 6c90 a13e d104 5dbf c794 80bf

fc2.bias f4 [27]
-0.18244661 -0.92292464 0.10162714 -0.7058217 0.36938858 0.015352781 -1.0408128 -0.9544061
-1.1876657 -0.49383116 0.4784554 0.14456187 1.0011511 0.6812898 0.96629345 0.1459144
-2.5228825 -2.3187916 0.010789367 0.84350604 2.006634 1.3382459 0.8726101 0.7995091
0.076673165 0.6206198 0.2665754
00000000: 49d3 3abe ca44 6cbf e421 d03d bbb0 34bf
00000010: 8020 bd3e 3b8a 7b3c 5b39 85bf f553 74bf
00000020: 6e05 98bf 70d7 fcbe 1bf8 f43e 0708 143e
00000030: b825 803f 0269 2e3f 025f 773f 966a 153e
00000040: e876 21c0 1567 14c0 e3c5 303c 03f0 573f
00000050: b16c 0040 a44b ab3f 6063 5f3f a1ac 4c3f
00000060: d206 9d3d f0e0 1e3f 927c 883e
